reference/saved_models-05/20250725_190404/gesture_classifier.tflite (tflite, 184572 bytes, 8 tensors)

sequential/lstm/Read_2/ReadVariableOp f4 [256]
000000 d4 71 ef 3b 28 86 fe 3d c7 9f 2f 3e 82 9b da 3d
       0.0073072705 0.12427932 0.17150794 0.10674192
000010 97 2e 9e bc db 6b 89 3d 32 98 da 3d 1b 9c 6f bc
       -0.019309325 0.06710025 0.1067356 -0.014624621
000020 17 97 80 3d 46 f0 a8 bc 47 6a d8 3c 45 08 f8 3c
       0.06278818 -0.020622384 0.026417864 0.03027738
000030 51 e9 2d 3d 48 78 29 3e a5 19 6c 3e 48 1b 72 3d
       0.042458836 0.1654979 0.23056658 0.05910805
000040 75 f3 82 3c f8 7a 8c 3d bf e8 af bc dc 1b ba 3c
       0.01598523 0.06859392 -0.021473287 0.022718363
000050 2e 0e 9e 3d 7a 73 9e 3c 35 2d 91 3d 37 09 a8 3d
       0.07717548 0.019342173 0.07088701 0.082048826
000060 6b f9 d3 bc ca 81 1c 3e e0 62 8d bc 42 41 9d 3d
       -0.025875768 0.15283886 -0.017259061 0.076784626
000070 07 dd 31 3e 65 ba 27 bb 1f c3 cb 3c 56 e5 8c 3b
       0.17369471 -0.0025593278 0.024873314 0.0042998
000080 b3 df 9c 3d eb cc 6a 3d 28 ef c8 3d 41 62 50 3d
       0.07659855 0.05732433 0.098112404 0.050874952
000090 a9 a0 5b bb 8a 65 04 bd 8c 5b bb 3c 4b f7 4b 3d
       -0.003351251 -0.032323398 0.022870801 0.049796384
0000a0 57 65 31 3d 94 06 2e bd 98 98 cf 3d 09 2d a2 bc
       0.043309536 -0.042486742 0.10136527 -0.019796865
0000b0 43 e7 89 3d 9f 77 c4 3c 9d 0f b3 3d 5f e3 c9 3d
       0.06733563 0.023982821 0.08743212 0.09857821
0000c0 aa 7b e8 3c de c3 1a bd 45 ec 5c 3d fe 84 59 3d
       0.02837928 -0.03778445 0.05393626 0.053105347
0000d0 7b f5 75 3d 4e a1 3d 3d 53 7b b7 bc 31 ce a5 bc
       0.06004856 0.04629641 -0.022397673 -0.020239921
0000e0 3e 3b bc 3d 5e 84 41 3d 09 5a 47 3d d2 59 9f bc
       0.09190987 0.047245376 0.04866985 -0.01945201
0000f0 e2 77 bb 3d 39 d0 bf 3c 51 d4 a9 3d 0f 12 21 3c
       0.09153725 0.023414718 0.08292449 0.009830966
000100 06 8e 9a 3f df 2b 7e 3f 41 a0 88 3f 5a e5 78 3f
       1.2074592 0.9928569 1.0673906 0.9722496
000110 fa 98 7a 3f b1 f8 7e 3f 94 4b 7b 3f 9f 09 88 3f
       0.97889674 0.9959822 0.981622 1.0627936
000120 8f cd 88 3f 63 41 80 3f 05 ac 79 3f eb af 83 3f
       1.0687732 1.0019954 0.97528106 1.0288061
000130 2e d7 8c 3f a9 71 71 3f ff 4d 8f 3f 56 c2 77 3f
       1.1003168 0.94314057 1.1195678 0.9678091
000140 45 4a 85 3f 34 30 78 3f 27 75 8d 3f 63 bd 75 3f
       1.041329 0.9694855 1.1051377 0.95992106
000150 26 97 8a 3f b7 6f 86 3f 55 47 85 3f 56 6c 88 3f
       1.0827377 1.0502843 1.0412394 1.0658062
000160 79 ed 96 3f c0 92 7a 3f c8 19 80 3f 73 d9 84 3f
       1.1791221 0.9788017 1.0007868 1.037886
000170 00 1a 78 3f 38 b9 82 3f a9 57 86 3f 55 20 86 3f
       0.9691467 1.0212774 1.0495502 1.0478617
000180 32 0b 82 3f ca 74 8b 3f aa 9a 81 3f 23 43 81 3f
       1.0159667 1.0895016 1.0125325 1.0098614
000190 ea a7 80 3f aa c1 8e 3f 6e 22 87 3f 52 94 75 3f
       1.0051243 1.1152852 1.0557382 0.95929444
0001a0 c3 8b 7a 3f 0b e3 83 3f e7 58 7c 3f 4f 8f 83 3f
       0.9786951 1.0303663 0.98573154 1.0278109
0001b0 a5 6d 81 3f 8b 68 83 3f 06 47 7a 3f f4 b1 82 3f
       1.0111586 1.0266279 0.97764623 1.0210557
0001c0 9f 0f 88 3f af 61 80 3f 4a d5 7f 3f 56 80 83 3f
       1.0629767 1.0029811 0.9993483 1.027354
0001d0 a0 f0 7a 3f 20 b9 7a 3f 7c 8d 8a 3f 77 8f 84 3f
       0.98023415 0.9793873 1.0824428 1.0356282
0001e0 4d d7 7c 3f a8 4c 6f 3f 73 e0 82 3f 75 87 8a 3f
       0.9876602 0.93476343 1.0224746 1.0822588
0001f0 e4 5b 75 3f 0e d3 76 3f 3a 81 76 3f 30 3d 88 3f
       0.9584334 0.96415794 0.96290934 1.0643673
000200 2e 51 b4 bc 1a 7a 78 bc 78 8e 87 bd 53 51 9b bd
       -0.022011366 -0.01516583 -0.06618971 -0.07583871
000210 23 63 b0 bc 35 ce 7f bd 7a 45 a2 3c 30 1c d1 3c
       -0.021531647 -0.062452514 0.01980852 0.025526136
000220 bb c4 85 bd b5 30 69 3d ba d4 40 bd a4 63 ce 3d
       -0.06531664 0.056931216 -0.04707787 0.10077599
000230 e3 c0 63 3d 0d d1 72 3d 74 b2 06 be 50 1f f6 3d
       0.055603873 0.059281398 -0.13154012 0.12017691
000240 1f 46 70 bc 01 64 29 3d d5 c1 b3 3c 2f 0a 01 3d
       -0.014665156 0.041355137 0.021943012 0.031503852
000250 38 03 13 bd 78 58 37 bd 98 e3 19 3d 93 7d 0e bd
       -0.03589174 -0.044762105 0.037570566 -0.034787726
000260 06 ac 9f bc 1d d3 b0 3d 2f ec 2d 3d 9b 39 01 3b
       -0.019491207 0.08634017 0.04246157 0.0019718173
000270 1e f1 b5 3d d6 b6 27 bc e4 48 6c bc ff f9 e5 bc
       0.0888388 -0.010236463 -0.014421675 -0.028073309
000280 11 3b 5d 3d 9e 78 ad 3d 18 2c 96 3d 0f ce 29 bd
       0.05401141 0.084702715 0.07332629 -0.04145628
000290 c4 b5 83 bc b4 d5 73 3c 45 6b a2 3d 93 42 b9 3d
       -0.016077884 0.014882494 0.07930616 0.09045901
0002a0 f2 11 f9 3c 1b 84 60 3d 74 43 86 3c 82 3c 11 bd
       0.030404065 0.054813486 0.016389586 -0.035458095
0002b0 c3 f6 50 3c e6 ac 09 bd 29 2e 37 3d 7b 19 d4 3d
       0.012754145 -0.033612154 0.044721756 0.103564225
0002c0 13 22 76 3d a1 51 a0 3d 60 cc 39 3d 1a 3f 8c bd
       0.06009109 0.078280695 0.045360923 -0.06847973
0002d0 d3 fb 21 bd fa de 67 3d f7 2c a4 ba c9 e6 56 bb
       -0.0395468 0.05660913 -0.0012525608 -0.0032791367
0002e0 19 c4 7a 3d 63 aa 5e 3d 5e cc 71 3d 03 ba d4 3c
       0.06122217 0.054361712 0.05903279 0.025967604
0002f0 f1 e8 d8 3b 41 6b 78 bc 54 ba f2 3d d7 b2 5c bc
       0.0066195657 -0.01516229 0.118519455 -0.013470373
000300 b1 56 51 3d f0 4d bd 3d f3 da 5d 3d 83 44 cc 3d
       0.051108066 0.09243381 0.054163884 0.09974005
000310 a7 ed a7 3c c9 3b 25 3d 42 38 85 3e 95 36 24 3d
       0.020499064 0.04034022 0.26019484 0.040091116
000320 4e 5d 86 3d 23 b5 6d 3d f7 6a f8 3d 17 35 c7 3d
       0.06560765 0.058034074 0.12129777 0.09726923
000330 db 43 11 3e e5 fc 09 3e c8 01 89 3d be f9 b0 3d
       0.14186041 0.13475378 0.06689793 0.086413845
000340 94 28 74 3d fe c7 b6 3d f5 8b c6 3d d3 a7 a2 3d
       0.05960901 0.08924864 0.096946634 0.07942166
000350 86 16 76 3d 2d 4e f8 3d f1 5c 20 bc 2e ec f7 3d
       0.060080074 0.12124286 -0.009787784 0.121055946
000360 44 d9 29 3d c9 6e 18 3e fe 63 31 3d 54 86 9c 3d
       0.041466966 0.14886011 0.04330825 0.076428086
000370 bf 29 01 3e 4c 3a f8 3d 0b 1b a0 3d 64 ce a9 3d
       0.12613581 0.12120494 0.07817658 0.08291319
000380 0a 97 d6 3d 64 9d 73 3d ae 5f 83 3d da 2e e8 3d
       0.10478027 0.05947627 0.06414734 0.11337061
000390 d6 89 88 3d e7 ab ad 3d 6a 26 f2 3d 46 c9 90 3d
       0.06666915 0.084800534 0.11823733 0.0706964
0003a0 92 c1 91 3d ff 30 41 3d 12 e7 de 3d 17 27 d2 3d
       0.07116999 0.047165867 0.10883917 0.10261362
0003b0 1b 8a 62 3d 85 cc f7 3c 9e f0 02 3e 59 12 9e 3d
       0.05530749 0.03024889 0.127871 0.07718343
0003c0 b7 62 96 3d 12 09 c2 3d 65 22 cc 3d 41 f8 73 3d
       0.07343047 0.09474386 0.09967498 0.059562925
0003d0 a6 4d 40 3e a6 88 04 3e 25 de c8 3d dc bb 0a 3d
       0.1877962 0.12942752 0.09807996 0.033870563
0003e0 ca c2 63 3e 9d e7 82 3d 2e c9 0c 3d 45 28 90 3d
       0.22242275 0.06391833 0.034371547 0.07038931
0003f0 c2 65 3f 3e 06 8b 66 3d 36 ff be 3d 4e 42 1b 3d
       0.18691161 0.056284927 0.093260214 0.03790503

sequential/dense/BiasAdd/ReadVariableOp f4 [32]
000000 c4 f5 a0 3e 33 15 01 3f 86 de 7d 3e 92 db b8 3e
       0.31437504 0.5042297 0.24791917 0.3610502
000010 52 fe cd 3e 32 b3 99 3e 28 f9 60 3e cf 82 e0 3e
       0.40233094 0.30019528 0.21970046 0.438498
000020 88 5e 4b 3e ec e1 4c 3d 6e ab 34 3f 6f eb c8 3d
       0.1986028 0.050020143 0.7057408 0.098105304
000030 69 fc b0 3e 51 eb d1 3e 0e 1b 25 3f bd 56 a9 3e
       0.34567574 0.40999845 0.6449441 0.3307399
000040 55 b2 55 3e 88 8a 68 3e 3e 9a 01 3f b7 3c a0 3e
       0.2086881 0.22709095 0.5062598 0.31296322
000050 05 e9 ba 3e 8a d2 a1 3e 98 8f 8a 3d 76 4b c1 bc
       0.36505905 0.3160594 0.067656696 -0.023595553
000060 37 b0 da 3e a3 f9 eb 3e d2 25 c2 3e 95 11 f6 3e
       0.42712566 0.46088895 0.3791948 0.4806029
000070 75 38 ed 3e 5a 51 eb 3e 88 af 71 3d 20 70 a8 3e
       0.46332136 0.45960504 0.05900529 0.32898045

sequential/dense_1/BiasAdd/ReadVariableOp f4 [97]
000000 66 ca db 3d 07 97 65 3d 41 18 0a be 3a 7d 76 bc
       0.10731964 0.056052234 -0.13485815 -0.015044505
000010 68 ac 93 3d e2 ed 5e be 77 7f 01 bd b3 e1 03 3e
       0.07210618 -0.21770433 -0.0316157 0.12879066
000020 d4 fc 23 3e 58 ea 10 bd 18 1b b8 3e e4 cf bd 3c
       0.16014415 -0.035379738 0.3595817 0.023170419
000030 ee 6f 5c be 7a af 98 be a0 26 44 3e 1d 78 50 3d
       -0.21527073 -0.29821378 0.1915536 0.0508958
000040 ea 32 5a be bf c8 0f 3e 72 99 7d bd 3a 88 2c 3c
       -0.21308485 0.14041422 -0.061913915 0.010530526
000050 ba 83 fe bd aa e6 da bd 3e 62 47 3e 9c b5 0d be
       -0.124274686 -0.10688527 0.1947107 -0.1383881
000060 d4 42 03 3e 66 d0 8e 3e b2 eb 69 bd be c8 a4 3c
       0.12818462 0.2789337 -0.057109542 0.020115253
000070 c5 88 42 bd ff be d4 bd 42 65 e2 be 76 52 6a bd
       -0.047493715 -0.10387992 -0.4421788 -0.057207547
000080 db 42 b5 3d 38 5e 66 bc f0 87 80 bd d0 13 32 3e
       0.08850642 -0.014060549 -0.06275928 0.1739037
000090 44 4d b1 be be 91 99 3c 62 f5 6e 3e 53 98 51 3d
       -0.34629261 0.018746253 0.23335794 0.05117066
0000a0 c0 2b 41 be 39 fc 82 3d fc 00 fa 3c 0b bb d0 bc
       -0.18864346 0.06395764 0.030518048 -0.025479814
0000b0 f0 51 3e 3e c9 f3 68 3e b2 b0 c3 bd ed 0b a0 bc
       0.18585944 0.22749247 -0.09555186 -0.019536937
0000c0 1f a5 ee 3c be 50 fa 3c a6 51 81 ba 88 fe 65 3d
       0.02913147 0.030556079 -0.0009866252 0.056150943
0000d0 25 d1 21 3e 5a 87 0c bd 56 10 94 3e 43 20 b4 bd
       0.15802439 -0.03430877 0.28918713 -0.08795216
0000e0 3a 54 c1 bd 38 22 02 be 5f e6 c4 3d d1 78 67 be
       -0.09439893 -0.12708366 0.09614252 -0.22604682
0000f0 97 5d a4 be e5 5d 60 bd f5 8c 1c bc e1 cb 96 bd
       -0.32102653 -0.054777045 -0.009555091 -0.073631056
000100 69 f8 8b 3e c9 0c f8 3c 14 a4 3c bd 25 29 79 bd
       0.2733796 0.030279534 -0.046054915 -0.060830254
000110 57 4f 1b bc eb 95 b9 3c f5 cc 86 3e 66 24 cb bd
       -0.009479365 0.022654494 0.26328245 -0.09919052
000120 fe 20 a5 3c 0d 03 14 be 38 4a 92 bb 79 97 cf 3c
       0.020157333 -0.14454289 -0.004464414 0.025340782
000130 2e 7b 24 bd e5 9d 8d 3d 8e 7c 50 bd ae 04 27 3d
       -0.040156536 0.069148816 -0.050900035 0.040775947
000140 b2 ab d2 3b 22 12 1f be e5 a2 e3 bd 67 62 6d be
       0.006429159 -0.15534261 -0.11115054 -0.23182069
000150 b0 7c df 3b b9 6c 43 be dc 9e 78 be ee 2a f1 bd
       0.006820284 -0.19084443 -0.2427935 -0.11775766
000160 1f 70 5b bd 0c 9e 55 be 2b 3f 76 bc 1c 18 8a 3e
       -0.053573724 -0.20861071 -0.015029709 0.2697152
000170 d1 1b 00 3e 2f 1b 8c 3e 5e 79 04 3e 16 6e b9 be
       0.12510611 0.2736449 0.12936923 -0.362168
000180 36 b0 ed bc
       -0.029014688

sequential/dense/MatMul f4 [32, 64]
000000 88 6a f1 3e ac 2b 7c 3e 81 b4 f6 be 74 ee 55 bd
       0.4715159 0.24626034 -0.4818459 -0.05222936
000010 f0 b8 51 3e 44 c9 2c bd 41 4c 9d 3e e3 05 be 3e
       0.20480704 -0.04218413 0.3072224 0.37113866
000020 44 ef b6 be 90 2d f2 be cd f4 46 3f 1f 0a d3 be
       -0.3572942 -0.47300386 0.77717286 -0.4121866
000030 f1 05 cc 3e a6 9f ab be 6c 34 f5 be 84 a9 db be
       0.39848283 -0.3352024 -0.47891557 -0.42902768
000040 04 c7 4b be 80 b1 6b bc da f0 1c 3f dc 4e f7 3d
       -0.19900137 -0.014385581 0.6130501 0.12075588
000050 84 55 95 3e 9e 5f 15 be aa f9 ac 3e 89 6f dd be
       0.29166806 -0.14587256 0.3378423 -0.43249157
000060 01 09 bd 3e 6b f5 45 3b 0f 13 13 bf 52 56 13 3e
       0.36920932 0.0030206095 -0.57450956 0.14388397
000070 2c 13 5c be 31 f2 df be 66 53 32 bf 84 b2 1e bf
       -0.21491688 -0.43739465 -0.69658506 -0.61991143
000080 4c b5 8a 3d 18 5e 73 3f e8 d9 76 bd 2d 09 81 bd
       0.06772861 0.9506545 -0.060266405 -0.06300578
000090 da 6c bc be c5 c6 43 3f cd f2 95 3d 59 43 f5 bd
       -0.36801797 0.76475173 0.07321701 -0.11975736
0000a0 64 c6 99 3d c9 f9 94 3c 6a 7f 26 3d a6 a5 30 3f
       0.07508543 0.018185513 0.040648855 0.6900276
0000b0 72 dc ef bd 91 09 64 be 3d dd ce be 9b e1 6a bd
       -0.117119685 -0.22269274 -0.40403166 -0.05734406
0000c0 dd e5 33 be 5b 5a 98 3e ac 98 51 bf 36 a7 09 be
       -0.17568155 0.29756436 -0.81873584 -0.13442692
0000d0 c6 b3 4b 3d 5c b9 af 3c 41 00 c4 bd aa 80 a4 bd
       0.049731992 0.02145069 -0.09570361 -0.08032353
0000e0 f3 07 be bd e2 dd 80 bd de b6 7f 3e ad ea b2 be
       -0.0927886 -0.06292321 0.24972102 -0.34944668
0000f0 3e 34 01 bf 8e 80 6d be 25 e8 aa be 51 91 05 3f
       -0.5047034 -0.23193571 -0.33380237 0.5217486
000100 09 01 c6 3e 6b 4d f3 be 72 a3 08 bd 66 76 6f be
       0.38672665 -0.47520003 -0.033359 -0.23385009
000110 e7 14 3a 3f b3 f4 e5 3e 97 fc 1e bd 72 49 04 3f
       0.72688144 0.44913253 -0.038815107 0.5167457
000120 1d 3c ad 3e c1 20 87 3d 8e 4d 66 3d 0a d1 a5 be
       0.33834925 0.06598044 0.056226306 -0.32386047
000130 c4 3d 43 3e c8 da 2d 3f 2c 97 b0 3e d2 b0 17 bf
       0.1906653 0.6791196 0.34490335 -0.5925418
000140 85 a9 3b be 59 d0 fd be 03 f6 03 be 95 2e 5e 3e
       -0.18326385 -0.4957302 -0.12886815 0.21697457
000150 5c 9b 4c 3d f8 66 58 3d 8d 89 d4 be fc 55 c6 bd
       0.04995285 0.052832574 -0.41511193 -0.09684369
000160 b7 b3 4b 3e 6c 30 92 bd 80 0d f5 be a8 28 f9 be
       0.19892775 -0.07138142 -0.47861862 -0.4866383
000170 cb b8 ae bd bf bf a5 be 9a b5 28 bd 3a 0a 61 be
       -0.0853134 -0.32372853 -0.041188814 -0.21976557
000180 50 f8 dc be 30 ec d5 3d 05 27 96 be 1e a9 35 3f
       -0.43158197 0.1044544 -0.29326645 0.7096118
000190 3d a4 c6 3e 74 09 2a 3d 22 72 14 bf 32 98 a2 bb
       0.3879718 0.04151292 -0.5798665 -0.0049619908
0001a0 a0 5d b2 bd 88 a1 2f bf dc 63 16 3f 67 d3 fd bd
       -0.08709264 -0.6860585 0.58746123 -0.123938374
0001b0 88 52 36 be 61 b4 74 3e 0c 46 c9 be c5 53 e6 3e
       -0.1780492 0.23896934 -0.39311254 0.44985786
0001c0 0d e7 09 bf 5f 72 08 be 83 76 46 3d 4a 87 21 3e
       -0.5386818 -0.13324879 0.048452865 0.15774265
0001d0 c2 fb c9 3d b2 34 97 3d 24 ff 0f 3f 99 b4 41 3f
       0.09862472 0.07383098 0.5624869 0.75666195
0001e0 5e d0 2f be ae b4 9e be 8e 48 48 bf 79 d1 1e bf
       -0.1716933 -0.30997223 -0.7823571 -0.6203838
0001f0 d2 b2 8f 3e 8f 33 09 be 27 3a f5 be 2f e6 8f 3e
       0.28066117 -0.13398574 -0.4789593 0.28105304
000200 b7 56 c3 3e 1a 2c 11 bf 7e 71 af be e7 29 9c 3a
       0.38152096 -0.5670792 -0.34266275 0.0011914343
000210 cf bf a1 3e 3b 11 f2 3d 14 14 ea 3d ba 4c 83 3f
       0.3159165 0.11819693 0.11429611 1.025779
000220 77 a0 11 bf 9b e5 7a 3f 8a 8d 0f be 80 89 f9 3e
       -0.56885475 0.980066 -0.14018837 0.48737717
000230 09 43 e7 3e 69 63 0f be 28 91 0f 3e 4c a7 f8 bd
       0.4516833 -0.14002766 0.14020216 -0.12141284
000240 da a8 37 bf 24 6f 54 be 72 e7 9b 3d 71 5e 23 be
       -0.7174202 -0.20745522 0.07612504 -0.15953995
000250 55 b6 8d 3e 38 3d 92 bf 0c 67 bf bc 94 c6 39 bf
       0.2767817 -1.1424932 -0.023364566 -0.7256863
000260 0e 62 b3 3e f1 94 b7 3e 42 52 73 bd ee 89 45 be
       0.35035747 0.3585582 -0.05940462 -0.19290897
000270 05 d6 e2 bd 8f c3 8a be e8 a1 92 be 9c 8c 8e bf
       -0.11075977 -0.27102324 -0.2863915 -1.113666
000280 f5 57 71 3e f9 77 d7 3e ea ca 06 bf 5f 64 9a 3e
       0.23568709 0.4208372 -0.5265337 0.30154702
000290 9d 9d 25 be fa fd 47 3f 58 87 a9 3e 2c fa 7d 3e
       -0.16173406 0.7812191 0.33111072 0.24802464
0002a0 e3 56 8d be 11 e7 90 3e 53 6e 14 be 76 32 98 3d
       -0.27605352 0.2830129 -0.1449521 0.074315
0002b0 f5 1c 37 3e e1 89 ec 3d 81 74 6e be d8 9c 18 3e
       0.1788214 0.11549736 -0.2328663 0.14903581
0002c0 1d 54 ac be b1 fa 8c bd 86 63 87 3e 46 4b 1c 3e
       -0.33657923 -0.06883753 0.26443118 0.1526309
0002d0 93 ca ad be 19 d1 0f be 00 c6 ba be 31 4d b6 3d
       -0.33943614 -0.14044608 -0.36479187 0.08901442
0002e0 f1 66 61 3d 99 9f 09 be ae 85 36 bd cb d0 10 bf
       0.055029813 -0.13439788 -0.04456108 -0.5656859
0002f0 cf 76 05 be 4e 6c 45 3e b6 f8 fe be d0 de 38 3e
       -0.13033603 0.19279596 -0.49799126 0.18053746
000300 86 6c ac 3e aa 48 84 3e 19 7e 97 be a2 65 39 be
       0.33676547 0.25836688 -0.29588392 -0.18105176
000310 f7 3f 1a bf 21 25 19 be c9 f7 60 3f 59 61 b8 be
       -0.6025385 -0.1495557 0.8787809 -0.3601177
000320 64 ae 56 be 67 e4 1d bf 2c 9c b7 3d bb 22 27 bd
       -0.20964962 -0.6167664 0.08965334 -0.040804606
000330 0a 6b 21 3e 7e 3c 88 3c ea 39 51 bf 7a 15 2e bf
       0.15763488 0.016630407 -0.81728995 -0.6800152
000340 dc ea 45 3f 95 17 2e 3e 8c ca e6 3e 01 23 ff bd
       0.7731149 0.17001183 0.45076406 -0.12457848
000350 65 45 15 be ab 45 d3 be b9 76 2f be dc 84 3e 3e
       -0.14577253 -0.4126409 -0.17135133 0.1860537
000360 52 e4 00 3e 84 fb 28 be 73 37 07 bf 96 f1 80 bf
       0.12587097 -0.16502196 -0.52818984 -1.0073726
000370 7b fb a3 3e 4e 33 75 3e 75 25 e3 3e a2 0a ba 3d
       0.32027802 0.23945352 0.44364515 0.09084059
000380 29 0d 15 3f c5 bf a5 3e 47 37 d6 3d bf 7c a2 3d
       0.58223206 0.3237287 0.10459762 0.0793395
000390 57 d5 0d 3e db f5 33 be 98 42 7a 3e a7 2b d4 3e
       0.13850914 -0.17574255 0.24439466 0.41439554
0003a0 66 90 44 bf 3d 9d e2 3e fe 3f 64 3e 3e 83 96 3d
       -0.76782835 0.44260588 0.22290036 0.07349251
0003b0 e2 e9 20 bf 65 8b 70 3e 23 d3 ff 3e 02 03 2e bd
       -0.62856877 0.23490675 0.49965772 -0.042483337
0003c0 29 ea 42 be 15 2f 1f 3d 20 dd d0 be e5 8f d0 be
       -0.19034638 0.03886326 -0.40793705 -0.40734783
0003d0 b0 f5 34 bc b5 4c 33 be ec 02 fd bd ca 47 d1 be
       -0.011044905 -0.1750973 -0.12354073 -0.40875083
0003e0 8c 0d 32 bf 93 aa ad be 12 bd 85 3c 1b e0 0d be
       -0.6955192 -0.339192 0.016325507 -0.1385502
0003f0 17 b0 e9 be 8f a5 22 be c1 0c d5 bd 99 4a f9 bd
       -0.45642158 -0.15883468 -0.10402823 -0.121724315

sequential/dense_1/MatMul f4 [97, 32]
000000 57 b6 75 bf 99 2f 95 be b7 36 56 bf ae 31 5c bf
       -0.95981354 -0.29137877 -0.8367724 -0.86013305
000010 38 56 69 bf 18 8f c3 be 0a e5 0b bf 1f 33 14 bf
       -0.91147184 -0.3819511 -0.5464636 -0.57890505
000020 c1 66 43 3e 5f 8e a6 bf 87 bf 19 bd 52 e9 c4 ba
       0.19082166 -1.3012198 -0.03753617 -0.0015023148
000030 ea 2d 11 bf 86 65 cf be 35 d8 b8 bc 19 83 63 bf
       -0.56710684 -0.40507144 -0.022564033 -0.88871914
000040 27 8e 3a 3e df c3 8b 3e a4 86 7a 3d 63 76 8e 3c
       0.1821829 0.27297875 0.06116356 0.017390436
000050 64 90 ef be 91 ec f0 3c d8 50 95 be 8a 48 06 3e
       -0.4678985 0.029409679 -0.2916324 0.13113609
000060 10 47 1e bd ac 2c 0d bf cf be 0a 3e 3f 5e 96 bf
       -0.03864199 -0.5514629 0.1354935 -1.1747512
000070 4f d0 ba 3d 0a eb a6 bb 54 a0 0c be 3f 0d f4 bd
       0.09121763 -0.005093937 -0.13733035 -0.11916589
000080 91 0c 40 3e 94 e4 26 bf b2 c2 73 be 71 02 0b bd
       0.18754794 -0.6519253 -0.23804739 -0.033937875
000090 af 79 32 3e 29 1f 7f bf 97 9b 3f bf 90 82 b9 3d
       0.17429231 -0.9965692 -0.74846786 0.09058106
0000a0 07 c0 97 3d 11 93 19 3e bd 8a 83 bf ce 19 cd be
       0.07409673 0.14997508 -1.0276715 -0.4005875
0000b0 00 6a cd bd 89 95 27 bf 84 93 fb be 14 f0 77 3d
       -0.100299835 -0.6546255 -0.49135983 0.06053169
0000c0 ea 01 80 3c 60 aa 01 3d 5d 1e 5e bf 2d 9e 27 3e
       0.015625913 0.031656623 -0.8676508 0.16368933
0000d0 94 81 18 bf c2 ff 0b 3e a5 b3 67 bf 4f b2 d6 be
       -0.5957272 0.13671783 -0.9050849 -0.41932914
0000e0 45 ec 2f be f1 66 19 3e 4e b0 19 3d 74 84 f8 bd
       -0.17179973 0.14980675 0.037521653 -0.121346384
0000f0 c2 be 3a bf 4b 18 d2 3d f9 d8 04 3e 8d b4 3e bf
       -0.72947323 0.1025854 0.12973393 -0.7449425
000100 d2 37 2d 3e 1f 84 9d 3c e3 32 1b be 3b b7 84 be
       0.16915825 0.01922804 -0.1515613 -0.25921044
000110 37 0a 44 3e 81 93 1d 3d 44 35 e3 be ed 8c 4e bf
       0.19144522 0.03847075 -0.44376576 -0.80683786
000120 b8 e3 58 bf d3 73 1b 3e bd f3 71 bf dd d4 67 bf
       -0.8472247 0.15180902 -0.9451254 -0.9055918
000130 fa ec 03 3e 20 2a 6f bf 35 17 63 be bd 10 05 bf
       0.12883368 -0.9342365 -0.22176822 -0.51978666
000140 f8 ca 26 bf 50 00 26 3e f0 d8 61 bf d2 27 13 3e
       -0.65153456 0.16211057 -0.88221645 0.14370659
000150 d8 7f 7b bf 09 9d b1 3d da aa 64 bf 7e ae 20 bf
       -0.9824195 0.0867253 -0.893232 -0.62766254
000160 d0 d9 26 3e 34 1a 99 3d 21 9c 26 be 40 41 41 bd
       0.16294026 0.07475701 -0.16270496 -0.047181368
000170 45 fc 70 bf 21 38 20 3e 49 7f 15 3e 8b c2 87 bf
       -0.9413493 0.15646411 0.14599337 -1.0606245
000180 f4 fe 81 bf 6c 84 41 bf 40 2e 7e bf 4d 2f 65 bf
       -1.015593 -0.75592685 -0.9928932 -0.895253
000190 f6 42 21 bf 50 30 26 bf d0 44 73 bf e6 6b 30 3e
       -0.629928 -0.6491747 -0.95026875 0.1722866
0001a0 4e 36 3c 3e 20 81 ab bf 4b 14 9b 3d 63 75 26 3d
       0.1838009 -1.3398781 0.0757223 0.040639292
0001b0 77 ec 61 be 7e 22 ec bc 8d 27 f6 3d 05 bd 9e bd
       -0.2206286 -0.02882504 0.120192625 -0.07750896
0001c0 9a fd 2e 3e d6 c5 3c bf 27 84 88 bf 26 79 52 bf
       0.17088929 -0.73739374 -1.066533 -0.8221611
0001d0 3e a0 59 be 18 e5 1b 3e 85 cb 2b be aa 73 3e 3e
       -0.21252534 0.15224111 -0.16776855 0.1859881
0001e0 10 0f 0f bf a0 9a d9 bc 41 67 14 3e cc 4e 1f bf
       -0.5588236 -0.026562989 0.14492513 -0.6222961
0001f0 8b e0 e0 be 8b 92 ea be 38 fa 31 bf 0b 16 37 3e
       -0.43921313 -0.45814928 -0.6952243 0.17879502
000200 4e 3d 92 bf a4 7c 83 bf 6a a2 2e bf 30 46 30 be
       -1.1424959 -1.0272412 -0.68216574 -0.17214274
000210 15 4c 0c bf a8 f2 4d ba dd ba fc 3d b5 06 4e bf
       -0.5480359 -0.0007856288 0.12340329 -0.80478984
000220 7c 29 a1 3d fc ef a8 be 80 dc 5d bd c0 5c 09 3e
       0.07869241 -0.32995594 -0.054165363 0.13414288
000230 92 78 75 3d ce 3f ba bf 3c a4 a0 3d ab ce b1 be
       0.059929438 -1.4550722 0.07843825 -0.34727988
000240 88 29 61 bf 37 dd 3b bf 4b 83 cd be 82 d7 8e 3c
       -0.87953997 -0.7338442 -0.4013923 0.017436747
000250 c1 8e 8e bf fa 52 80 bf 67 32 58 3e 63 5d ec 3d
       -1.1137315 -1.0025322 0.21112977 0.115412496
000260 c5 15 26 bf da 4b 04 bf 1a 6d 0a 3e b9 cf 3f 3e
       -0.6487697 -0.5167824 0.13518181 0.18731584
000270 95 17 3b be 39 40 06 3e f5 15 14 bf 3a 12 62 3e
       -0.18270715 0.13110436 -0.57846004 0.22077265
000280 1e 72 1b 3e e2 cf 57 bf 57 27 8f 3d d1 9c d4 3d
       0.15180251 -0.8430158 0.06989925 0.10381473
000290 06 bf 3a 3d 25 ac cf be 14 4e 08 3e f3 5b 80 bf
       0.04559233 -0.40561023 0.13311034 -1.0028061
0002a0 56 22 a0 3d de 75 ee 3d 18 d1 a9 bf 04 a0 68 3d
       0.07819049 0.11643575 -1.3266935 0.056793228
0002b0 0c 4b 95 be 0d 3a ad be 9c 1a 8a bf 9f 20 bc bc
       -0.2915882 -0.33833352 -1.078937 -0.022964774
0002c0 d8 15 8f be 01 95 16 3e 17 00 85 3c e6 62 0f 3e
       -0.27946353 0.14705278 0.016235394 0.1400257
0002d0 77 63 90 be e8 24 89 3d fb fd 17 bf a8 4d d6 3d
       -0.28200886 0.066964924 -0.5937192 0.104640305
0002e0 8e 46 c4 be 17 dc 29 be b5 6e 3e bf f8 36 e9 3c
       -0.3833508 -0.16587864 -0.74387676 0.028468594
0002f0 c9 d8 a4 bc c5 90 b8 be 96 22 55 bc 85 1b 89 bf
       -0.020122902 -0.3604795 -0.013008734 -1.0711523
000300 f4 a2 7d 3d a2 ba 3e bf 06 25 d4 be 0f c2 03 3d
       0.061922982 -0.7450353 -0.41434497 0.03216749
000310 58 a1 20 3e eb fa ea be 84 eb 16 bd 5b 29 4f bf
       0.15686548 -0.4589456 -0.0368457 -0.8092248
000320 f3 4d a5 3d 21 e2 c6 be b7 fb 3d bf 7e 2c 0a bf
       0.08071508 -0.38844398 -0.7421221 -0.5397414
000330 b9 62 e5 3d 5d f2 a5 bf ed 76 80 3d 6e 3a a0 bd
       0.112004705 -1.2964588 0.06272683 -0.078236446
000340 b0 ea 3f be 7a 7e 04 bf 74 ea d0 bd 24 7a 55 be
       -0.1874187 -0.5175549 -0.102009684 -0.20847374
000350 b6 ac c2 bf 9e 70 b4 be d3 63 1b 3e 9f 20 30 3d
       -1.5208957 -0.3524217 0.15174799 0.04299986
000360 ad 0f fe be 3a 07 66 bf 0c e4 29 3e bf f7 1e 3e
       -0.49621335 -0.89854777 0.16590899 0.15524195
000370 3c 1b 11 bf 47 ad 0b 3e d6 1c da 3d c3 b3 33 3e
       -0.5668218 0.13640319 0.10650031 0.17549042
000380 89 fd e3 bd e6 65 2e bf 57 e1 90 be 15 8c 08 bf
       -0.11132342 -0.68124235 -0.2829692 -0.5333875
000390 8f 44 e0 3d 0b de 43 bf 6b c6 32 bf 3a 95 eb be
       0.109505765 -0.76510686 -0.6983401 -0.46012288
0003a0 70 eb 2a 3e 4e 62 1b bf 86 af 00 be 9f 27 00 bf
       0.16691375 -0.60696876 -0.12566957 -0.50060457
0003b0 5e ec 2a 3d d2 35 aa bf 6b 22 9b 3d e6 ea ea 3c
       0.041729324 -1.3297675 0.07574924 0.028676461
0003c0 b2 e2 29 3e 17 7b 1e 3e c6 ca 57 3d 23 fa 32 bf
       0.16590384 0.15476643 0.052683614 -0.6991293
0003d0 ac 47 78 bf 72 db bb 3d 66 af c4 3c d7 9d b1 3d
       -0.9698436 0.09172715 0.024009418 0.08672684
0003e0 87 61 05 bf a4 09 59 bf bd 75 19 3e df 1d 5a 3d
       -0.5210194 -0.84780335 0.1498632 0.053251144
0003f0 17 d7 68 be c9 28 71 3d ec 10 ed 3d b7 c5 da 3d
       -0.227383 0.058876786 0.11575493 0.10682242

sequential/lstm/Read_2/ReadVariableOp1 f4 [256]
000000 d4 71 ef 3b 28 86 fe 3d c7 9f 2f 3e 82 9b da 3d
       0.0073072705 0.12427932 0.17150794 0.10674192
000010 97 2e 9e bc db 6b 89 3d 32 98 da 3d 1b 9c 6f bc
       -0.019309325 0.06710025 0.1067356 -0.014624621
000020 17 97 80 3d 46 f0 a8 bc 47 6a d8 3c 45 08 f8 3c
       0.06278818 -0.020622384 0.026417864 0.03027738
000030 51 e9 2d 3d 48 78 29 3e a5 19 6c 3e 48 1b 72 3d
       0.042458836 0.1654979 0.23056658 0.05910805
000040 75 f3 82 3c f8 7a 8c 3d bf e8 af bc dc 1b ba 3c
       0.01598523 0.06859392 -0.021473287 0.022718363
000050 2e 0e 9e 3d 7a 73 9e 3c 35 2d 91 3d 37 09 a8 3d
       0.07717548 0.019342173 0.07088701 0.082048826
000060 6b f9 d3 bc ca 81 1c 3e e0 62 8d bc 42 41 9d 3d
       -0.025875768 0.15283886 -0.017259061 0.076784626
000070 07 dd 31 3e 65 ba 27 bb 1f c3 cb 3c 56 e5 8c 3b
       0.17369471 -0.0025593278 0.024873314 0.0042998
000080 b3 df 9c 3d eb cc 6a 3d 28 ef c8 3d 41 62 50 3d
       0.07659855 0.05732433 0.098112404 0.050874952
000090 a9 a0 5b bb 8a 65 04 bd 8c 5b bb 3c 4b f7 4b 3d
       -0.003351251 -0.032323398 0.022870801 0.049796384
0000a0 57 65 31 3d 94 06 2e bd 98 98 cf 3d 09 2d a2 bc
       0.043309536 -0.042486742 0.10136527 -0.019796865
0000b0 43 e7 89 3d 9f 77 c4 3c 9d 0f b3 3d 5f e3 c9 3d
       0.06733563 0.023982821 0.08743212 0.09857821
0000c0 aa 7b e8 3c de c3 1a bd 45 ec 5c 3d fe 84 59 3d
       0.02837928 -0.03778445 0.05393626 0.053105347
0000d0 7b f5 75 3d 4e a1 3d 3d 53 7b b7 bc 31 ce a5 bc
       0.06004856 0.04629641 -0.022397673 -0.020239921
0000e0 3e 3b bc 3d 5e 84 41 3d 09 5a 47 3d d2 59 9f bc
       0.09190987 0.047245376 0.04866985 -0.01945201
0000f0 e2 77 bb 3d 39 d0 bf 3c 51 d4 a9 3d 0f 12 21 3c
       0.09153725 0.023414718 0.08292449 0.009830966
000100 06 8e 9a 3f df 2b 7e 3f 41 a0 88 3f 5a e5 78 3f
       1.2074592 0.9928569 1.0673906 0.9722496
000110 fa 98 7a 3f b1 f8 7e 3f 94 4b 7b 3f 9f 09 88 3f
       0.97889674 0.9959822 0.981622 1.0627936
000120 8f cd 88 3f 63 41 80 3f 05 ac 79 3f eb af 83 3f
       1.0687732 1.0019954 0.97528106 1.0288061
000130 2e d7 8c 3f a9 71 71 3f ff 4d 8f 3f 56 c2 77 3f
       1.1003168 0.94314057 1.1195678 0.9678091
000140 45 4a 85 3f 34 30 78 3f 27 75 8d 3f 63 bd 75 3f
       1.041329 0.9694855 1.1051377 0.95992106
000150 26 97 8a 3f b7 6f 86 3f 55 47 85 3f 56 6c 88 3f
       1.0827377 1.0502843 1.0412394 1.0658062
000160 79 ed 96 3f c0 92 7a 3f c8 19 80 3f 73 d9 84 3f
       1.1791221 0.9788017 1.0007868 1.037886
000170 00 1a 78 3f 38 b9 82 3f a9 57 86 3f 55 20 86 3f
       0.9691467 1.0212774 1.0495502 1.0478617
000180 32 0b 82 3f ca 74 8b 3f aa 9a 81 3f 23 43 81 3f
       1.0159667 1.0895016 1.0125325 1.0098614
000190 ea a7 80 3f aa c1 8e 3f 6e 22 87 3f 52 94 75 3f
       1.0051243 1.1152852 1.0557382 0.95929444
0001a0 c3 8b 7a 3f 0b e3 83 3f e7 58 7c 3f 4f 8f 83 3f
       0.9786951 1.0303663 0.98573154 1.0278109
0001b0 a5 6d 81 3f 8b 68 83 3f 06 47 7a 3f f4 b1 82 3f
       1.0111586 1.0266279 0.97764623 1.0210557
0001c0 9f 0f 88 3f af 61 80 3f 4a d5 7f 3f 56 80 83 3f
       1.0629767 1.0029811 0.9993483 1.027354
0001d0 a0 f0 7a 3f 20 b9 7a 3f 7c 8d 8a 3f 77 8f 84 3f
       0.98023415 0.9793873 1.0824428 1.0356282
0001e0 4d d7 7c 3f a8 4c 6f 3f 73 e0 82 3f 75 87 8a 3f
       0.9876602 0.93476343 1.0224746 1.0822588
0001f0 e4 5b 75 3f 0e d3 76 3f 3a 81 76 3f 30 3d 88 3f
       0.9584334 0.96415794 0.96290934 1.0643673
000200 2e 51 b4 bc 1a 7a 78 bc 78 8e 87 bd 53 51 9b bd
       -0.022011366 -0.01516583 -0.06618971 -0.07583871
000210 23 63 b0 bc 35 ce 7f bd 7a 45 a2 3c 30 1c d1 3c
       -0.021531647 -0.062452514 0.01980852 0.025526136
000220 bb c4 85 bd b5 30 69 3d ba d4 40 bd a4 63 ce 3d
       -0.06531664 0.056931216 -0.04707787 0.10077599
000230 e3 c0 63 3d 0d d1 72 3d 74 b2 06 be 50 1f f6 3d
       0.055603873 0.059281398 -0.13154012 0.12017691
000240 1f 46 70 bc 01 64 29 3d d5 c1 b3 3c 2f 0a 01 3d
       -0.014665156 0.041355137 0.021943012 0.031503852
000250 38 03 13 bd 78 58 37 bd 98 e3 19 3d 93 7d 0e bd
       -0.03589174 -0.044762105 0.037570566 -0.034787726
000260 06 ac 9f bc 1d d3 b0 3d 2f ec 2d 3d 9b 39 01 3b
       -0.019491207 0.08634017 0.04246157 0.0019718173
000270 1e f1 b5 3d d6 b6 27 bc e4 48 6c bc ff f9 e5 bc
       0.0888388 -0.010236463 -0.014421675 -0.028073309
000280 11 3b 5d 3d 9e 78 ad 3d 18 2c 96 3d 0f ce 29 bd
       0.05401141 0.084702715 0.07332629 -0.04145628
000290 c4 b5 83 bc b4 d5 73 3c 45 6b a2 3d 93 42 b9 3d
       -0.016077884 0.014882494 0.07930616 0.09045901
0002a0 f2 11 f9 3c 1b 84 60 3d 74 43 86 3c 82 3c 11 bd
       0.030404065 0.054813486 0.016389586 -0.035458095
0002b0 c3 f6 50 3c e6 ac 09 bd 29 2e 37 3d 7b 19 d4 3d
       0.012754145 -0.033612154 0.044721756 0.103564225
0002c0 13 22 76 3d a1 51 a0 3d 60 cc 39 3d 1a 3f 8c bd
       0.06009109 0.078280695 0.045360923 -0.06847973
0002d0 d3 fb 21 bd fa de 67 3d f7 2c a4 ba c9 e6 56 bb
       -0.0395468 0.05660913 -0.0012525608 -0.0032791367
0002e0 19 c4 7a 3d 63 aa 5e 3d 5e cc 71 3d 03 ba d4 3c
       0.06122217 0.054361712 0.05903279 0.025967604
0002f0 f1 e8 d8 3b 41 6b 78 bc 54 ba f2 3d d7 b2 5c bc
       0.0066195657 -0.01516229 0.118519455 -0.013470373
000300 b1 56 51 3d f0 4d bd 3d f3 da 5d 3d 83 44 cc 3d
       0.051108066 0.09243381 0.054163884 0.09974005
000310 a7 ed a7 3c c9 3b 25 3d 42 38 85 3e 95 36 24 3d
       0.020499064 0.04034022 0.26019484 0.040091116
000320 4e 5d 86 3d 23 b5 6d 3d f7 6a f8 3d 17 35 c7 3d
       0.06560765 0.058034074 0.12129777 0.09726923
000330 db 43 11 3e e5 fc 09 3e c8 01 89 3d be f9 b0 3d
       0.14186041 0.13475378 0.06689793 0.086413845
000340 94 28 74 3d fe c7 b6 3d f5 8b c6 3d d3 a7 a2 3d
       0.05960901 0.08924864 0.096946634 0.07942166
000350 86 16 76 3d 2d 4e f8 3d f1 5c 20 bc 2e ec f7 3d
       0.060080074 0.12124286 -0.009787784 0.121055946
000360 44 d9 29 3d c9 6e 18 3e fe 63 31 3d 54 86 9c 3d
       0.041466966 0.14886011 0.04330825 0.076428086
000370 bf 29 01 3e 4c 3a f8 3d 0b 1b a0 3d 64 ce a9 3d
       0.12613581 0.12120494 0.07817658 0.08291319
000380 0a 97 d6 3d 64 9d 73 3d ae 5f 83 3d da 2e e8 3d
       0.10478027 0.05947627 0.06414734 0.11337061
000390 d6 89 88 3d e7 ab ad 3d 6a 26 f2 3d 46 c9 90 3d
       0.06666915 0.084800534 0.11823733 0.0706964
0003a0 92 c1 91 3d ff 30 41 3d 12 e7 de 3d 17 27 d2 3d
       0.07116999 0.047165867 0.10883917 0.10261362
0003b0 1b 8a 62 3d 85 cc f7 3c 9e f0 02 3e 59 12 9e 3d
       0.05530749 0.03024889 0.127871 0.07718343
0003c0 b7 62 96 3d 12 09 c2 3d 65 22 cc 3d 41 f8 73 3d
       0.07343047 0.09474386 0.09967498 0.059562925
0003d0 a6 4d 40 3e a6 88 04 3e 25 de c8 3d dc bb 0a 3d
       0.1877962 0.12942752 0.09807996 0.033870563
0003e0 ca c2 63 3e 9d e7 82 3d 2e c9 0c 3d 45 28 90 3d
       0.22242275 0.06391833 0.034371547 0.07038931
0003f0 c2 65 3f 3e 06 8b 66 3d 36 ff be 3d 4e 42 1b 3d
       0.18691161 0.056284927 0.093260214 0.03790503

while/MatMul_11 f4 [256, 64]
000000 32 31 cb be 2c 83 72 be ec 9d d4 3d 18 23 18 3d
       -0.3968597 -0.2368285 0.10381684 0.037142843
000010 fe 2b 9d 3e 10 b8 c2 3d 80 b0 c9 be 86 a8 09 bd
       0.30697626 0.095077634 -0.3939247 -0.033607982
000020 b6 cd 8b 38 83 92 d9 3e 50 c7 70 be 90 3a 9e bd
       6.666353e-05 0.42494592 -0.23513532 -0.07726014
000030 33 e7 5c be 3c 79 a3 3e 99 e8 e3 3d 6d f7 0b bd
       -0.2157257 0.31928432 0.11128349 -0.03417151
000040 e5 f2 ff bd b5 ed d6 be 58 bc d3 be f1 ee 6a 3e
       -0.124975 -0.4197823 -0.41354632 0.22942711
000050 30 7a 02 3d a9 e8 93 3d ce 3e e0 bd 12 9d f7 3d
       0.03185481 0.07222111 -0.10949479 0.12090506
000060 6b 35 27 be 31 60 1d 3e 12 26 ca be 4f 9e 4e be
       -0.16328971 0.15368725 -0.3948217 -0.20177577
000070 71 3d 92 be f8 3e 00 3e db 3d a3 3e 54 71 52 3e
       -0.285625 0.1252402 0.3188313 0.20551044
000080 84 f6 88 be d7 de 4d bd 4e 9a ad bd fe 64 54 3e
       -0.26750576 -0.050261345 -0.08476697 0.2074165
000090 f3 3b 01 3d 4f 29 dc be 00 63 83 be fe b8 1c bd
       0.031551313 -0.43000266 -0.25661469 -0.03826236
0000a0 a4 1f 32 be 69 37 14 be 47 68 d8 bd 49 f1 bc bc
       -0.17394882 -0.14474262 -0.10566764 -0.023064272
0000b0 90 1a ba 3e c2 08 5a 3e 7c fe 88 be cb ee 2b bc
       0.3634839 0.21292403 -0.26756656 -0.010493944
0000c0 09 ff 72 3d 52 b8 89 be 9f 8b ba 3e a9 b1 a5 3d
       0.05932525 -0.26898438 0.36434647 0.080905266
0000d0 17 26 d1 be f1 4d 61 be 33 bb e1 3c 8b ee 6a 3e
       -0.40849373 -0.22002389 0.027555084 0.2294256
0000e0 d8 93 d4 bd 47 2d cf bd 17 8a 80 bd 64 8e 70 3e
       -0.103797615 -0.10116058 -0.062763385 0.23491818
0000f0 cd 53 6b 3e a6 f2 90 3e 81 54 cb bd 2a 47 02 3e
       0.22981186 0.28310126 -0.09928227 0.1272246
000100 4d f1 d5 3a fe 70 61 bd aa cb 69 bd 3a 48 a4 3d
       0.0016322524 -0.0550394 -0.057078995 0.080215886
000110 cf b3 1f be 02 f1 b6 be 08 2a d6 3c 4d ef 0c 3c
       -0.15595935 -0.3573075 0.026143089 0.008601976
000120 99 b2 d4 3c 69 e0 5f 3d c4 7f 9b be 08 e5 05 3f
       0.025964068 0.054657374 -0.30370915 0.523026
000130 57 aa 34 be d2 1d 05 3e fd 24 a1 bd 10 16 2f 3d
       -0.17643104 0.12999657 -0.07868383 0.04274565
000140 2e 65 9f 3e 78 67 b8 3c 15 2a e2 bd d5 f6 36 3e
       0.3113188 0.022510275 -0.11043183 0.17867596
000150 9d f0 4d be d0 09 6e be 7c 88 35 3d 3a 30 1d 3e
       -0.20111318 -0.2324593 0.044319615 0.15350428
000160 5a 05 e0 3b ec fa 60 3e 99 52 5c be ca c0 14 be
       0.0068365755 0.21970719 -0.21515884 -0.14526668
000170 aa ea a7 3e a1 23 67 3e 8d 8a 93 3b 89 4d 5d 3e
       0.32796222 0.22572185 0.0045026005 0.21611609
000180 7a 86 b4 3e b8 5d 21 3b 7b d9 c2 3d 9f 4c 04 be
       0.35258847 0.002462251 0.09514137 -0.12919854
000190 60 b4 65 3e 0e 15 42 be f6 5b 11 3f 80 d8 63 3e
       0.22432089 -0.18953344 0.56780946 0.22250557
0001a0 08 d9 d6 be 63 85 d7 3e 65 6a 8a be 84 7e fa bd
       -0.41962457 0.42093953 -0.27034298 -0.12231162
0001b0 a5 25 a1 3c b1 bb d4 3d be fa 51 3e 08 25 58 3e
       0.01967127 0.10387362 0.20505807 0.21107876
0001c0 81 1d bc 3d 59 2c 05 3f c3 58 9b 3d 5a ee d8 3e
       0.09185315 0.52020794 0.07585289 0.42369348
0001d0 90 4d 84 bd 62 1d 8c 3d 63 61 1e bd 29 65 55 be
       -0.064601064 0.06841542 -0.038667094 -0.20839371
0001e0 a8 f1 cb be 86 27 53 3e 75 79 d4 3e e6 f4 1b 3d
       -0.39832807 0.20620546 0.41498914 0.03807535
0001f0 55 da df 3c d3 d1 1f 3e 48 34 d4 3d f7 f3 5b be
       0.027325789 0.15607385 0.10361534 -0.21479784
000200 e1 49 22 3c 3c f4 19 3d 9c 4d 0c be dc da 34 3d
       0.009905309 0.037586436 -0.1370148 0.044154033
000210 05 91 83 bd b0 33 20 be 04 4e 0f be 89 36 18 3d
       -0.06424145 -0.15644717 -0.13994604 0.037161384
000220 ec 40 d3 bc f0 4c 79 3a 0e c1 3d 3e b2 cc 1e 3d
       -0.025787793 0.0009510061 0.18530676 0.03876943
000230 9d ae cd 3d 36 fe 7c 3d 4d 74 98 bd 66 a4 6f 3d
       0.100430705 0.061765872 -0.074440576 0.058506392
000240 d9 80 40 3d 05 29 8c bd e1 ac 9e 3d f1 b2 f3 3c
       0.04699788 -0.06843761 0.07747818 0.029748412
000250 34 13 f0 3d 23 c4 6b bd 01 30 fa 3c 01 f7 d0 bd
       0.11722413 -0.057560097 0.030540468 -0.10203362
000260 62 0b a6 3d 91 90 00 3b 95 16 14 3d 3a a2 16 3e
       0.0810764 0.0019617418 0.03615435 0.14710322
000270 97 6e 5c 3d 90 15 55 bd 62 72 dd 3c c9 94 52 3d
       0.053816404 -0.052022517 0.027032081 0.051411424
000280 62 2f d0 3d 50 49 1d 3e a9 6e b8 3d 37 7e 48 bd
       0.101652876 0.15359998 0.09005482 -0.048948493
000290 83 b0 3d 3e ed 22 06 3e 0f 27 c7 3c 26 bb 43 3d
       0.18524365 0.1309926 0.024310617 0.0477859
0002a0 20 d2 f0 bd ae c1 3a 3d 2d 4c b9 3d ea a7 84 3c
       -0.11758828 0.045594864 0.090477325 0.016193349
0002b0 c6 bb 46 3e 3d 0b 84 3c 54 4b 03 3c ac 4b cb 3d
       0.19407567 0.01611864 0.008013565 0.09926543
0002c0 66 8e 92 3d b8 e5 c9 3d cd cc 16 bd 60 a6 df bc
       0.071560666 0.098582685 -0.036816407 -0.027301013
0002d0 e9 24 f8 bd 12 67 a0 bd e7 58 8f bd 82 bd f6 bc
       -0.12116415 -0.07832159 -0.06999379 -0.030119661
0002e0 6c 8c f3 bd 02 64 ec 3c ff e2 dc 3c 7d e3 e3 bd
       -0.11892018 0.028856281 0.026963709 -0.11127374
0002f0 d6 0e 31 3d c1 65 c2 3d 09 e5 7d bb 86 2d 18 be
       0.04322704 0.09492064 -0.0038741252 -0.14861116
000300 7c bf 6f bd 7b 27 34 be 22 44 1e be 5a ab 94 be
       -0.058532223 -0.17593186 -0.15455678 -0.2903698
000310 7b 5f 6a be 37 f2 90 bd ae 61 3c 3e 63 e0 53 3d
       -0.22887985 -0.07077449 0.18396637 0.051727664
000320 dd 2d b5 3c 8f 61 26 be 41 89 6f bc 85 69 b4 3e
       0.022116596 -0.16248153 -0.014620126 0.35236755
000330 77 6e d4 3d a4 a6 51 3c af 4b 15 be a7 ed 42 3e
       0.10372632 0.012796078 -0.14579652 0.1903597
000340 35 f3 4d 3e ee 22 78 3e 56 32 20 3c 35 93 b7 3d
       0.20112307 0.24232075 0.009777626 0.089636244
000350 72 36 9c be 5a d5 1e bd 90 74 2d 3e 0d 04 a9 3d
       -0.30510288 -0.038777687 0.16938996 0.08252726
000360 16 92 cb 3d 86 bf 3e be 6b e8 b7 be 53 56 49 be
       0.09939973 -0.18627748 -0.35919508 -0.19661836
000370 9b ef 30 3e 2d a5 19 3d 1d 14 93 be 89 b3 0e 3e
       0.17278902 0.03751104 -0.28726283 0.13935675
000380 e1 c5 1f 3d 61 66 04 3e f7 1c 95 3e 2c ce 31 3e
       0.03900707 0.1292968 0.2912366 0.17363805
000390 3b 6e 2f 3d da cc 87 bd 51 84 2d 3e cb 33 57 3e
       0.042829733 -0.06630869 0.16945006 0.21015851
0003a0 34 06 2d be a6 d9 df 3e 41 8f e0 3d 0d 97 71 bd
       -0.16896898 0.4372074 0.109648235 -0.058981944
0003b0 78 ce 31 be d7 b2 21 3d ed f7 cd bb 9f ec 97 3e
       -0.17363918 0.039477196 -0.0062856586 0.29672715
0003c0 0d 14 82 bd 5c 1a 5d 3e 10 db 87 3d e7 7a 7d be
       -0.06351481 0.21592087 0.0663358 -0.24753915
0003d0 80 fe 91 3e 1b 74 90 be 89 22 38 3d c4 2b 58 bd
       0.2851448 -0.2821358 0.04495481 -0.052776113
0003e0 23 47 55 3e 8b d2 dd 3d 2d 94 18 3e b0 22 04 3d
       0.20827918 0.108311735 0.14900275 0.032259643
0003f0 01 5c bb 3d 78 65 17 3d 4b 00 4b 3e fd db de 3d
       0.09148408 0.036962003 0.1982433 0.10881803

while/MatMul f4 [256, 84]
000000 fe 09 7d 3d 21 a4 8e 3d 5f 3e ca 3b 49 9e d9 ba
       0.061777107 0.06964899 0.006171986 -0.0016602959
000010 4c 39 d3 bc ef a6 30 bd 4f a9 57 3d 16 d6 9c bb
       -0.025784157 -0.04312795 0.0526517 -0.004786263
000020 93 54 cd 3d e6 a0 04 3e eb 08 8a 3d c9 1c 6e 3d
       0.10025897 0.12952003 0.06739982 0.05813292
000030 c2 31 df 3d e2 de b5 3d 29 03 04 3e 4e cc 21 3e
       0.108981624 0.08880402 0.1289183 0.15800592
000040 14 68 bd 3c ce b6 52 3d ab 6c ee 3b 44 12 0d 3e
       0.023120917 0.051443867 0.007276138 0.13776499
000050 35 38 0c 3d 82 fc f6 3d b6 01 01 3e 0b b9 8a 3d
       0.03423329 0.12059881 0.12598309 0.067735754
000060 8e 0c 04 3c 34 9e 44 3e fa 1d b1 3c 68 e1 c8 3c
       0.008059634 0.19200975 0.02162074 0.024521545
000070 a3 24 ac 3d 10 64 2f 3e 17 c5 9e 3c 2f 54 04 3e
       0.084054254 0.17128015 0.01938109 0.12922738
000080 59 ff 97 3d 31 db cc 3c 72 16 05 bd 86 ea 3d 3e
       0.074217506 0.025006862 -0.03249211 0.18546495
000090 4b 7d c8 3d a5 78 97 3d d2 dc a3 3b b8 b0 0d 3e
       0.09789523 0.07396058 0.005000689 0.13836944
0000a0 1f 67 d2 3d 9c 34 26 3d 1a d5 0a bd 82 c3 15 bc
       0.10273575 0.040577516 -0.033894636 -0.009140851
0000b0 46 f1 62 3d a6 14 0e be cd 39 4c bd 49 6d 1d be
       0.055405878 -0.13875064 -0.04985981 -0.1537372
0000c0 75 56 c6 3d 3e 28 88 bd 21 2a 08 be 78 27 a7 bd
       0.09684459 -0.066483006 -0.13297321 -0.08161825
0000d0 e1 98 fa bd 5f 75 5e be 31 c9 e5 3d 32 fe 2a bc
       -0.122361906 -0.21724461 0.11220015 -0.010436581
0000e0 64 ef e8 bc fc dc 85 3c 9b 51 bd bb 48 e4 ab bd
       -0.028434463 0.016340725 -0.0057775504 -0.083931506
0000f0 3c 10 80 3d 40 0d c9 bd 72 0c df bc 4b 67 55 be
       0.062530965 -0.0981698 -0.027227614 -0.20840184
000100 32 7a 1a 3d 15 5c 75 bd 31 e0 5d 3d 9e 36 31 3d
       0.03771419 -0.05990227 0.054168884 0.043264978
000110 df 65 e8 bd 9c 76 9b bd 3e 29 6c bc 96 b7 03 be
       -0.11347555 -0.07590982 -0.01441413 -0.12863001
000120 d2 72 d2 bd f8 62 45 3d e5 c0 ff bc a8 ff 1b be
       -0.102758065 0.048190087 -0.031219909 -0.15234244
000130 93 de 05 3c 9f f5 48 bd 74 cc fa bd 8b 69 3c be
       0.008170742 -0.049062368 -0.122460276 -0.18399636
000140 bf 94 87 3d ca d8 61 bd ef fc 70 bc ba 6b 88 bd
       0.06620168 -0.055138387 -0.014708742 -0.06661172
000150 6f 8b d1 bb 99 ab 49 bc 5f 87 72 3d b8 01 38 3d
       -0.0063947956 -0.0123089785 0.05921113 0.044923514
000160 cd ba 98 3d 2c ac 32 3d 87 78 1b 3e c1 59 3c 3e
       0.074575044 0.043621227 0.15182696 0.18393613
000170 a5 87 62 3b 70 13 42 3e 6d 75 29 3e 06 22 31 3e
       0.0034565714 0.18952727 0.165487 0.17298135
000180 bb 1d 56 bc 4d 15 a3 3d c5 6d 0f 3e 9f c9 36 3e
       -0.013068612 0.07963047 0.14006718 0.1785035
000190 46 59 8c bc e3 f5 34 bd d0 6b 21 3c 2e 42 f4 3d
       -0.017132413 -0.04417981 0.009852365 0.11926685
0001a0 36 ca 1c 3e 6b 9d 5b 3e 77 9d 1c 3e ab b6 99 3c
       0.15311512 0.21446769 0.15294443 0.01876386
0001b0 44 14 d3 3d 73 00 24 bb f5 7a 8a 3c 8b 6d e5 3c
       0.103066 -0.0025024682 0.016904334 0.028006336
0001c0 ba 72 31 3c 67 54 bf 3d 23 d6 ac 3d e7 cc 51 bd
       0.010830576 0.0934227 0.08439281 -0.0512208
0001d0 99 cb df 3d 56 a6 14 bd 02 ef 77 bd 14 d7 85 3d
       0.10927505 -0.036291443 -0.06053067 0.065351635
0001e0 69 ce af bb f7 d1 e1 bb c6 dd 8a 3b 0b 0c a1 3c
       -0.005365182 -0.006891485 0.0042378632 0.019659063
0001f0 02 9d 55 bd f1 c7 d8 3c 94 3e 88 3d 46 9a d9 bc
       -0.052151687 0.026462527 0.06652561 -0.026562821
000200 c8 6d 45 3e 86 cc 15 3e c8 27 64 3e ba ca e0 bb
       0.1928016 0.14628801 0.222808 -0.0068601044
000210 eb eb 06 3e 1b bf 94 bc ba cb 3f 3e 11 ed 59 3c
       0.13175933 -0.018157532 0.1873006 0.01330115
000220 bd 32 89 3e 37 fc 5b 3d 72 34 9a 3d fe 28 c9 3d
       0.26796523 0.053707328 0.075295344 0.09822272
000230 5d 03 90 3e a9 e2 25 bc 7a fc 85 3e ea 97 33 3e
       0.28127566 -0.010124841 0.26169187 0.1753842
000240 77 23 3e 3d ca 3a 80 3c e1 ff 98 3d 61 48 14 bc
       0.04642054 0.015653033 0.0747068 -0.00905046
000250 ab 29 71 3e 1d 3c 24 3e 93 7a ee 3d 23 a5 fc 3d
       0.23551051 0.16038556 0.11644473 0.12336185
000260 7e 04 8e 3e ca b3 4d bc 3c e5 8c 3d 58 d9 e1 bb
       0.27737802 -0.012555072 0.068796605 -0.0068923645
000270 31 8f 90 3e 0a cf 1a bd 94 b6 7b 3e 4c ad 1e bc
       0.28234246 -0.037795104 0.24581367 -0.009684872
000280 4a 2b 80 3e 87 4e 52 3e cf 67 07 3e c6 f8 d3 3d
       0.25033027 0.20537768 0.13223194 0.10350184
000290 6b cc 80 3e 4c b4 f0 3d 3d ec 97 3d f6 a5 0f 3e
       0.2515596 0.11753139 0.07418106 0.14028153
0002a0 f7 03 b8 3c 49 45 6b 3e 8c 5b cf 3d a7 69 a4 3d
       0.022462828 0.22975649 0.10124883 0.08027964
0002b0 45 4b 27 3e 65 c8 1c 3e 4c a2 8f 3e 18 6d 05 3e
       0.16337307 0.1531082 0.2805351 0.13029897
0002c0 99 a5 8c 3d b5 c0 1b 3e 17 b3 0c 3d 7d 5a 24 3e
       0.06867523 0.1521023 0.03435048 0.16050144
0002d0 ee 50 0d 3e bd de f1 3d 26 3d 6b 3e 35 7e 70 3e
       0.13800403 0.11810062 0.22972545 0.23485644
0002e0 ee 2f 76 3e 9a cb bf 3d af f7 ec 3d 09 25 cf 3d
       0.24041721 0.09365006 0.115706794 0.10114486
0002f0 81 ef 86 3e bc e8 ef 3d 5b 6a 8c 3e bb 16 1c 3e
       0.26354602 0.117143124 0.27424893 0.15243046
000300 58 c1 bc 3d 11 b4 27 3e fc 53 95 3c 88 81 d6 3c
       0.09216565 0.16377284 0.018228523 0.026184812
000310 25 a7 46 3e 32 c5 56 3e bd e9 cf 3c ee 05 3b 3c
       0.19399698 0.20973662 0.02538001 0.011414988
000320 4a b6 df 3c d0 43 f1 3d 0a 76 85 3e c6 a9 45 3e
       0.027308602 0.11780512 0.2606662 0.19303045
000330 d0 84 bb 3d d2 1a 20 3e 26 4a 26 3d d3 63 54 3d
       0.09156191 0.15635231 0.040598057 0.051853012
000340 1a a7 6d 3e bb 4d 1b 3e 90 13 8c 3e a2 5f 00 3e
       0.23208275 0.1516637 0.27358675 0.12536481
000350 e0 93 91 3e 6f 37 17 3e 15 e8 2c 3e 0f a3 5e 3e
       0.28433132 0.1476724 0.16885407 0.2174189
000360 41 fc e0 3d 43 db a7 3d 69 a7 47 3e 0a 82 0c bc
       0.109856136 0.08196118 0.19497456 -0.008575926
000370 d4 3b a0 3d 33 38 6d 3e c6 dd 16 3e 5f 58 5f 3e
       0.07823911 0.2316597 0.14733037 0.21811055
000380 00 f1 9f 3e b8 ac 5d 3e 0f e2 63 3e b0 b0 fe 3d
       0.31238556 0.21647918 0.22254203 0.12436044
000390 ca 8a 55 3e 01 ed 85 3e 78 cb 62 3e 01 e1 22 3d
       0.20853725 0.26157382 0.2214793 0.03976536
0003a0 5c ef 91 3e 2d 5d a6 3b 82 95 00 3e ba e1 99 3d
       0.2850293 0.0050770254 0.12557033 0.07513757
0003b0 fc bc ba 3d 5e 8d 11 3e 84 6c 2a 3e 4c 49 96 3d
       0.09118077 0.14214084 0.16642958 0.07338199
0003c0 0f 94 a1 3e 3b 8b 89 3b 4b b4 6c 3e cc 4e 4e 3c
       0.31558272 0.004197506 0.23115651 0.012592029
0003d0 85 e7 90 3e 43 e4 66 3e a3 44 6b 3e d3 37 7d 3d
       0.28301635 0.22548012 0.22975402 0.061820816
0003e0 a4 00 45 3e 2d c5 fb 3d 09 9a 64 3e 2d 73 26 3e
       0.19238526 0.12293468 0.22324385 0.16254874
0003f0 90 39 aa 3c 47 2b 5e bd 2d 7d 22 3e 1a 55 11 3e
       0.020779401 -0.05424049 0.15868063 0.1419262
