20250726_042506/gesture_classifier.tflite (tflite, 231236 bytes, 10 tensors)

sequential/conv1d/BiasAdd/ReadVariableOp f4 [64]
-0.007006584 -0.007491692 -0.0055393153 -0.008487622 0.26220554 -0.11805952 -0.1992079 -0.12460592
-0.2579435 -0.0050828103 -0.006770593 -0.012488945 0.20262063 0.009232426 0.2736541 0.009879926
0.0 -0.0036893163 -0.0051502343 0.29643077 -0.1826934 -0.012289304 0.47627255 -0.0059969136
0.0 0.10504241 -0.5423017 -0.011559599 0.26192054 -0.005982775 -0.010796178 -0.011269374
-0.011481411 -0.012085627 -0.018063372 -0.0059127617 -0.14115714 -0.1067954 -0.0025676256 -0.14300379
0.0 -0.014253847 -0.021074146 -0.0010812707 0.09518992 -0.005984865 0.15796128 -0.005990197
0.0016607802 0.03538322 -0.005688251 -0.025011372 -0.0059792814 -0.0056629404 0.29279572 -0.0061140913
-0.0059812865 -0.27779797 -0.008231609 0.0 0.0 0.3008536 -0.0060688797 -0.013220006
00000000: 7d97 e5bb de7c f5bb 2583 b5bb ab0f 0bbc
00000010: ce3f 863e 31c9 f1bd 28fd 4bbe 6331 ffbd
00000020: 2c11 84be b48d a6bb dadb ddbb 6f9e 4cbc
00000030: c87b 4f3e 9a43 173c 641c 8c3e 6adf 213c
00000040: 0000 0000 75c8 71bb 4cc3 a8bb c6c5 973e
00000050: fb13 3bbe 1459 49bc ffd9 f33e c281 c4bb
00000060: 0000 0000 7a20 d73d 49d4 0abf 7964 3dbc
00000070: 731a 863e 270b c4bb 74e2 30bc 2ea3 38bc
00000080: 871c 3cbc cb02 46bc a3f9 93bc d7bf c1bb
00000090: 7f8b 10be 8cb7 dabd 9c45 28bb 966f 12be
000000a0: 0000 0000 f888 69bc b0a3 acbc 6db9 8dba
000000b0: eff2 c23d b01c c4bb 9ac0 213e 6a49 c4bb
000000c0: 89ae d93a ffed 103d 8264 babb a6e4 ccbc
000000d0: d9ed c3bb 3090 b9bb 52e9 953e b758 c8bb
000000e0: abfe c3bb 893b 8ebe dfdd 06bc 0000 0000
000000f0: 0000 0000 7c09 9a3e 74dd c6bb b998 58bc

sequential/conv1d/Conv1D f4 [64, 1, 3, 84]
-0.0892379 0.079383925 0.07371326 -0.11329878 -0.040136978 0.06368354 -0.0996006 -0.03335029
0.0911949 0.07733552 -0.085185304 -0.051417448 0.09440209 -0.04173767 -0.035430208 -0.03701634
-0.082620084 -0.07165923 -0.06763074 0.004828945 -0.0632302 -0.08555095 0.08580601 0.04374081
0.06775701 0.07134238 -0.050036132 -0.037281826 -0.032324538 -0.09064871 -0.0108735785 -0.014496781
-0.058023904 0.06713641 0.046137154 -0.010184042 0.088923275 -0.06641605 0.044147313 -0.01946868
-0.05425328 -0.089657575 0.115477666 -0.10605936 0.019650742 0.021105096 -0.055751976 0.11243206
0.10187538 -0.043014273 0.07705848 -0.10563911 -0.0502287 0.009224027 -0.039112143 -0.026097506
-0.062555045 0.08819458 -0.05716059 -0.026112884 0.10021749 -0.044377297 -0.042470187 0.004434854
0.018592924 -0.10304288 -0.06571249 -0.018170066 0.09578177 -0.06450966 -0.11344002 0.05036713
0.033333555 -0.011434488 -0.08563956 -0.031110317 0.024221182 0.04655236 -0.010951377 0.030274555
-0.0017267913 -0.000115685165 -0.111059725 -0.09802527 -0.08947415 -0.058668144 -0.006426986 -0.0319452
0.060594615 0.030817447 0.0011298988 0.049052563 0.07488733 0.005129448 -0.033517912 -0.10941764
0.06949301 -0.05393713 -0.047369037 0.07596841 0.09752249 0.05298676 -0.07132884 -0.10579306
-0.06277215 -0.037734117 -0.07873839 0.0998003 0.09779197 0.07060599 0.005269901 -0.109612904
0.09482173 0.08370776 -0.107757844 -0.041240152 -0.099161424 -0.093454726 -0.10732463 -0.014718434
-0.11803331 0.096498646 -0.07708906 -0.042515855 0.0186475 -0.07106054 -0.060750984 -0.100922234
-0.050521884 0.022666365 0.006166503 -0.043670606 0.043550458 -0.04274098 -0.10835481 0.021290114
-0.09715626 -0.088174894 -0.03893764 -0.10986303 -0.069782436 0.035120927 -0.05471811 -0.022981586
0.027279282 0.017472835 -0.097124375 0.06436957 0.022472767 0.091581754 0.06529725 -0.072015144
0.012834825 0.044971153 0.017977672 0.04966269 0.09552205 -0.0642163 0.06778449 0.06128297
-0.031561956 -0.09918616 -0.02818989 0.08484113 0.097756624 -0.010594093 0.07177964 -0.053535376
-0.0020081743 0.017678179 0.08334631 0.028930372 -0.059394605 0.0685236 -0.094507694 -0.09735225
-0.004999021 0.05194626 0.03534139 -0.046894435 -0.006027109 -0.115347065 0.087698825 0.05024828
0.022154784 0.080763936 0.0013637161 -0.057576183 0.109522544 -0.11166336 0.027653415 -0.03377624
0.094777875 0.07302677 -0.059631947 0.032833327 0.010877084 0.021147499 0.019756563 -0.11532761
-0.04527848 -0.0048896805 -0.021259096 -0.059550807 -0.02534702 0.03046002 -0.0846628 0.099211864
0.036948297 -0.10146175 0.0009375385 0.08236603 0.008236957 0.10458175 0.09430442 0.021124376
0.07250435 -0.07978709 -0.06394671 0.0985572 0.019706775 -0.0073753004 0.023586601 0.03184639
-0.115392685 0.011034691 -0.022136068 -0.07864391 0.101216726 -0.0916157 0.025448782 0.015303306
-0.036270075 -0.045194343 -0.042812597 0.0060771704 0.10032959 -0.022532394 0.016050773 0.046473343
-0.09673806 -0.100306 -0.122689836 -0.00840689 0.06148187 0.07255327 0.058912583 -0.059812035
-0.117490724 -0.02144849 0.10771308 -0.051831894 0.10028308 0.029064946 0.052942786 -0.055658493
00000000: 5cc2 b6bd 0a94 a23d faf6 963d 3109 e8bd
00000010: ac66 24bd 846c 823d 66fb cbbd 509a 08bd
00000020: 64c4 ba3d 1662 9e3d a275 aebd 1a9b 52bd
00000030: e255 c13d 1ef5 2abd 441f 11bd 729e 17bd
00000040: b834 a9bd 13c2 92bd fc81 8abd 203c 9e3b
00000050: d67e 81bd 5635 afbd 10bb af3d 9029 333d
00000060: 30c4 8a3d f41b 923d b0f2 4cbd d4b4 18bd
00000070: bc66 04bd 08a6 b9bd 1827 32bc e883 6dbc
00000080: 79aa 6dbd d07e 893d 50fa 3c3d f8da 26bc
00000090: 681d b63d 2305 88bd d0d3 343d c87c 9fbc
000000a0: b038 5ebd 649e b7bd 8e7f ec3d a635 d9bd
000000b0: 98fa a03c 98e4 ac3c 2f5c 64bd c842 e63d
000000c0: 0aa4 d03d bc2f 30bd d6d0 9d3d 5159 d8bd
000000d0: 9cbc 4dbd 6020 173c 0e34 20bd 70ca d5bc
000000e0: dc1c 80bd 5c9f b43d 3921 6abd b0ea d5bc
000000f0: d43e cd3d f8c4 35bd 38f5 2dbd 4052 913b
00000100: 3050 983c 2508 d3bd 4594 86bd 64d9 94bc
00000110: 3c29 c43d a41d 84bd 3e53 e8bd c44d 4e3d
00000120: c488 083d b857 3bbc cb63 afbd 10db febc
00000130: 806b c63c b0ad 3e3d 686d 33bc 5802 f83c
00000140: 8055 e2ba 009c f2b8 4873 e3bd 79c1 c8bd
00000150: 393e b7bd 024e 70bd 7799 d2bb f8d8 02bd
00000160: 0f32 783d df74 fc3c 1d19 943a 57eb 483d
00000170: 875e 993d ee14 a83b 144a 09bd 5b16 e0bd
00000180: 5a52 8e3d 2eed 5cbd 0906 42bd 5395 9b3d
00000190: dfb9 c73d a508 593d db14 92bd 08aa d8bd
000001a0: af8e 80bd 178f 1abd 9841 a1bd 1a64 cc3d
000001b0: 2847 c83d e099 903d 22af ac3b bb7c e0bd
000001c0: e531 c23d f96e ab3d 25b0 dcbd 6feb 28bd
000001d0: 2515 cbbd 3165 bfbd 04cd dbbd 9625 71bc
000001e0: 73bb f1bd 15a1 c53d dee0 9dbd 1b25 2ebd
000001f0: a4c2 983c 3088 91bd 06d6 78bd 51b0 cebd
00000200: 09f0 4ebd d0ae b93c 6010 ca3b f3df 32bd
00000210: f761 323d 2a11 2fbd 20e9 ddbd 9b68 ae3c
00000220: dcf9 c6bd 0a95 b4bd 137d 1fbd deff e0bd
00000230: 18ea 8ebd f6da 0f3d 1920 60bd e143 bcbc
00000240: cd78 df3c 3123 8f3c 25e9 c6bd 31d4 833d
00000250: cf18 b83c 378f bb3d 91ba 853d ad7c 93bd
00000260: 2849 523c ac33 383d e945 933c 1b6b 4b3d
00000270: 11a1 c33d d683 83bd 98d2 8a3d da03 7b3d
00000280: 1c47 01bd 1d22 cbbd 7cee e6bc 30c1 ad3d
00000290: a034 c83d d992 2dbc 3401 933d e947 5bbd
000002a0: 939b 03bb d4d1 903c 78b1 aa3d 63ff ec3c
000002b0: c247 73bd 1a56 8c3d 408d c1bd 9e60 c7bd
000002c0: d4ce a3bb 9ac5 543d 22c2 103d 6114 40bd
000002d0: 0e7f c5bb 153b ecbd 719b b33d 24d1 4d3d
000002e0: f37d b53c 9067 a53d b8be b23a 01d5 6bbd
000002f0: 5b4d e03d c2af e4bd 6a89 e23c f458 0abd
00000300: e71a c23d 0f8f 953d a140 74bd 3d7c 063d
00000310: cc35 323c 853d ad3c 84d8 a13c e230 ecbd
00000320: ed75 39bd 9d39 a0bb 8e27 aebc 8ceb 73bd
00000330: 8ea4 cfbc 4b87 f93c b163 adbd 972f cb3d
00000340: 1957 173d 2ecb cfbd 25c5 753a 85af a83d
00000350: 4df4 063c f52e d63d ad22 c13d 070d ad3c
00000360: 297d 943d 6a67 a3bd 7ef6 82bd 5bd8 c93d
00000370: 1a70 a13c 81ac f1bb b038 c13c 5c71 023d
00000380: 0053 ecbd d9ca 343c b356 b5bc 0f10 a1bd
00000390: b74a cf3d 03a1 bbbd f779 d03c b8ba 7a3c
000003a0: ee8f 14bd b41d 39bd 435c 2fbd 0023 c73b
000003b0: 9a79 cd3d db95 b8bc e97c 833c d55a 3e3d
000003c0: 9b1e c6bd 3b6d cdbd cf44 fbbd 0dbd 09bc
000003d0: 6ad4 7b3d cf96 943d 524e 713d 77fd 74bd
000003e0: fa9e f0bd beb4 afbc ad98 dc3d ae4d 54bd
000003f0: 3761 cd3d 9c19 ee3c 89da 583d 29fa 63bd

sequential/lstm/Read_2/ReadVariableOp f4 [256]
0.02658979 -0.05733693 -0.18112327 -0.21223162 0.06408473 -0.046048567 -0.08477609 0.107171364
-0.0008560627 0.06395939 0.17452656 0.28442767 0.23597436 0.077569455 0.07152508 0.06654317
0.051399913 -0.20650543 0.036792018 0.11264599 0.1614514 0.056972325 -0.12582889 -0.10127877
0.13590497 -0.1628499 0.03819095 0.0625122 0.016855275 0.065504275 -0.011569813 -0.094818525
0.25207877 -0.06319472 -0.20339407 0.070568934 0.04994036 0.015467339 0.17771778 -0.025617097
0.2122006 0.11526037 0.17830434 0.05416844 0.17427637 -0.109422974 0.08027112 0.07161938
0.15871675 0.010650665 -0.105515294 0.037307817 -0.11753432 0.04175558 0.2926322 0.13845775
0.15084313 -0.24062967 0.0055030244 0.08368867 0.18695028 0.09474515 0.2158496 -0.017714152
1.0653464 1.0859483 1.1083938 1.1800535 0.9413726 1.0440079 1.2503719 0.88141143
0.82285666 1.0413593 0.8886733 1.0956018 0.9336355 1.0197918 1.0814936 0.97618186
1.042713 1.01126 1.0505904 1.1657518 0.8179259 1.0122421 1.0678645 1.078917
0.8042661 1.1335021 0.98461586 0.87052476 1.0752436 0.9640019 0.997156 1.048548
1.0679929 1.1748441 1.047554 1.0588813 1.1331254 0.9692478 1.0697031 0.76755834
1.141576 1.0031654 1.1794991 1.0298957 1.1149071 1.0003682 0.9480164 0.94514143
1.0051476 0.874476 1.0146648 1.0696166 1.104473 0.9413916 1.0868987 1.1599542
0.9785491 1.1620772 1.0440067 1.0323865 1.0869701 1.0807487 1.1049501 1.1279093
0.06541138 -0.097871095 0.05339273 -0.088933446 0.064549714 0.043924123 0.09229889 0.07301393
-0.07932178 -0.024978362 0.10560795 -0.1287183 -0.0049690455 -0.049085505 0.08277172 0.095244974
-0.02929725 0.15676802 0.10539079 -0.3830323 -0.10078693 0.053691562 -0.021505855 -0.056866787
0.0077681975 -0.014948004 -0.09222442 0.28393942 0.10010919 0.16906893 0.09406352 -0.26866475
0.015783338 -0.18187983 -0.1436201 0.10000947 0.0767281 0.0953815 0.008984265 0.22521387
0.08310391 -0.08694265 -0.03754847 -0.061817564 0.08371133 -0.13888484 0.039606854 0.110197335
0.1321492 -0.06289995 0.01743893 0.091808654 0.113128446 -0.06113503 0.14490095 -0.017049141
0.2891167 -0.007125568 0.010429784 0.16644154 -0.09591711 -0.004215062 0.24821289 0.12573095
0.16837978 0.041784503 -0.11038494 0.08931676 0.17202692 -0.05418196 0.09207951 0.17214969
0.17700002 0.107864864 0.22300752 0.2200457 0.38323462 0.115333855 0.14110221 0.2397587
0.1909892 0.08718806 0.13475265 0.140054 0.11826039 0.15712817 0.075557 -0.03189873
0.23323004 0.10709701 0.095392376 0.13049306 0.07134413 0.1651079 0.18628635 0.056991223
0.23879257 0.14220598 0.103073634 0.059705187 0.16768894 -0.018756753 0.16793801 0.09477389
0.24797194 0.09600352 0.007725207 0.3065306 0.004286557 -0.005836913 0.2283613 0.021063678
0.26205793 -0.007827402 0.074332744 0.28003 0.06963646 0.111532085 0.12385603 0.23864603
-0.09315379 0.13081053 0.11033451 0.03126949 -0.058827892 0.007871574 -0.052318584 0.18000488
00000000: d5d2 d93c 21da 6abd 6178 39be 3f53 59be
00000010: db3e 833d 6c9d 3cbd 169f adbd a97c db3d
00000020: 6569 60ba 24fd 823d 17b7 323e 81a0 913e
00000030: 43a3 713e bcdc 9e3d be7b 923d c947 883d
00000040: b788 523d 2976 53be 3ab3 163d f1b2 e63d
00000050: 8453 253e d05b 693d 4ad9 00be 3e6b cfbd
00000060: ac2a 0b3e 20c2 26be 1d6e 1c3d 6506 803d
00000070: 1314 8a3c 1b27 863d 508f 3dbc 3730 c2bd
00000080: 7810 813e 3c6c 81bd 8946 50be 7286 903d
00000090: 438e 4c3d b96a 7d3c a6fb 353e f2da d1bc
000000a0: 1d4b 593e a10d ec3d 6a95 363e badf 5d3d
000000b0: 8175 323e 2719 e0bd 2f65 a43d 2ead 923d
000000c0: a586 223e 2080 2e3c 6718 d8bd 15d0 183d
000000d0: d5b5 f0bd e607 2b3d e3d3 953e dec7 0d3e
000000e0: 9f76 1a3e a067 76be b752 b43b f764 ab3d
000000f0: e56f 3f3e bf09 c23d ad07 5d3e 451d 91bc
00000100: 455d 883f 5b00 8b3f d9df 8d3f fe0b 973f
00000110: cbfd 703f 0da2 853f 300c a03f 2ea4 613f
00000120: bca6 523f 434b 853f 1880 633f ae3c 8c3f
00000130: bc02 6f3f 8a88 823f 626e 8a3f 0ee7 793f
00000140: 9f77 853f f870 813f bf79 863f 5b37 953f
00000150: 9763 513f 2691 813f c9af 883f f419 8a3f
00000160: 62e4 4d3f 9916 913f c90f 7c3f b6da 5e3f
00000170: 95a1 893f d4c8 763f 9e45 7f3f d236 863f
00000180: feb3 883f 4b61 963f 4016 863f 6c89 873f
00000190: 410a 913f a020 783f 08ec 883f b47e 443f
000001a0: 2a1f 923f b967 803f d4f9 963f 9fd3 833f
000001b0: 47b5 8e3f 110c 803f 34b1 723f caf4 713f
000001c0: ada8 803f a9dd 5f3f 89e0 813f 32e9 883f
000001d0: 5f5f 8d3f 0aff 703f 7f1f 8b3f 6179 943f
000001e0: 3282 7a3f f2be 943f 03a2 853f 3e25 843f
000001f0: d621 8b3f f955 8a3f 016f 8d3f 555f 903f
00000200: 67f6 853d a470 c8bd 56b2 5a3d bd22 b6bd
00000210: a432 843d c8e9 333d 3307 bd3d 5488 953d
00000220: 7573 a2bd 6c9f ccbc fb48 d83d bbce 03be
00000230: 60d3 a2bb e20d 49bd 3884 a93d cc0f c33d
00000240: c900 f0bc cc87 203e 20d7 d73d cf1c c4be
00000250: 6169 cebd afeb 5b3d 0c2d b0bc 26ed 68bd
00000260: 5d8c fe3b 79e8 74bc 28e0 bcbd 8260 913e
00000270: 0c06 cd3d 6820 2d3e 60a4 c03d 6d8e 89be
00000280: 0f4c 813c b53e 3abe 2611 13be c4d1 cc3d
00000290: 9f23 9d3d 6057 c33d bd32 133c 779e 663e
000002a0: 6232 aa3d fd0e b2bd 6dcc 19bd 6a34 7dbd
000002b0: d970 ab3d d437 0ebe cc3a 223d 24af e13d
000002c0: 1f52 073e b0d1 80bd 16dc 8e3c 2d06 bc3d
000002d0: e3af e73d ba68 7abd ea60 143e a4aa 8bbc
000002e0: 1b07 943e 997d e9bb afe1 2a3c a76f 2a3e
000002f0: 3170 c4bd 811e 8abb 852b 7e3e 9dbf 003e
00000300: c06b 2c3e 3a26 2b3d 8011 e2bd b5eb b63d
00000310: d327 303e e7ed 5dbd 2f94 bc3d 0248 303e
00000320: 7e3f 353e 41e8 dc3d 155c 643e a953 613e
00000330: 5437 c43e 2834 ec3d 197d 103e 4e83 753e
00000340: ac92 433e a78f b23d 99fc 093e 516a 0f3e
00000350: 8132 f23d 35e6 203e a1bd 9a3d 3ea8 02bd
00000360: dbd3 6e3e ad55 db3d 145d c33d f99f 053e
00000370: df1c 923d 0c12 293e d9c1 3e3e a16f 693d
00000380: 0a86 743e 729e 113e 4518 d33d 6d8d 743d
00000390: a6b6 2b3e c3a7 99bc f1f7 2b3e d018 c23d
000003a0: 5bec 7d3e 7e9d c43d bc23 fd3b 94f1 9c3e
000003b0: 3f76 8c3b 9343 bfbb 8bd7 693e bc8d ac3c
000003c0: 752c 863e 813e 00bc c43b 983d 1860 8f3e
000003d0: 8f9d 8e3d ef6a e43d 3ba8 fd3d a05f 743e
000003e0: 6ac7 bebd 32f3 053e 0ff7 e13d 7014 003d
000003f0: 84f5 70bd c6f7 003c 034c 56bd 3353 383e

sequential/dense/BiasAdd/ReadVariableOp f4 [32]
0.7490611 0.8423321 0.68186045 0.1645982 0.17694478 0.29559594 0.75078094 -0.15430327
-0.051640872 0.42151225 0.7739165 0.17371847 0.46050367 0.43798 0.6449889 0.5503838
0.42094687 0.5080062 -0.03667741 0.40771312 0.67148954 0.9517777 0.4586537 0.055551566
0.43546867 0.11554423 0.67937696 0.60380954 1.0261838 0.42027548 0.76630455 0.43813193
00000000: 78c2 3f3f 14a3 573f 688e 2e3f 6e8c 283e
00000010: 0331 353e 5a58 973e 2e33 403f ad01 1ebe
00000020: 6185 53bd 74d0 d73e 641f 463f 41e3 313e
00000030: 23c7 eb3e ea3e e03e fe1d 253f f4e5 0c3f
00000040: 5986 d73e b20c 023f 0d3b 16bd c6bf d03e
00000050: bde6 2b3f b4a7 733f a8d4 ea3e 0a8a 633d
00000060: c0f5 de3e 74a2 ec3d a6eb 2d3f 4393 1a3f
00000070: fe59 833f 592e d73e 892c 443f d452 e03e

sequential/dense_1/BiasAdd/ReadVariableOp f4 [100]
-0.18914546 -0.96363664 -0.86465454 -0.25063947 0.8869738 -0.70151204 0.34175777 0.15204324
-0.26412448 -0.13869242 1.2348181 0.039762955 -0.79740274 -1.0493121 1.0604004 -0.32288042
-0.87554175 1.0918407 -0.8346537 -0.024488699 -0.4215892 0.18299733 -0.02314677 0.47944987
-0.5048693 0.3383243 0.8724659 0.16276278 0.37831756 0.52381307 -0.23695724 -0.67223793
-0.809181 0.1111967 0.7274894 0.13678297 -0.019603387 -0.23676133 0.577392 0.2954048
-0.78413314 -0.5160098 -0.49814525 -0.5680364 0.09462384 0.22302671 0.43870443 -0.5193513
0.21092483 -0.5035863 0.78499824 -0.13236238 0.40959102 0.036830205 -0.65134203 0.8174003
-0.4403133 -0.6709163 0.5514747 0.4417772 0.368545 0.5015102 -0.11483308 -0.46655905
-0.115903296 0.38621882 -0.5976539 -0.6784272 -0.09899874 -0.14312012 -0.3312413 0.7665919
-0.23047262 -0.85697764 0.17053936 -0.008098861 -0.91465616 0.40486163 -0.6978894 -0.21604745
0.3301363 -0.66310877 1.1697706 -0.9880985 -0.5571351 -0.2908542 0.22630702 -0.7947487
-0.01279015 -0.62779534 0.09735035 -0.4901593 0.121649235 0.054509476 -0.10301003 0.44572166
0.23391211 -0.33884016 -0.6759051 -0.24606612
00000000: 59af 41be e4b0 76bf 005a 5dbf d153 80be
00000010: b710 633f 4b96 33bf e0fa ae3e 39b1 1b3e
00000020: 533b 87be 6305 0ebe 850e 9e3f 7bde 223d
00000030: 9622 4cbf dc4f 86bf 33bb 873f 9550 a5be
00000040: 8123 60bf 70c1 8b3f ddab 55bf 869c c8bc
00000050: 8ada d7be a763 3b3e 4c9e bdbc 747a f53e
00000060: 1d3f 01bf d838 ad3e ed59 5f3f 49ab 263e
00000070: d7b2 c13e 9d18 063f eba4 72be c917 2cbf
00000080: 7c26 4fbf 18bb e33d bf3c 3a3f d610 0c3e
00000090: 4897 a0bc 9071 72be f6cf 133f 4c3f 973e
000000a0: f3bc 48bf 3819 04bf e50c ffbe d56a 11bf
000000b0: 25ca c13d 1d61 643e de9d e03e 35f4 04bf
000000c0: aefc 573e 08eb 00bf a5f5 483f 018a 07be
000000d0: eab5 d13e 45db 163d 5abe 26bf 2541 513f
000000e0: bf70 e1be 2cc1 2bbf 722d 0d3f 9f30 e23e
000000f0: eeb1 bc3e f962 003f 9b2d ebbd d4e0 eebe
00000100: b55e edbd 79be c53e d9ff 18bf 68ad 2dbf
00000110: dabf cabd 158e 12be 7698 a9be 5e3f 443f
00000120: 0401 6cbe e362 5bbf dfa1 2e3e 16b1 04bc
00000130: e826 6abf 064a cf3e e1a8 32bf 8b3b 5dbe
00000140: a007 a93e 7fc1 29bf 0bbb 953f 06f4 7cbf
00000150: 68a0 0ebf d7ea 94be 07bd 673e a774 4bbf
00000160: c78d 51bc 32b7 20bf 9f5f c73d 29f6 fabe
00000170: 3c23 f93d 5445 5f3d ecf6 d2bd a135 e43e
00000180: a886 6f3e 757c adbe 1e08 2dbf c2f8 7bbe

sequential/dense/MatMul f4 [32, 64]
0.055930067 0.32348344 0.20730756 -0.5672712 0.15838441 0.36272544 -0.36801657 0.6233322
1.0834216 -0.29334047 0.67540145 0.63266796 -0.40758833 -0.70029455 0.023752982 -0.5061348
0.5083969 0.16615453 0.18612118 -0.49704805 0.6812044 0.18310267 -0.07299995 0.6945051
-0.4077125 0.106189266 -0.80575264 -0.40276134 -0.064467944 0.023935752 0.020299073 -0.1796626
0.26080993 0.0105303945 0.3056351 0.0038006552 0.118722625 0.040267877 -0.11103073 0.015126823
2.0764468 -0.77772063 -0.90249103 0.22638756 -0.34842244 -0.1851709 0.015214314 0.52943283
-0.24068713 0.34374553 -0.210458 0.2198863 0.34506506 0.40198004 -0.11926131 -0.7570583
-0.02432988 -0.73746634 0.3212215 0.15473442 0.5869175 0.049564216 0.7104631 0.5059644
-0.26853716 0.4459092 0.64036435 0.7114267 -0.51381856 -0.02196754 -0.25978592 0.35275358
-0.27638268 -0.26045355 0.27033597 -0.5161702 0.4305018 -0.22599109 -0.7325219 -0.19094466
-0.31424293 -0.59516335 -0.06961077 0.18814325 -0.01965572 -0.27606222 -0.49280766 0.6806795
0.07717753 0.27335307 0.14308026 -0.1799646 -0.42876878 0.11248685 -0.25005314 0.86366814
-0.30118608 -0.07771765 -0.40353552 0.30025437 -0.46059066 -0.46484998 -0.41913918 0.26208812
-0.35957658 0.1473585 -0.7333763 0.3698011 0.008666637 0.5883393 0.20305927 0.15965307
-0.1253745 -0.40755314 0.20460165 -0.009549673 -0.111141816 -0.020831728 -0.38635466 0.5428656
-0.17846401 -1.2410133 -0.21200281 0.10274054 0.0018506786 0.034541238 -0.52650714 -0.13371968
-0.121372305 -0.30681366 0.5684243 0.16413267 -0.047586795 -0.0070611015 -0.14981684 0.10904378
-0.7818598 0.5446987 -0.59631675 -0.61649257 -0.23272485 0.14365515 0.6984378 -0.23401092
0.15630166 -0.0905152 -0.22754781 -0.3010666 0.27016205 0.44876608 0.20080966 -0.47937468
-0.39076534 0.043225914 0.36680123 0.08056988 -0.50997883 0.013375982 0.034381043 0.008156599
0.21143351 -0.11881542 -0.2655937 0.52451575 -0.32439527 0.24803603 -0.069494635 -0.25212407
-0.27129078 -0.17672217 0.7137607 0.85407203 -0.13721827 0.19260837 0.093807206 -0.62744707
2.1452088 -0.4864397 -0.13124566 0.061446752 0.54432887 0.60525346 -0.8090322 0.07233107
0.38131768 0.14797495 -1.2629352 0.6974343 -0.68197626 0.076016314 -0.24877939 -0.1800924
0.41771 -0.40784702 -0.18715452 -0.14983468 -0.30476493 -0.8657352 -0.014699601 -0.19900239
-0.6705131 0.08139746 -0.5336221 -0.43680272 0.084714286 0.46393034 0.2652833 0.6389276
0.28000158 0.16297632 0.21211235 -0.49239558 0.14044371 -0.61207664 0.10701055 -0.38623315
0.109647155 -0.40454182 0.008714455 3.0489979 0.2743229 0.671767 -0.09781849 -0.64891124
0.31251082 -0.041616976 -0.1914896 -0.4685272 0.07732197 0.083118476 0.5509937 0.03035903
-0.044787988 0.10126403 0.49490768 -0.38839066 0.44479126 -0.16582036 -0.8400815 -0.17569761
0.14530073 -0.44728616 0.3591039 0.2227848 0.22485492 -0.7886879 0.64445335 0.078602105
0.4878544 0.54892427 0.12778582 0.5383066 -0.6930619 0.18529366 0.5324851 0.34826234
00000000: ed16 653d 9f9f a53e 6f48 543e af38 11bf
00000010: 862f 223e 26b7 b93e ab6c bcbe b392 1f3f
00000020: 8fad 8a3f b930 96be 1ce7 2c3f 87f6 213f
00000030: 6baf d0be 8146 33bf 9d95 c23c 0d92 01bf
00000040: 4d26 023f 6a24 2a3e 8d96 3e3e 157d febe
00000050: 6963 2e3f 447f 3b3e ff80 95bd 16cb 313f
00000060: b1bf d0be c279 d93d ce45 4ebf bc36 cebe
00000070: c507 84bd e914 c43c 3e4a a63c 79f9 37be
00000080: e188 853e ad87 2c3c 347c 9c3e 6a14 793b
00000090: d924 f33d eeef 243d 1464 e3bd 7fd6 773c
000000a0: 81e4 0440 b318 47bf a709 67bf 24d2 673e
000000b0: 6d64 b2be 719d 3dbe 7545 793c e988 073f
000000c0: b076 76be 6aff af3e 4d82 57be e029 613e
000000d0: 5eac b03e 54d0 cd3e 463f f4bd 93ce 41bf
000000e0: 754f c7bc 98ca 3cbf 2577 a43e b372 1e3e
000000f0: 3a40 163f d903 4b3d e9e0 353f e286 013f
00000100: b47d 89be 364e e43e ebee 233f 0f20 363f
00000110: 9d89 03bf 45f5 b3bc a902 85be 1e9c b43e
00000120: 0882 8dbe 2b5a 85be 7a69 8a3e bb23 04bf
00000130: bb6a dc3e 356a 67be 8e86 3bbf ff86 43be
00000140: 73e4 a0be a05c 18bf 1790 8ebd a0a8 403e
00000150: 0805 a1bc 0758 8dbe 4951 fcbe 0341 2e3f
00000160: 410f 9e3d eff4 8b3e a283 123e a448 38be
00000170: 9587 dbbe 815f e63d f706 80be 5b19 5d3f
00000180: 1035 9abe 6e2a 9fbd 359c cebe f1ba 993e
00000190: 8ad2 ebbe d100 eebe 6999 d6be 6a30 863e
000001a0: 6c1a b8be 26e5 163e 8dbe 3bbf 9256 bd3e
000001b0: 83fe 0d3c 689d 163f c5ee 4f3e 187c 233e
000001c0: 2c62 00be ceaa d0be 1883 513e 3b76 1cbc
000001d0: 529e e3bd 4da7 aabc 47d0 c5be 3df9 0a3f
000001e0: 45bf 36be 86d9 9ebf 4417 59be a269 d23d
000001f0: 7892 f23a 1d7b 0d3d 2cc9 06bf d0ed 08be
00000200: 0b92 f8bd ae16 9dbe 4184 113f 6512 283e
00000210: 5fea 42bd d060 e7bb 9669 19be 5852 df3d
00000220: f727 48bf 6071 0b3f 37a8 18bf 75d2 1dbf
00000230: 6c4f 6ebe 561a 133e d2cc 323f 8fa0 6fbe
00000240: 8b0d 203e 0860 b9bd 4b02 69be 6725 9abe
00000250: ae52 8a3e abc4 e53e 0ca1 4d3e 9970 f5be
00000260: 6512 c8be a80d 313d 5fcd bb3e d201 a53d
00000270: f98d 02bf ef26 5b3c 23d3 0c3d 41a3 053c
00000280: 0782 583e 8055 f3bd e6fb 87be aa46 063f
00000290: 2317 a6be 28fd 7d3e 3453 8ebd 6816 81be
000002a0: a0e6 8abe a8f6 34be 05b9 363f 77a4 5a3f
000002b0: f282 0cbe 213b 453e fe1d c03d 5fa0 20bf
000002c0: 1a4b 0940 a00e f9be 4365 06be 97af 7b3d
000002d0: 2359 0b3f e4f1 1a3f bc1c 4fbf 5022 943d
000002e0: 123c c33e bf86 173e dca7 a1bf 0e8b 323f
000002f0: ff95 2ebf 71ae 9b3d 06c0 7ebe 246a 38be
00000300: 16de d53e 53d1 d0be 6fa5 3fbe 436e 19be
00000310: 260a 9cbe d2a0 5dbf 98d6 70bc 48c7 4bbe
00000320: bfa6 2bbf b6b3 a63d 759b 08bf 9ba4 dfbe
00000330: af7e ad3d 4788 ed3e 36d3 873e c290 233f
00000340: 5e5c 8f3e 44e3 263e fb33 593e 461b fcbe
00000350: 7ad0 0f3e 0eb1 1cbf 5928 db3d 5ac0 c5be
00000360: b08e e03d 1b20 cfbe 13c7 0e3c c822 4340
00000370: 0d74 8c3e ecf8 2b3f 0f55 c8bd 0c1f 26bf
00000380: 6b01 a03e 9076 2abd da15 44be cce2 efbe
00000390: fb5a 9e3d 053a aa3d ec0d 0d3f 80b3 f83c
000003a0: 9c73 37bd 8463 cf3d 8a64 fd3e 24db c6be
000003b0: aebb e33e d0cc 29be 950f 57bf 13ea 33be
000003c0: b7c9 143e b102 e5be 77dc b73e b321 643e
000003d0: 5e40 663e 73e7 49bf e5fa 243f 24fa a03d
000003e0: 0dc8 f93e 4d86 0c3f 49da 023e 76ce 093f
000003f0: 816c 31bf 9fbd 3d3e f250 083f 714f b23e

sequential/dense_1/MatMul f4 [100, 32]
-2.3457055 -1.5977407 0.12530021 0.27372873 0.04245669 0.14947864 -0.63392997 -0.66356087
-0.14040804 0.09900115 -0.46579134 -2.433041 0.1326087 -0.084487766 -0.33500767 0.069370724
-1.5944268 -1.0145452 -1.2085407 -0.19010966 0.25889578 0.12165095 -1.4520044 -0.12449503
-1.257801 0.1570135 0.12500201 -2.0866923 0.00855752 -0.8897479 0.086630404 -1.4491874
0.18397039 -0.069593325 -0.93652743 0.06318388 -0.0062889103 -0.044132236 -1.6407275 0.057515506
-0.08621693 0.03501464 -0.2225362 0.018074727 0.19450988 0.078006595 -1.9509091 -1.4722553
-1.7717589 -0.8282121 -0.019482845 -0.9815334 0.000625733 0.073719785 0.14197586 0.094944164
-1.3972386 0.003999446 0.069712676 -2.1735253 -1.5581629 0.12947294 0.023298249 -0.8129739
0.20493014 -0.052280497 -1.2324712 -1.3808281 0.0405289 -1.1621498 -2.731613 0.042327482
-0.21334697 0.07718993 -0.2052154 -0.36426157 0.19234206 -0.9423424 -2.301423 -0.7833977
-1.147455 -2.0158248 0.09500024 -2.6753268 0.10500587 0.02734239 0.20159367 -0.039286003
-0.043645587 0.14561737 0.0774212 -2.203932 -0.02754268 0.14558408 -1.1406361 0.042890724
-0.17971393 -1.4124445 -1.1456169 0.29491067 -0.38978395 -0.8907018 -0.14897473 -1.6105703
-1.2238158 -2.249712 -0.86654466 0.10892304 0.15421836 0.06859481 0.06426704 0.06542692
-1.4227206 0.1891616 -2.0092232 -0.114897065 0.2732292 0.16187951 0.20755222 -1.220569
-0.21348192 -0.8092392 0.21222158 -0.8273219 0.12306978 -1.9851743 0.21253565 -2.0858345
-0.63020706 -0.120781146 0.21495259 -0.6050017 -1.0718035 -0.7426166 0.26565242 -0.7000715
-1.7312405 -0.6384119 -1.7701082 -0.731277 -2.2836616 0.05884597 0.23961328 -0.016737392
-0.112220325 0.20999774 -0.24616285 -0.6728175 -2.007867 -0.5759543 0.25509754 -0.57429856
0.107053265 -0.9365378 -1.0272449 0.2682631 -0.75668913 -1.1929646 -1.9050168 0.055123705
-0.9475164 -0.121593535 0.17157806 0.12158816 -1.5383977 -0.4116128 0.24678016 0.020694582
0.067946695 -1.6519481 -1.8324476 -1.3712468 -0.086368226 0.11786668 0.15608478 0.101265274
-3.7329068 -0.100755155 -0.02045684 0.0872957 -0.014049055 0.19536884 0.20807374 -2.346564
-1.64524 -0.7494575 -0.4371966 -0.05725142 -3.4543867 0.03230065 -1.5645107 -1.1676488
-1.029559 -0.013734583 0.2214097 -0.63713413 -2.4943714 -0.9737548 0.25611678 -1.1667054
0.15911208 -0.055900414 -1.6801059 -0.77807 -1.5927281 -0.5025753 0.12541549 0.15751098
-1.6715219 -0.85072875 0.15057042 0.1954614 -0.6761313 0.19717987 0.17198578 -0.8805117
-2.4412227 -2.868744 0.14754224 -0.5211522 -1.3709403 -0.8741931 -0.38860238 -1.2139508
-0.84160244 -0.103371255 0.22324689 -1.1070945 -2.3779879 -0.120894834 0.21291797 -2.2359548
0.12246713 0.18883164 -1.591727 -1.4135925 -0.716372 -1.136337 0.06732876 0.19944859
-1.2523015 -1.013399 0.11632021 0.15629804 0.124772735 0.19554235 0.09542555 -0.65193766
-3.1522586 -1.5044993 0.20721684 -1.1939756 -0.027368255 -1.5011957 -0.16293222 -1.8481299
00000000: 0a20 16c0 c482 ccbf b34e 003e 2c26 8c3e
00000010: 11e7 2d3d ee10 193e 3c49 22bf 20df 29bf
00000020: 20c7 0fbe 1dc1 ca3d 347c eebe f2b6 1bc0
00000030: 93ca 073e ec07 adbd 2086 abbe 3d12 8e3d
00000040: 2d16 ccbf 9edc 81bf 76b1 9abf 1bac 42be
00000050: fd8d 843e 2224 f93d 48db b9bf 40f7 febd
00000060: a0ff a0bf 26c8 203e 8700 003e 5e8c 05c0
00000070: d734 0c3c 85c6 63bf 486b b13d f97e b9bf
00000080: bc62 3c3e f286 8ebd 43c0 6fbf 8d66 813d
00000090: 3413 cebb 01c4 34bd 5c03 d2bf 6195 6b3d
000000a0: 8092 b0bd 836b 0f3d 88e0 63be 7311 943c
000000b0: 992d 473e ecc1 9f3d 64b7 f9bf dd72 bcbf
000000c0: ffc8 e2bf b505 54bf 7d9a 9fbc c645 7bbf
000000d0: 3b08 243a 66fa 963d 1f62 113e 1672 c23d
000000e0: b7d8 b2bf c90d 833b 85c5 8e3d 0a1b 0bc0
000000f0: e271 c7bf 8e94 043e f8db be3c 0f1f 50bf
00000100: 35d9 513e 1324 56bd 9ec1 9dbf fabe b0bf
00000110: a201 263d 53c1 94bf bfd2 2ec0 955f 2d3d
00000120: a177 5abe c115 9e3d fc23 52be 7e80 babe
00000130: 51f5 443e 5a3d 71bf 844a 13c0 c08c 48bf
00000140: cedf 92bf 4603 01c0 7c8f c23d 8e38 2bc0
00000150: 510d d73d 26fd df3c 926e 4e3e 5cea 20bd
00000160: b7c5 32bd b81c 153e 028f 9e3d 390d 0dc0
00000170: 30a1 e1bc fe13 153e 5d00 92bf 2fae 2f3d
00000180: ee06 38be fbca b4bf 93a3 92bf 88fe 963e
00000190: c391 c7be 0805 64bf d58c 18be 2b27 cebf
000001a0: ffa5 9cbf 48fb 0fc0 dfd5 5dbf 0b13 df3d
000001b0: 6beb 1d3e 707b 8c3d 709e 833d 8dfe 853d
000001c0: b51b b6bf 94b3 413e 1d97 00c0 274f ebbd
000001d0: b3e4 8b3e bec3 253e 9288 543e 9b3b 9cbf
000001e0: 019b 5abe 4d2a 4fbf 9d50 593e 5ecb 53bf
000001f0: 020c fc3d 311a febf f2a2 593e 507e 05c0
00000200: 4055 21bf 1b5c f7bd 881c 5c3e 64e1 1abf
00000210: db30 89bf 1f1c 3ebf 9803 883e e337 33bf
00000220: 4a99 ddbf f66e 23bf e892 e2bf f834 3bbf
00000230: 8327 12c0 7908 713d 2f5d 753e db1c 89bc
00000240: c5d3 e5bd a609 573e 1d12 7cbe c53d 2cbf
00000250: e580 00c0 be71 13bf 259c 823e 3b05 13bf
00000260: be3e db3d f1c0 6fbf c37c 83bf c859 893e
00000270: 61b6 41bf 10b3 98bf 97d7 f3bf 65c9 613d
00000280: 6f90 72bf 0806 f9bd 29b2 2f3e 3703 f93d
00000290: 37ea c4bf eabe d2be f0b3 7c3e af87 a93c
000002a0: a327 8b3d 0973 d3bf a58d eabf 0485 afbf
000002b0: d3e1 b0bd 1664 f13d b0d4 1f3e 2b64 cf3d
000002c0: f2e7 6ec0 b858 cebd 1a95 a7bc 17c8 b23d
000002d0: 022e 66bc c50e 483e 4811 553e 1b2e 16c0
000002e0: 3997 d2bf 72dc 3fbf 3cd8 dfbe 7780 6abd
000002f0: ac14 5dc0 b04d 043d e341 c8bf 8475 95bf
00000300: 97c8 83bf 0407 61bc 39b9 623e 391b 23bf
00000310: c8a3 1fc0 ff47 79bf bd21 833e 9a56 95bf
00000320: 47ee 223e d5f7 64bd b60d d7bf 982f 47bf
00000330: 84de cbbf c6a8 00bf eb6c 003e 8f4a 213e
00000340: 6ef4 d5bf 5cc9 59bf 222f 1a3e 0927 483e
00000350: f116 2dbf 85e9 493e 0a1d 303e 3769 61bf
00000360: fe3c 1cc0 8099 37c0 5015 173e 3b6a 05bf
00000370: f97a afbf 1ecb 5fbf e4f6 c6be bd62 9bbf
00000380: 4273 57bf 4fb4 d3bd d59a 643e 46b5 8dbf
00000390: f430 18c0 b697 f7bd 2b07 5a3e e219 0fc0
000003a0: 0cd0 fa3d 155d 413e b6bd cbbf 99f0 b4bf
000003b0: 2864 37bf 7e73 91bf a9e3 893d 403c 4c3e
000003c0: 6a4b a0bf 0fb7 81bf 4a39 ee3d 980c 203e
000003d0: d988 ff3d 413c 483e 796e c33d 63e5 26bf
000003e0: 9bbe 49c0 6f93 c0bf a730 543e 31d4 98bf
000003f0: 6433 e0bc 2e27 c0bf b4d7 26be 858f ecbf

sequential/lstm/Read_2/ReadVariableOp1 f4 [256]
0.02658979 -0.05733693 -0.18112327 -0.21223162 0.06408473 -0.046048567 -0.08477609 0.107171364
-0.0008560627 0.06395939 0.17452656 0.28442767 0.23597436 0.077569455 0.07152508 0.06654317
0.051399913 -0.20650543 0.036792018 0.11264599 0.1614514 0.056972325 -0.12582889 -0.10127877
0.13590497 -0.1628499 0.03819095 0.0625122 0.016855275 0.065504275 -0.011569813 -0.094818525
0.25207877 -0.06319472 -0.20339407 0.070568934 0.04994036 0.015467339 0.17771778 -0.025617097
0.2122006 0.11526037 0.17830434 0.05416844 0.17427637 -0.109422974 0.08027112 0.07161938
0.15871675 0.010650665 -0.105515294 0.037307817 -0.11753432 0.04175558 0.2926322 0.13845775
0.15084313 -0.24062967 0.0055030244 0.08368867 0.18695028 0.09474515 0.2158496 -0.017714152
1.0653464 1.0859483 1.1083938 1.1800535 0.9413726 1.0440079 1.2503719 0.88141143
0.82285666 1.0413593 0.8886733 1.0956018 0.9336355 1.0197918 1.0814936 0.97618186
1.042713 1.01126 1.0505904 1.1657518 0.8179259 1.0122421 1.0678645 1.078917
0.8042661 1.1335021 0.98461586 0.87052476 1.0752436 0.9640019 0.997156 1.048548
1.0679929 1.1748441 1.047554 1.0588813 1.1331254 0.9692478 1.0697031 0.76755834
1.141576 1.0031654 1.1794991 1.0298957 1.1149071 1.0003682 0.9480164 0.94514143
1.0051476 0.874476 1.0146648 1.0696166 1.104473 0.9413916 1.0868987 1.1599542
0.9785491 1.1620772 1.0440067 1.0323865 1.0869701 1.0807487 1.1049501 1.1279093
0.06541138 -0.097871095 0.05339273 -0.088933446 0.064549714 0.043924123 0.09229889 0.07301393
-0.07932178 -0.024978362 0.10560795 -0.1287183 -0.0049690455 -0.049085505 0.08277172 0.095244974
-0.02929725 0.15676802 0.10539079 -0.3830323 -0.10078693 0.053691562 -0.021505855 -0.056866787
0.0077681975 -0.014948004 -0.09222442 0.28393942 0.10010919 0.16906893 0.09406352 -0.26866475
0.015783338 -0.18187983 -0.1436201 0.10000947 0.0767281 0.0953815 0.008984265 0.22521387
0.08310391 -0.08694265 -0.03754847 -0.061817564 0.08371133 -0.13888484 0.039606854 0.110197335
0.1321492 -0.06289995 0.01743893 0.091808654 0.113128446 -0.06113503 0.14490095 -0.017049141
0.2891167 -0.007125568 0.010429784 0.16644154 -0.09591711 -0.004215062 0.24821289 0.12573095
0.16837978 0.041784503 -0.11038494 0.08931676 0.17202692 -0.05418196 0.09207951 0.17214969
0.17700002 0.107864864 0.22300752 0.2200457 0.38323462 0.115333855 0.14110221 0.2397587
0.1909892 0.08718806 0.13475265 0.140054 0.11826039 0.15712817 0.075557 -0.03189873
0.23323004 0.10709701 0.095392376 0.13049306 0.07134413 0.1651079 0.18628635 0.056991223
0.23879257 0.14220598 0.103073634 0.059705187 0.16768894 -0.018756753 0.16793801 0.09477389
0.24797194 0.09600352 0.007725207 0.3065306 0.004286557 -0.005836913 0.2283613 0.021063678
0.26205793 -0.007827402 0.074332744 0.28003 0.06963646 0.111532085 0.12385603 0.23864603
-0.09315379 0.13081053 0.11033451 0.03126949 -0.058827892 0.007871574 -0.052318584 0.18000488
00000000: d5d2 d93c 21da 6abd 6178 39be 3f53 59be
00000010: db3e 833d 6c9d 3cbd 169f adbd a97c db3d
00000020: 6569 60ba 24fd 823d 17b7 323e 81a0 913e
00000030: 43a3 713e bcdc 9e3d be7b 923d c947 883d
00000040: b788 523d 2976 53be 3ab3 163d f1b2 e63d
00000050: 8453 253e d05b 693d 4ad9 00be 3e6b cfbd
00000060: ac2a 0b3e 20c2 26be 1d6e 1c3d 6506 803d
00000070: 1314 8a3c 1b27 863d 508f 3dbc 3730 c2bd
00000080: 7810 813e 3c6c 81bd 8946 50be 7286 903d
00000090: 438e 4c3d b96a 7d3c a6fb 353e f2da d1bc
000000a0: 1d4b 593e a10d ec3d 6a95 363e badf 5d3d
000000b0: 8175 323e 2719 e0bd 2f65 a43d 2ead 923d
000000c0: a586 223e 2080 2e3c 6718 d8bd 15d0 183d
000000d0: d5b5 f0bd e607 2b3d e3d3 953e dec7 0d3e
000000e0: 9f76 1a3e a067 76be b752 b43b f764 ab3d
000000f0: e56f 3f3e bf09 c23d ad07 5d3e 451d 91bc
00000100: 455d 883f 5b00 8b3f d9df 8d3f fe0b 973f
00000110: cbfd 703f 0da2 853f 300c a03f 2ea4 613f
00000120: bca6 523f 434b 853f 1880 633f ae3c 8c3f
00000130: bc02 6f3f 8a88 823f 626e 8a3f 0ee7 793f
00000140: 9f77 853f f870 813f bf79 863f 5b37 953f
00000150: 9763 513f 2691 813f c9af 883f f419 8a3f
00000160: 62e4 4d3f 9916 913f c90f 7c3f b6da 5e3f
00000170: 95a1 893f d4c8 763f 9e45 7f3f d236 863f
00000180: feb3 883f 4b61 963f 4016 863f 6c89 873f
00000190: 410a 913f a020 783f 08ec 883f b47e 443f
000001a0: 2a1f 923f b967 803f d4f9 963f 9fd3 833f
000001b0: 47b5 8e3f 110c 803f 34b1 723f caf4 713f
000001c0: ada8 803f a9dd 5f3f 89e0 813f 32e9 883f
000001d0: 5f5f 8d3f 0aff 703f 7f1f 8b3f 6179 943f
000001e0: 3282 7a3f f2be 943f 03a2 853f 3e25 843f
000001f0: d621 8b3f f955 8a3f 016f 8d3f 555f 903f
00000200: 67f6 853d a470 c8bd 56b2 5a3d bd22 b6bd
00000210: a432 843d c8e9 333d 3307 bd3d 5488 953d
00000220: 7573 a2bd 6c9f ccbc fb48 d83d bbce 03be
00000230: 60d3 a2bb e20d 49bd 3884 a93d cc0f c33d
00000240: c900 f0bc cc87 203e 20d7 d73d cf1c c4be
00000250: 6169 cebd afeb 5b3d 0c2d b0bc 26ed 68bd
00000260: 5d8c fe3b 79e8 74bc 28e0 bcbd 8260 913e
00000270: 0c06 cd3d 6820 2d3e 60a4 c03d 6d8e 89be
00000280: 0f4c 813c b53e 3abe 2611 13be c4d1 cc3d
00000290: 9f23 9d3d 6057 c33d bd32 133c 779e 663e
000002a0: 6232 aa3d fd0e b2bd 6dcc 19bd 6a34 7dbd
000002b0: d970 ab3d d437 0ebe cc3a 223d 24af e13d
000002c0: 1f52 073e b0d1 80bd 16dc 8e3c 2d06 bc3d
000002d0: e3af e73d ba68 7abd ea60 143e a4aa 8bbc
000002e0: 1b07 943e 997d e9bb afe1 2a3c a76f 2a3e
000002f0: 3170 c4bd 811e 8abb 852b 7e3e 9dbf 003e
00000300: c06b 2c3e 3a26 2b3d 8011 e2bd b5eb b63d
00000310: d327 303e e7ed 5dbd 2f94 bc3d 0248 303e
00000320: 7e3f 353e 41e8 dc3d 155c 643e a953 613e
00000330: 5437 c43e 2834 ec3d 197d 103e 4e83 753e
00000340: ac92 433e a78f b23d 99fc 093e 516a 0f3e
00000350: 8132 f23d 35e6 203e a1bd 9a3d 3ea8 02bd
00000360: dbd3 6e3e ad55 db3d 145d c33d f99f 053e
00000370: df1c 923d 0c12 293e d9c1 3e3e a16f 693d
00000380: 0a86 743e 729e 113e 4518 d33d 6d8d 743d
00000390: a6b6 2b3e c3a7 99bc f1f7 2b3e d018 c23d
000003a0: 5bec 7d3e 7e9d c43d bc23 fd3b 94f1 9c3e
000003b0: 3f76 8c3b 9343 bfbb 8bd7 693e bc8d ac3c
000003c0: 752c 863e 813e 00bc c43b 983d 1860 8f3e
000003d0: 8f9d 8e3d ef6a e43d 3ba8 fd3d a05f 743e
000003e0: 6ac7 bebd 32f3 053e 0ff7 e13d 7014 003d
000003f0: 84f5 70bd c6f7 003c 034c 56bd 3353 383e

while/MatMul_11 f4 [256, 64]
-0.1884778 0.48442522 0.10003378 -0.4301006 -0.24588576 0.28286406 -0.21249953 -0.38113582
0.24939305 -0.08206611 0.45418462 -0.16690859 -0.61539805 0.29583168 -0.052871466 0.07748271
0.23714194 0.035840087 0.52526546 -0.7783843 -0.16845484 0.09229181 -0.880505 0.3852724
0.5857101 -0.001939911 0.11822361 0.35841817 0.02526902 -0.11274686 0.3104018 0.06893443
0.26858693 0.21259546 0.22023056 0.05704026 0.05390449 -0.081412084 0.07045753 0.30251944
0.5764557 0.20737126 -0.34742367 0.0948573 0.15241799 0.036418375 -0.21278311 0.80428123
-0.3181781 -0.29520446 -0.2068993 -0.20759319 0.16700312 -0.4428446 -0.16885388 -0.057391115
0.859805 -0.277006 0.38793594 0.13708124 0.3770401 0.12164264 0.5841034 0.28509796
0.06552201 0.055172384 -0.08355502 -0.4377622 0.06809467 -0.72388697 0.28311265 0.29441845
0.86806864 -0.09275977 0.22076891 0.7904626 0.009036672 0.36456633 -0.30676064 -0.20380795
0.34641147 0.17048204 -0.12507547 -0.11855676 -0.08488791 -0.49998426 -0.1761539 0.4255605
0.4993052 -0.52064127 0.06665698 0.31256145 0.17670543 -0.15785073 0.4977232 0.17923635
0.19873103 0.64891213 -0.084090546 -0.013564499 0.264273 0.0287701 0.15370259 -0.34413236
0.002299093 -0.07353539 0.60322726 0.03172372 -0.53247 -0.070353046 -1.0436472 0.057561617
-0.72192043 -0.00905379 -0.46047568 0.12712589 -0.21132626 -0.5504528 -0.3280132 -0.16468054
-0.24405797 -0.16678996 -0.39970165 -0.0035357263 0.33957434 -0.13285068 -0.008067054 0.05969221
-0.3254286 -0.2856594 0.13001181 -0.1098523 -0.3685477 0.1697909 0.01695727 -0.13254115
0.58669335 -0.10666911 -0.16953997 0.5866515 -0.9603455 0.0054901433 0.19470571 -0.06910789
-0.46248847 0.035259735 -0.14913382 -0.520486 0.78102696 0.031740647 0.009467651 -0.059450623
-0.31065962 0.36567417 0.3025526 -0.0744056 -0.2694769 -0.16135626 -0.10566914 -0.19228663
-0.15091884 -0.13153751 -0.038208514 -0.17685966 -0.32846367 0.044115383 -0.18147638 -0.21330325
-0.08504875 -0.065678254 -0.078496486 -0.105549395 0.25263777 0.3411522 -0.720709 -0.21152683
-0.6806201 -0.5049931 -0.41072008 -0.7053609 -0.46384326 -0.05640002 0.08006029 -0.11694913
0.5305678 0.009798782 0.24992622 -0.11843953 -0.4662186 -0.19037941 0.01744473 0.27967227
-0.547405 -0.039668337 0.092557065 0.20974106 0.46381167 0.15077013 0.22660168 -0.17592713
0.033216096 0.12458481 -0.09918428 -0.20778814 -0.50205415 -0.04619815 -0.5124401 -0.11162666
-0.7371188 0.47935995 -0.2721969 0.145006 -0.033196747 -0.17988199 -0.51494586 0.81658316
-0.15733367 0.08119555 0.14694066 0.1199425 0.3595954 0.21858378 0.107906595 -0.10311308
-0.08196436 0.20913808 0.061024003 0.40938 0.16406311 -0.21501222 0.20748805 -0.39454
-0.6240066 0.03140111 -0.6109341 -0.49297228 -0.110626616 0.2889349 -0.25662002 -0.01320634
-0.23774272 0.60029745 0.16244312 0.0047031827 -0.21443214 -0.99463594 -0.32834896 0.57943517
-0.20200038 -0.28566483 -0.08297541 -0.1290548 -0.07475494 -0.30325672 -0.05817191 0.45238
00000000: 5300 41be 9506 f83e 83de cc3d 2536 dcbe
00000010: 7ac9 7bbe 8fd3 903e 7a99 59be 3c24 c3be
00000020: e460 7f3e 4712 a8bd e38a e83e 16ea 2abe
00000030: ba8a 1dbf 4077 973e c08f 58bd 41af 9e3d
00000040: 56d5 723e 0ecd 123d cc77 063f 3244 47bf
00000050: 6d7f 2cbe 7d03 bd3d c768 61bf 6d42 c53e
00000060: 19f1 153f 9d44 feba 381f f23d 9682 b73e
00000070: fa00 cf3c d3e7 e6bd fcec 9e3e 7f2d 8d3d
00000080: 3a84 893e a0b2 593e 1f84 613e 0ca3 693d
00000090: f4ca 5c3d 61bb a6bd 0a4c 903d d4e3 9a3e
000000a0: 9a92 133f 2259 543e 84e1 b1be 8b44 c23d
000000b0: 7613 1c3e 6f2b 153d d1e3 59be 60e5 4d3f
000000c0: 3de8 a2be 0a25 97be 69dd 53be 4f93 54be
000000d0: de02 2b3e 87bc e2be 08e8 2cbe f212 6bbd
000000e0: 2e1c 5c3f bbd3 8dbe 8a9f c63e 065f 0c3e
000000f0: 660b c13e c71f f93d cd87 153f 5cf8 913e
00000100: 6730 863d 70fc 613d e51e abbd 5e22 e0be
00000110: 3875 8b3d a850 39bf 24f4 903e 04be 963e
00000120: bf39 5e3f d6f8 bdbd 3f11 623e c25b 4a3f
00000130: 8d0e 143c 70a8 ba3e bb0f 9dbe 08b3 50be
00000140: d85c b13e d892 2e3e c913 00be e3cd f2bd
00000150: b6d9 adbd f0fd ffbe b061 34be 11e3 d93e
00000160: eea4 ff3e bf48 05bf 7483 883d 0e08 a03e
00000170: 45f2 343e 9fa3 21be 93d5 fe3e bc89 373e
00000180: 2680 4b3e 1b1f 263f aa37 acbd a23d 5ebc
00000190: ca4e 873e 46af eb3c 3664 1d3e 1e32 b0be
000001a0: 61ac 163b b999 96bd 1a6d 1a3f bbf0 013d
000001b0: f44f 08bf 4215 90bd 3b96 85bf bbc5 6b3d
000001c0: c7cf 38bf 5956 14bc 78c3 ebbe 4a2d 023e
000001d0: e965 58be 7aea 0cbf 59f1 a7be 04a2 28be
000001e0: 55ea 79be fdca 2abe b2a5 ccbe a5b7 67bb
000001f0: b0dc ad3e 020a 08be ad2b 04bc d27f 743d
00000200: 949e a6be f341 92be d121 053e 3efa e0bd
00000210: 49b2 bcbe aadd 2d3e f9e9 8a3c deb8 07be
00000220: 8931 163f 5675 dabd e39b 2dbe cb2e 163f
00000230: 34d9 75bf a9e6 b33b ef60 473e 7088 8dbd
00000240: 4acb ecbe 836c 103d 89b6 18be 923e 05bf
00000250: 62f1 473f 7b02 023d 351e 1b3c 7f82 73bd
00000260: c70e 9fbe a539 bb3e 2de8 9a3e f761 98bd
00000270: e0f8 89be 933a 25be 1069 d8bd c9e6 44be
00000280: 788a 1abe c5b1 06be 8880 1cbd b31a 35be
00000290: 642c a8be 55b2 343d f2d4 39be 2b6c 5abe
000002a0: 0a2e aebd 5282 86bd c4c2 a0bd 482a d8bd
000002b0: bd59 813e 80ab ae3e 6380 38bf 7d9a 58be
000002c0: 1e3d 2ebf 3a47 01bf e749 d2be 8892 34bf
000002d0: dd7c edbe b503 67bd a6f6 a33d 0783 efbd
000002e0: 4bd3 073f 128b 203c a9ec 7f3e 6d90 f2bd
000002f0: 34b4 eebe d2f2 42be 40e8 8e3c 3431 8f3e
00000300: bc22 0cbf 447b 22bd 8f8e bd3d 5cc6 563e
00000310: b978 ed3e 7c63 1a3e 450a 683e 3e26 34be
00000320: 9a0d 083d 5226 ff3d 2121 cbbd 6ac6 54be
00000330: 9f86 00bf 453a 3dbd 462f 03bf 859c e4bd
00000340: d1b3 3cbf ab6e f53e 645d 8bbe 747c 143e
00000350: 50f9 07bd fc32 38be 7ed3 03bf 980b 513f
00000360: 141c 21be da49 a63d 9d77 163e 6aa4 f53d
00000370: e31c b83e 6dd4 5f3e 22fe dc3d f32c d3bd
00000380: eedc a7bd 4b28 563e 4ef4 793d 419a d13e
00000390: 2900 283e 2a2c 5cbe bf77 543e 2601 cabe
000003a0: e6be 1fbf 739e 003d 2d66 1cbf dd66 fcbe
000003b0: 3590 e2bd 46ef 933e b363 83be 685f 58bc
000003c0: d472 73be 18ad 193f 7d57 263e 281d 9a3b
000003d0: 1994 5bbe 76a0 7ebf 5b1d a8be dd55 143f
000003e0: 30d9 4ebe a942 92be 03ef a9bd f126 04be
000003f0: 1e19 99bd 7744 9bbe ab45 6ebd 5a9e e73e

while/MatMul f4 [256, 64]
0.02915312 -0.055401515 0.025396328 0.11899512 -0.2949331 0.09941029 0.9651078 0.61690235
-0.030444164 -0.08045993 0.11369472 0.012109841 0.13280196 -0.3790617 0.0024873354 0.15308179
-0.004394293 -0.07893342 0.049053065 0.2807432 0.21566373 -0.13291875 -0.3590542 0.11330145
0.018424258 0.29300666 -0.10307824 -0.009949921 1.7038037 0.0038453387 -0.121288724 0.110583596
0.047339275 0.11723563 -0.06551685 -0.014367087 -0.09593508 0.11146131 0.002829728 -0.039291754
-0.09399444 -0.13748111 0.031358346 -0.06301393 -0.31102034 -0.09431869 0.075047545 -0.116859406
1.167649 0.19962403 0.0729355 0.22302255 0.0695032 -0.11626169 0.08526265 -0.077526174
0.0011363602 -0.20579214 -0.029279234 -0.03705935 -0.02980771 0.26330957 -0.04584327 0.09425079
0.08753391 0.0073830336 -0.0194906 0.006558252 -0.10851127 0.09662982 0.9848105 1.3500342
0.51398426 -0.12918587 0.07648413 -0.07912039 0.24023436 -0.08630958 0.019717326 0.1688318
-0.064949065 0.12960334 -2.5677327e-06 0.072485685 0.22107211 0.031082325 0.1529919 0.030111495
-0.035856053 0.20240818 -0.16942632 0.070840366 0.85863626 -0.05643251 0.095219724 -0.01656519
-0.09588595 0.044468984 0.12370769 -0.03166489 0.17194492 0.10442711 -0.035926767 -0.054075815
0.0053255707 0.058808025 -0.087791294 -0.120318994 -0.007948182 0.1104155 0.116111785 0.012429628
0.06397168 -0.09069293 -0.07124484 0.06255689 -0.0074552344 0.039763447 -0.12393141 0.01569226
-0.09564165 -0.15771842 -0.09905662 0.07382433 -0.050898954 -0.16612238 -0.09569268 -0.056865823
-0.088112414 -0.116481 0.10214341 -0.023980238 -0.005186552 -0.06791075 0.31298834 -0.095200986
-0.4908667 -0.0034724863 0.11236169 0.115782246 -0.041862 0.13347358 -0.23225592 -0.06204418
0.02996935 0.08520787 0.077895865 0.44567412 -0.07743371 -0.025895642 0.5188585 0.0136978775
0.056131452 -0.48687103 -0.118392184 0.0562825 0.6177689 0.09123093 0.048801593 -0.01045287
0.09432808 -0.078910425 0.024215166 -0.022703364 -0.12595525 -0.071778886 0.14222883 -0.16295022
0.12591925 -0.05947091 0.09411693 -0.06339965 0.54591113 -0.03675517 -0.06957052 0.032573994
0.31828007 -0.021499855 0.12104644 -0.10475841 -0.06420398 0.12401473 0.50835925 0.11021741
0.03232869 -0.10414617 0.12630731 -0.12668304 -0.021215923 0.2756806 0.056035385 -0.091591105
-0.096424915 -0.016916351 -0.10001017 -0.06802907 -0.21309078 -0.058076132 0.3785907 0.15549791
0.11564367 -0.13310082 -0.11936302 -0.06472613 0.025824804 -0.04520411 -0.58217806 -0.11218491
-0.046665646 -0.06589215 -0.0022972287 0.23904449 -0.0025477766 -0.06844129 0.9926658 -0.1216889
-0.1066775 0.07537465 0.27523938 0.0325842 0.26812825 0.10412432 -0.054004077 -0.008435685
0.034874342 -0.051789384 0.012965479 0.11534386 0.18189953 0.17346556 0.109466396 0.36393768
-0.03777699 -0.01574497 -0.1179888 0.045762707 0.028275242 -0.11923765 0.04614464 -0.01962896
0.33288872 0.31902203 0.088070914 0.1348225 0.13164675 0.085607484 -0.037165944 -0.07382048
-0.11402504 -0.32033882 -0.07060031 0.041208044 -0.13201275 0.016787473 -0.12727137 -0.042423487
00000000: 86d2 ee3c b3ec 62bd f60b d03c b7b3 f33d
00000010: 7901 97be 9f97 cb3d 4e11 773f 50ed 1d3f
00000020: 0a66 f9bc 2dc8 a4bd c7d8 e83d 5b68 463c
00000030: 3dfd 073e 6014 c2be 9002 233b 79c1 1c3e
00000040: 00fe 8fbb d8a7 a1bd deeb 483d 93bd 8f3e
00000050: f4d6 5c3e da1b 08be f4d5 b7be 970a e83d
00000060: 78ee 963c f804 963e af1a d3bd fe04 23bc
00000070: 3d16 da3f 1402 7c3b 3966 f8bd a779 e23d
00000080: d4e6 413d 3c19 f03d b32d 86bd ee63 6bbc
00000090: 9c79 c4bd d445 e43d f572 393b 64f0 20bd
000000a0: 2880 c0bd d9c7 0cbe 9c71 003d 730d 81bd
000000b0: 0f3e 9fbe 282a c1bd 87b2 993d fc53 efbd
000000c0: 8675 953f 3e6a 4c3e 355f 953d 0660 643e
000000d0: b257 8e3d 9c1a eebd 2f9e ae3d 0bc6 9ebd
000000e0: ecf1 943a 2dbb 52be 01db efbc 8ccb 17bd
000000f0: 4c2f f4bc 83d0 863e 27c6 3bbd 8f06 c13d
00000100: fb44 b33d 60ed f13b c0aa 9fbc 9be6 d63b
00000110: 283b debd dbe5 c53d 8a1c 7c3f eccd ac3f
00000120: 7994 033f 4d49 04be b6a3 9c3d df09 a2bd
00000130: ffff 753e 14c3 b0bd 3b86 a13c 3ee2 2c3e
00000140: 0404 85bd bdb6 043e 5051 2cb6 6073 943d
00000150: ba60 623e 5ca0 fe3c e9a9 1c3e 62ac f63c
00000160: ccdd 12bd 1744 4f3e 187e 2dbe c114 913d
00000170: 96cf 5b3f c725 67bd 8f02 c33d b9b3 87bc
00000180: da5f c4bd 1c25 363d 755a fd3d 0bb3 01bd
00000190: 5412 303e e1dd d53d f227 13bd 9a7e 5dbd
000001a0: 2082 ae3b afe0 703d eccb b3bd ce69 f6bd
000001b0: 1739 02bc 8621 e23d 04cc ed3d a3a5 4b3c
000001c0: 9603 833d 37bd b9bd d1e8 91bd d41d 803d
000001d0: 0a4b f4bb ffde 223d c0cf fdbd 0e8d 803c
000001e0: c5df c3bd f080 21be 32de cabd 3631 973d
000001f0: 6c7b 50bd fc1b 2abe 86fa c3bd 23ec 68bd
00000200: 4874 b4bd 978d eebd 9030 d13d 3472 c4bc
00000210: f4f3 a9bb cb14 8bbd 0240 a03e bcf8 c2bd
00000220: e152 fbbe a792 63bb e31d e63d 3e1f ed3d
00000230: 7d77 2bbd 4cad 083e 7fd4 6dbe 0a22 7ebd
00000240: 4882 f53c 7781 ae3d de87 9f3d 662f e43e
00000250: 9195 9ebd 1923 d4bc e9d3 043f 106d 603c
00000260: 18ea 653d 2947 f9be 9a77 f2bd 7b88 663d
00000270: 1a26 1e3f 48d7 ba3d 2ee4 473d 8442 2bbc
00000280: 152f c13d ca9b a1bd e25e c63c 68fc b9bc
00000290: 6afa 00be cf00 93bd 6fa4 113e 6cdc 26be
000002a0: faf0 003e c597 73bd 61c0 c03d add7 81bd
000002b0: d5c0 0b3f 978c 16bd fd7a 8ebd 4f6c 053d
000002c0: 9bf5 a23e 7720 b0bc 32e7 f73d 948b d6bd
000002d0: 607d 83bd 6ffb fd3d d523 023f aab9 e13d
000002e0: 176b 043d 964a d5bd b456 013e 33b9 01be
000002f0: 04cd adbc 0226 8d3e 5c85 653d 1e94 bbbd
00000300: 6d7a c5bd 2994 8abc 22d2 ccbd d352 8bbd
00000310: 7834 5abe 3de1 6dbd a4d6 c13e d83a 1f3e
00000320: 97d6 ec3d 954b 08be 9974 f4bd 228f 84bd
00000330: 8a8e d33c f227 39bd 9f09 15bf 34c1 e5bd
00000340: 7a24 3fbd 77f2 86bd 1a8d 16bb 14c8 743e
00000350: 99f8 26bb f22a 8cbd 591f 7e3f 0838 f9bd
00000360: bc79 dabd 065e 9a3d 2dec 8c3e 0377 053d
00000370: 1b48 893e 223f d53d 6133 5dbd d435 0abc
00000380: 66d8 0e3d 1b21 54bd 296d 543c 6739 ec3d
00000390: df43 3a3e f5a0 313e eb2f e03d 0a56 ba3e
000003a0: 0cbc 1abd 98fb 80bc 1da4 f1bd ad71 3b3d
000003b0: 7ba1 e73c de32 f4bd 2902 3d3d eacc a0bc
000003c0: 6470 aa3e db56 a33e 865e b43d e90e 0a3e
000003d0: 68ce 063e fa52 af3d 513b 18bd 312f 97bd
000003e0: f685 e9bd 7303 a4be e596 90bd c4c9 283d
000003f0: 5a2e 07be e285 893c 6d53 02be 40c4 2dbd
