reference/다 쓴거/saved_models_04/20250725_183451/gesture_classifier.tflite (tflite, 220148 bytes, 10 tensors)

sequential/conv1d/BiasAdd/ReadVariableOp f4 [64]
00000000: 0000 0000 c736 d13c 9df0 90bc 0f26 07bc
00000010: abad c4bb 0000 0000 52d7 92ba 520f c2bb
00000020: a6d7 b0bb 70fa bc3a 0883 3cbc e5df 19bc
00000030: d35d 7ebb 1366 f13c 54dc 9abb 0000 0000
00000040: 8541 f7bb 9285 22bc 90aa 7dbc 6064 163b
00000050: 77ff 00bc 4017 2ebb 0745 d7bb 0000 0000
00000060: b5da 26bc b332 db3c f505 0dbc 3d9c cebb
00000070: e5f9 ba3c 85c5 bcbb 5d9f e6bb 7ef3 a7bb
00000080: 0000 0000 0000 0000 d27d b93c 0000 0000
00000090: 86cb a83c 0bd6 333b 711b ba3c 11e8 b4bb
000000a0: 7b45 fa3b dfa2 c4bb 82c3 cc3c 9400 2dbc
000000b0: 98e6 90bb cf1f 1abc e2e1 5937 0a61 b6bc
000000c0: 8887 fabc b7cf 07bc b809 c4bb d17a e0ba
000000d0: d357 23ba dbb9 a9bb 25b7 893c 5da3 afbb
000000e0: 34ad 99bb 5932 8abb fee1 babb 2473 79bb
000000f0: d785 503c f24e 9cbc 79a1 c4bb 0000 0000
0.0 0.025538815 -0.017692858 -0.00824882 -0.006002148 0.0 -0.0011203086 -0.0059222365
-0.005396801 0.0014417898 -0.01150585 -0.0093917595 -0.0038813248 0.029467618 -0.004725972 0.0
-0.0075456523 -0.009919541 -0.01548256 0.0022948012 -0.007873408 -0.002656415 -0.006569508 0.0
-0.01018398 0.026757574 -0.008607377 -0.006305246 0.022824237 -0.005760851 -0.0070380406 -0.005125462
0.0 0.0 0.022643004 0.0 0.02060486 0.0027440812 0.022718163 -0.0055208285
0.0076376772 -0.006000861 0.02499557 -0.01055922 -0.00442202 -0.009406998 1.29868e-05 -0.022263069
-0.030582204 -0.008289269 -0.005982604 -0.0017126446 -0.00062310434 -0.0051796264 0.016810963 -0.0053600506
-0.004689837 -0.0042174277 -0.00570321 -0.0038063014 0.012727222 -0.019080613 -0.0060006944 0.0

sequential/conv1d/Conv1D f4 [64, 1, 3, 84]
00000000: fc09 a73d 2789 c8bd 7049 f73c 6371 70bd
00000010: 1ca6 fbbc 00c9 893b 60bb 803d 940e 703d
00000020: 9094 123d 7007 fe3c 729b 9d3d 07f0 65bd
00000030: e44e c53d fbe7 9fbd 801e 60ba 2a39 c2bd
00000040: 6057 e6bc 6e0b 06bd 721e 8ebd c853 d83d
00000050: 6e41 22bd 92b6 993d 3c1b 763d 0028 95ba
00000060: 43db ecbd d0b2 b43d c42a 4bbd d839 3abc
00000070: 1925 b9bd 5c4f ccbd ae68 56bd ccd1 e0bc
00000080: fec1 c93d b4b7 aebd 203d 81bc 3885 57bc
00000090: 431a ccbd 186a 873c c16b e1bd 0057 53bb
000000a0: 28b4 7cbc ac27 a7bd 0caa 9ebd 6a56 873d
000000b0: dc46 2fbd c455 2e3d 507c c9bd 30bb b03d
000000c0: bd12 eabd a443 90bc c815 14bd 60b9 9b3c
000000d0: 9eb7 45bd 8a0c d2bd 4059 a5bd a03f 7e3c
000000e0: 069e 9dbd 0213 c93d 2407 92bc 3a1b 9d3d
000000f0: 647c 97bc 7012 d5bb 3367 90bd 60bd c7bb
00000100: 08f0 1d3d b273 c73d b593 c0bd f094 e03c
00000110: 38de e93c 1cf0 763d e272 c53d 6cd9 133d
00000120: e82f ab3d acda 4f3d 5aab 853d 7a9d 30bd
00000130: 76d7 ad3d 7425 ce3d a451 a33d 268f e73d
00000140: 608e 893d c2b6 1ebd 88d2 2ebc 0a82 80bd
00000150: 7430 a0bc 2847 db3d 0059 1d3d ce23 9e3d
00000160: 80f9 9f3a 548f 48bd 84da 8ebc 02ec 24bd
00000170: 2064 3d3d cc78 d7bd 2ad2 e93d 92d0 96bd
00000180: 5836 c4bd b035 453d c417 483d 424b 8cbd
00000190: 9007 523d d6d9 d93d 4005 d1bb 689c 08bd
000001a0: 8860 3e3d a8bc 343d 08a6 c03d 70af b53c
000001b0: b81e 7fbc 1451 afbd 7a5e a6bd a0ea 393b
000001c0: 8066 173c 4e30 a0bd ac5c d8bd da17 cc3d
000001d0: 38f2 b23d 50a2 b93d 0c93 51bd 40c1 a53c
000001e0: d41c e2bd 7c06 93bd 0630 30bd c091 25bd
000001f0: e8ac 1a3d bbc3 7bbd f6fb d6bd 3af6 c9bd
00000200: d005 9c3c f282 e83d 7ed2 abbd 20ec d83d
00000210: 1c48 e53d 2e27 aabd 8059 f9bc 845a 6f3d
00000220: 9718 bebd c455 98bc ec1d 463d 501f 933b
00000230: 800d bbbd a0a9 64bb e0c9 4cbb c825 38bc
00000240: 9ae8 cabd 18a9 2bbc 487a 303d 10dd f83c
00000250: d03e f43b e74a 96bd fadc a13d 6886 e33c
00000260: 1645 dabd a628 983d 0014 ee38 08e9 cf3d
00000270: 858b c1bd 6060 e43c a81a 89bc 58a5 cebc
00000280: ea7a e63d ff03 70bd d8bb 58bc 10cd 0abc
00000290: 14a2 0ebd bc0a 8f3d 20f2 94bd e077 683d
000002a0: a06c 713d 5628 c03d e897 853d 2191 a1bd
000002b0: c31b c1bd 6c8b d4bd 9400 5fbd 6282 b6bd
000002c0: 583c 05bc e8f1 fb3c 5016 cf3d 8012 c9ba
000002d0: e0a6 e4bb 181a 973c 00d8 0d3b 5414 9e3d
000002e0: 98ee 203d 083f b6bd ea96 5fbd 48bb 1ebc
000002f0: 004e 72bd 986b 0f3d 541e 663d a539 a9bd
00000300: 96bf cf3d 0b6f bdbd cec5 98bd a8cf b43c
00000310: 90be fcbc 5c77 ab3d 8a6e 2cbd 6c3f 453d
00000320: 13ed a7bd c6c3 54bd 60b9 f23c 74cb e3bd
00000330: 4211 5bbd a066 aabc 4c1d a9bd fe40 98bd
00000340: 5856 d63c 1ac8 e4bd e049 69bd 2893 77bc
00000350: 4c8a 6d3d 361a 9fbd bca6 a13d bf55 d2bd
00000360: 90c1 c6bb f0d6 80bc 7774 cbbd 6285 93bd
00000370: 54d8 ecbd b88d f83c e0fe 163c 2c67 993d
00000380: 346d 43bd 52cf 853d c899 a23d c0fa 0abc
00000390: a4cb c1bc 4c53 5d3d b81e 113d 7018 b5bc
000003a0: 52e7 9b3d 7029 c83d 582a 0d3d 0601 8f3d
000003b0: 9546 e3bd b2df b53d 520a 2ebd 8070 383d
000003c0: 8c2b d6bd d608 87bd 22bc 42bd a06b cb3c
000003d0: 984c 1abc b872 a43c 0654 d13d 5037 6dbc
000003e0: 04f7 8dbc 6acd dcbd 57e7 81bd 5568 b9bd
000003f0: a831 35bc ae6b 58bd c646 e43d 9ce6 903d
0.08156201 -0.09791785 0.030186385 -0.058701884 -0.030718856 0.0042048693 0.06285739 0.058607653
0.03578621 0.031009406 0.076956645 -0.05613711 0.09634188 -0.07807919 -0.0008549467 -0.094835594
-0.028117836 -0.032725744 -0.06939401 0.10562855 -0.03961318 0.07505526 0.060084566 -0.0011379719
-0.11565258 0.08823168 -0.04960133 -0.01136633 -0.09040279 -0.09976074 -0.052345924 -0.027443789
0.09851454 -0.08531132 -0.015776217 -0.01315432 -0.099659465 0.016530082 -0.110068806 -0.00322479
-0.015423812 -0.08161864 -0.077472776 0.06608279 -0.042792186 0.04256226 -0.09838164 0.08629453
-0.11429355 -0.017610379 -0.036153585 0.019009292 -0.048270814 -0.10256298 -0.08073664 0.015518099
-0.07696156 0.098180786 -0.01782567 0.07671209 -0.018491931 -0.006502442 -0.07050934 -0.0060955733
0.03855899 0.09738864 -0.09403173 0.027414769 0.028548345 0.06028758 0.09641053 0.03609602
0.08358747 0.05074565 0.06526823 -0.04311893 0.084883615 0.10065737 0.07974556 0.113066
0.06716609 -0.03874851 -0.010670312 -0.06274803 -0.019554354 0.10706931 0.038414955 0.07721673
0.0012205094 -0.048964813 -0.01743818 -0.040264137 0.046238065 -0.10521087 0.11417039 -0.073640004
-0.09580678 0.048146904 0.04885079 -0.06850292 0.051276743 0.10637252 -0.0063787997 -0.033352286
0.046478778 0.04412523 0.09406668 0.022178382 -0.015571289 -0.08560386 -0.08123489 0.0028368607
0.0092407465 -0.078217134 -0.10564551 0.09965487 0.08737606 0.09064162 -0.051165625 0.02023375
-0.11040655 -0.07178971 -0.04301455 -0.0404222 0.037762552 -0.06146596 -0.104972765 -0.09861417
0.01904574 0.11353101 -0.083897576 0.10591912 0.111953944 -0.08308254 -0.030438185 0.05843593
-0.09282034 -0.018595584 0.04836838 0.0044898167 -0.09133434 -0.0034891143 -0.0031248257 -0.0112394765
-0.099076465 -0.010477327 0.043085366 0.030378848 0.007453777 -0.07338505 0.07903476 0.02777405
-0.10657708 0.07429628 0.0001135245 0.10151869 -0.09450439 0.027877986 -0.016736344 -0.025225326
0.11253913 -0.05859756 -0.013228379 -0.008471742 -0.03482254 0.06984469 -0.07272744 0.056754947
0.058941483 0.093826935 0.065231144 -0.07889009 -0.09429123 -0.10378155 -0.05444391 -0.08911587
-0.008132063 0.030754998 0.10111678 -0.0015340596 -0.006977901 0.01844506 0.0021643639 0.07718721
0.03929004 -0.08898741 -0.054587282 -0.009688206 -0.059156418 0.03501472 0.056181267 -0.08262948
0.10143964 -0.092496954 -0.07459603 0.022071674 -0.030852586 0.08372375 -0.042097606 0.048156187
-0.08199515 -0.051944517 0.02962941 -0.1112279 -0.053483255 -0.020800889 -0.08257541 -0.07434271
0.026164219 -0.11170979 -0.05695522 -0.015110768 0.05799322 -0.07768671 0.0789313 -0.10270261
-0.006065555 -0.01572749 -0.09934323 -0.07203175 -0.11564699 0.030341014 0.00921604 0.074903816
-0.047711566 0.06533684 0.07939488 -0.008482635 -0.023656674 0.054034516 0.035429686 -0.02210638
0.0761248 0.097735286 0.03446421 0.06982617 -0.11097447 0.08880557 -0.04249031 0.045029163
-0.10457525 -0.06593482 -0.0475427 0.024831593 -0.009417675 0.020074233 0.10221104 -0.01447852
-0.0173297 -0.10781367 -0.06342953 -0.09053103 -0.011059202 -0.052837066 0.111463115 0.07075235

sequential/lstm/Read_2/ReadVariableOp f4 [256]
00000000: 3037 513d 27d4 9c3d e4bd c13b 630f 983d
00000010: f266 d53d 1c22 bc3c 5606 9f3b 8dcb c23c
00000020: f3d8 eabb c87f 473d 0b6b 4a3d 8bab c23c
00000030: 00e6 9a3d 87da e23c 6136 5c3c ae71 173c
00000040: 0824 763c 0904 cc3a 6953 653d f06b 533b
00000050: 79cc 613d 30ba d53c 30fc 0c3d 463b e33c
00000060: dfd9 3f3d 3b58 743b b967 8f3d aa19 ca3c
00000070: 60da 5c3d ea38 843d 16e7 6aba 6a82 3dbc
00000080: 438a f53b d48b b63c 0aae 103d 9181 103d
00000090: 2c88 343d 7923 253d 8757 3a3d 7b47 363b
000000a0: ce1f 983d 7168 c3bb 9868 823b 789c f83b
000000b0: 9bd3 063d 90f3 813d be17 353c d6f5 683c
000000c0: 7eb0 8d3d 5c35 ba3c b3b5 0f3d 3da3 013d
000000d0: 64e7 0b3d ecdf 773d 7be8 c13c 097a 07bc
000000e0: 5fe1 fb3c 612f 663d 5df3 983d c442 253d
000000f0: 05fa b43c 4602 af3c 0012 483c f00d ac3d
00000100: bd81 833f afec 853f bafb 823f e62f 823f
00000110: dd77 883f cbff 803f e6f2 823f 3c33 873f
00000120: 1898 803f 6798 843f 9260 823f a6eb 833f
00000130: eeb3 843f 6bdd 823f 3bc9 853f a9c2 873f
00000140: 822a 7c3f 566e 823f ca58 7e3f be19 833f
00000150: e18f 873f caa1 823f c13c 7f3f 41a3 803f
00000160: f11a 853f 0962 823f b6cf 833f 2242 8a3f
00000170: cce0 8b3f 7027 863f 3f54 803f 678d 7c3f
00000180: 6825 803f 8831 823f 7e2e 833f 6213 833f
00000190: d7d4 803f 927a 843f a69e 853f 3a81 863f
000001a0: 5125 843f 5771 863f 5f71 833f 44ec 7f3f
000001b0: 727e 8b3f a9a3 823f 7003 843f 185b 843f
000001c0: a6ac 8a3f b20a 843f 467a 7e3f 4758 803f
000001d0: bb16 823f e1b4 823f dd62 863f cd91 803f
000001e0: cc90 863f 6e80 833f 6923 833f a1db 8a3f
000001f0: 195c 813f 6dbf 853f fd63 7e3f 72f0 843f
00000200: b8ed dcb7 893d 053c 35dd 4cbc 0e74 1bbc
00000210: 2764 a23c 2c6a 443d c3d8 d8bc f6c7 ccbc
00000220: dbe2 6a3b 729c d1bb 5a3d 0bbb 3d95 3d3c
00000230: c2d0 013d 31ac efbc 2fb1 153d b4c9 323c
00000240: 9361 8a3c 6059 1f3c e44a 8ebc 07a1 a23c
00000250: 7293 c9bc 3672 8f3c 0bcc cf3a f14e 2fbc
00000260: d893 c1bb 4490 9b3c 46cb bb3c 5b08 6cbc
00000270: b74b b6bc f78d 95b9 828d d3bc 3e4b 21bc
00000280: 01ad 54bc ab43 8e3c cd60 763c 29ea 13bd
00000290: faa1 013d 54db 4abc 9bd7 95bc 316d 993c
000002a0: e879 a5bb 00b8 2b3a d97c 38bd 4128 253c
000002b0: 3e3c ca3c 9b47 c7ba ba0b 8abc 18f9 d33a
000002c0: 12d1 aabb 5d41 4fbc 5e93 84bc 6390 b53c
000002d0: c0e0 353d 53e8 7cbc 24b7 06bb 850e 8f3c
000002e0: 3cf4 2fbb 919f a23c b49e b93c f3aa ff3c
000002f0: 9a61 88bc ca2a cabc 1af9 19bd e1a8 c93c
00000300: 4e7f a13d 6299 973d 48c6 083d 689d a53d
00000310: fe5a 503d f32a 803d 652f 7f3d 91f3 ad3c
00000320: 1dfb ea3c ad8d ed3c bf10 0a3d 200f 333d
00000330: 24f9 843d ce19 8b3d 5037 7a3b 36bf 6a3d
00000340: de26 c13c b258 933d 2749 c43d f86c 0e3d
00000350: 041d a63d b0d0 153d 0d3c 493d 5f86 843d
00000360: 8853 f53d da8d fb3c ebce 033e 1727 a03d
00000370: 07d7 7d3d 16e4 603c 6c67 1d3d 2d50 793b
00000380: bac8 c43c e2f9 343d 2684 853d 53dd b33d
00000390: e699 8a3d 709f 183d c7cc 7b3d 3429 a83d
000003a0: 9041 ba3d 018c 233d fbd3 d03c d181 cf3c
000003b0: 6b0c 2f3d 16f8 a13d 93b1 e53c a4a4 503d
000003c0: 1cc5 a33d 3f14 163d 69e4 153d a49e 073d
000003d0: cd79 523d 7c98 ce3d 9e65 4a3d a8f0 efb8
000003e0: 3475 d63c d76d 7d3d fe92 a63d bb8b bd3d
000003f0: 61b2 963c 47bb 823d dbd2 683d 1d86 b43d
0.05107802 0.07657652 0.0059125293 0.0742481 0.10420026 0.022965483 0.00485305 0.023778701
-0.0071669756 0.048705846 0.04941849 0.023763439 0.075634 0.027692093 0.013440699 0.009243412
0.015023239 0.0015565167 0.05598775 0.003226038 0.05512664 0.026089758 0.034420192 0.027738225
0.046838637 0.0037284035 0.070022054 0.02467044 0.053919196 0.06456168 -0.0008960826 -0.011566738
0.0074932887 0.022283472 0.035322227 0.035279814 0.044075176 0.040317032 0.04549363 0.0027813602
0.07427941 -0.005963378 0.0039797537 0.007587012 0.032916646 0.06345284 0.011053024 0.014218768
0.06918429 0.022730522 0.03508539 0.031649817 0.03415622 0.060516283 0.023670426 -0.008268842
0.030747114 0.056197528 0.07468293 0.040346876 0.022091875 0.021363389 0.012211323 0.08401096
1.0273968 1.0462855 1.0233071 1.0170867 1.0661579 1.0078062 1.0230377 1.056251
1.0046415 1.035901 1.0185721 1.0306289 1.036741 1.0223821 1.0452036 1.060628
0.9850236 1.0189922 0.9935423 1.0242231 1.0590783 1.0205624 0.9970208 1.0049821
1.0398847 1.0186168 1.0297763 1.0801432 1.0927978 1.0480785 1.002571 0.9865326
1.0011415 1.0171366 1.0248563 1.024029 1.0064954 1.0349905 1.0439041 1.0508187
1.0323888 1.0503339 1.0268973 0.9996989 1.0897963 1.0206195 1.0313549 1.03403
1.0833938 1.0315764 0.99405324 1.002694 1.0163187 1.021145 1.0498921 1.0044495
1.0512938 1.0273569 1.0245181 1.0848275 1.0106231 1.0449044 0.9937132 1.0385878
-2.633674e-05 0.008132347 -0.012503912 -0.009488119 0.019823147 0.047952816 -0.026470548 -0.024997693
0.0035840783 -0.0063968236 -0.0021246285 0.011571226 0.031693228 -0.029256912 0.03654593 0.010912348
0.01689223 0.0097258985 -0.017369695 0.019852174 -0.02460644 0.017510515 0.0015853656 -0.010699973
-0.005907517 0.01898969 0.022924077 -0.014406289 -0.0222529 -0.00028525267 -0.025824312 -0.009844599
-0.0129807005 0.017366251 0.015037728 -0.036111984 0.031648614 -0.012381393 -0.018291285 0.018728824
-0.0050499327 0.00065505505 -0.04504094 0.010080398 0.024686929 -0.0015203835 -0.016851295 0.0016172258
-0.0052129114 -0.012649861 -0.016183551 0.022163576 0.04440379 -0.01543625 -0.0020555938 0.017462978
-0.0026848456 0.019851478 0.022658683 0.031209445 -0.016648103 -0.024678607 -0.037591077 0.02461666
0.078856096 0.07402302 0.03339222 0.080866635 0.050868027 0.06258192 0.06230106 0.021234306
0.028684193 0.02899822 0.033707377 0.043715596 0.06492832 0.06792031 0.0038179941 0.05731126
0.023578104 0.07194652 0.09584265 0.03477189 0.08111003 0.036575973 0.049129535 0.06470942
0.11978823 0.030707289 0.12871902 0.07819956 0.061972644 0.013726255 0.03842871 0.0038042173
0.024021495 0.04418362 0.06519346 0.087824486 0.06767635 0.037261426 0.061474588 0.08210984
0.09094536 0.03992844 0.025491705 0.025330456 0.042736452 0.07908647 0.028038776 0.050938264
0.0799658 0.036640402 0.036594782 0.033110276 0.05138569 0.10087678 0.049413316 -0.00011441234
0.026178934 0.06187233 0.08133505 0.09255167 0.018395605 0.063833766 0.056841712 0.088146426

sequential/dense/BiasAdd/ReadVariableOp f4 [32]
00000000: f8f4 da3d 8dd0 8d3d 2e4a 8d3d 9bf9 833d
00000010: 58fb 503d acaa 6e3d 420b 2e3d 1bcc 743d
00000020: 4db7 6a3d 5f85 e53d d8fe 493d 37e9 643d
00000030: ab92 cabc e94e cebb cfe8 8abc fdfd da3c
00000040: 5eb8 163d 15c3 5b3d cb2d 9a3a 8702 133c
00000050: 9437 6a3d 849c 993c bad5 083d 8a98 393c
00000060: f855 4f3c 7e1c 1f3d 759f b8bc d201 a93d
00000070: 82ee 043b b020 c33d ed08 303d 1dc5 a53d
0.10691255 0.069245435 0.06898914 0.06444093 0.05102095 0.058268234 0.042491205 0.059764963
0.057303715 0.11207079 0.049315304 0.055886474 -0.02472814 -0.006296028 -0.016956715 0.02673244
0.03679692 0.05365284 0.0011762915 0.008972771 0.05718191 0.01875139 0.03340695 0.011327872
0.012654774 0.03884553 -0.022536973 0.082523 0.0020283763 0.09527719 0.042977262 0.08094237

sequential/dense_1/BiasAdd/ReadVariableOp f4 [16]
00000000: c585 d5bd 284c 81bd 4b8f 003d d231 e4bd
00000010: 50f2 dabc 742d 80bd 690d 9d3d 07eb 283d
00000020: 32a9 d63c c14c e9bc e6e8 823c 692a e53c
00000030: 16ac 0d3d 9850 8a3d f79c 09be c0e6 c43d
-0.10425905 -0.06313354 0.031386655 -0.11142315 -0.026726872 -0.062586695 0.076685734 0.041239765
0.026203725 -0.028478982 0.015980195 0.027974324 0.034587942 0.06753653 -0.13438784 0.096143246

sequential/dense/MatMul f4 [32, 64]
00000000: ea98 a03d 3946 413d a35e a03e 4bd8 b2bd
00000010: 6029 203e ee75 7b3e 9362 9ebd 8088 e73d
00000020: ed9f 5a3e 83e0 49be 9e7c 833e 1623 19be
00000030: 855f bbbd f740 2bbe 26ab 78bd 1243 9d3e
00000040: 5f8a 053e 344a 753e c5d9 27bd 4051 673a
00000050: de0b 89be a617 20bd 235a f63b 2125 513e
00000060: 532b 46be f3ae 073d 0b04 ac3d 1f79 a7be
00000070: 3a6a 8b3e d40c 1b3e 91a2 893e 878a 913d
00000080: 42be 823d ac7b 37be d7a2 23be 545f a83e
00000090: edcf 4dbe 36fa 833d 4fa0 84be f1b7 71be
000000a0: 2e93 063e 43f2 b23e ca1f f33c 718b 95bd
000000b0: 3267 a63a 59db f7bb 3daf 41be 4e31 d73d
000000c0: 9a6b d63d 433c 83be 905f 5e3e 1376 03be
000000d0: 2701 b73e 0626 083b 71c8 eebd 2cfb c93e
000000e0: a316 5abd 9c2b 1dbe e1f0 663e 992f b1be
000000f0: cd59 413e f9db e73d 34d3 9fbc 6db4 d43d
00000100: 96c8 84bd c2e7 913e 7a53 523a a7d1 1dbd
00000110: d9e4 8cbe 1ed2 a13e 20f6 50be d24c 1dbe
00000120: ff6a 9b3d 2e40 c33d 8c41 96be ba18 7fbe
00000130: 28e4 0d3e b1c1 963e 0693 8e3e 43bb 0c3e
00000140: 1ae3 8939 cd77 2e3e 6fe8 c9be 759b 763e
00000150: 341a bfbb 9354 04bc b539 36be b16f 85be
00000160: 011d b43d ad47 a83e 4fa7 c7bd 34c7 253e
00000170: 11df a43d 40ac e2bd 9ce8 fbbe df80 9ebd
00000180: 7237 5fbe 5132 fabc 889f cd3e 538b 40be
00000190: 3460 8a3e 5cc2 fc3d 388e 803e 6cb9 a33d
000001a0: 85eb 73be cd53 43be 6f4b 18be 9f2f e33d
000001b0: 2ac3 5ebe f3a7 c8bd d42e e63d 0a8c 013e
000001c0: b1e1 1ebd 073e 29be 4f59 8b3e e0a7 79bd
000001d0: 3cb2 273e 245e efbe 7984 5abe 5d20 99bd
000001e0: e3cd e93d f28e b13d 7705 5b3e a54d 193e
000001f0: 5d35 8a3d 599f 7ebe 31ea 9cbd f9af 933c
00000200: af94 18be c68e 163e 7466 f43c 5a2d 2cbd
00000210: 6c82 c7be e632 5e3d c0dc f3bd e3b1 9839
00000220: 7bd5 6ebe 40fa a8bd 3235 e8bc 8a02 b13d
00000230: 6682 77be 89ba bd3e e9b8 a23e e606 f7bd
00000240: ccd2 9e3c 849b b43d 941d 1d3e 1ce7 eb3d
00000250: c585 39bd 6e1b cbbc 7a94 7bbe ccf9 933e
00000260: f46b 09be 48bb 093b 610a 05be 36ab 98be
00000270: 18fb 493e 67d8 db3c ba9b 49be 2c58 bbbe
00000280: e078 893d 7be0 323e d9ef 53bb 794f a93e
00000290: af5a 80bd ee0b 393e 4e2c 64bd 6751 a6be
000002a0: ba2e 063c 2d95 703d b037 a0bd 20b4 963e
000002b0: 8715 ddbd b634 8c3d 78ff ae3d 0d30 88be
000002c0: fb3a a8be e733 3f3e d1d8 803e 133c e0bb
000002d0: a5d4 7c3e 998b 08be fab0 a43d 464f 89be
000002e0: f753 acbd 47b4 6b3e ee7b 833e b393 d13c
000002f0: 84b4 0ebe 4ad9 a8bd ba93 dbbc cff6 bbbe
00000300: e241 44be 5d70 203e 7eb8 86bd d45e 893e
00000310: 2bc2 35bd e224 bb3e 0ffa 85bd 02df fa3d
00000320: ec3f 213e bfe0 beba 2368 043e 68e4 1b3e
00000330: 0b21 ddbc 11f5 c63d 4b96 183d c22c 8b3e
00000340: 8c9a 21bd 018d 85bd 89d0 a5be b546 2b3e
00000350: 28a7 333d 2b31 713e abfd f93b 4907 1d3e
00000360: d90e 19bd 3e1b 37bc 6816 c63e a9c3 153e
00000370: 9c9f a63d 4d1c 58be 11cb aabd 9169 203e
00000380: dc0f d0bd 5826 373e 6b8d d73d 6287 9fbe
00000390: 5e5a 283e 25b7 12be 2bbc 1d3e bc78 01be
000003a0: bae4 12be a078 663e 366b 243e 7b6d a3bd
000003b0: 4c36 4f3e c914 103e 3be6 6bbe bc17 8b3e
000003c0: ba37 a8bd 7f65 2bbe c2d3 97be b3ea b13e
000003d0: f159 933d 70de a2bd 266f fd3d 7b0e 97bd
000003e0: 0042 3f3e bfb3 813e 0990 00be ddcd a23d
000003f0: 1345 26be 6a23 233e 2646 8fbe 312d a83d
0.07841666 0.04718611 0.31322202 -0.08732661 0.15640783 0.24556705 -0.07733645 0.11305332
0.2135007 -0.1971455 0.25681013 -0.1495479 -0.09149078 -0.16724001 -0.060710095 0.30715233
0.13041066 0.23954087 -0.040979166 0.0008824058 -0.26766866 -0.039085053 0.0075180694 0.2042432
-0.19352464 0.03312583 0.08399209 -0.32709596 0.27229482 0.15141612 0.2688184 0.071065
0.06383945 -0.17918271 -0.15980087 0.3288523 -0.20098849 0.06444208 -0.25903556 -0.23605324
0.13142082 0.34950456 0.029678244 -0.07301987 0.001269555 -0.00756399 -0.18914504 0.10507451
0.10469742 -0.25631914 0.21716142 -0.1283801 0.35743067 0.0020774617 -0.11659325 0.3944944
-0.053244244 -0.15348667 0.22552826 -0.34606627 0.18881913 0.11321253 -0.01950989 0.10385976
-0.06483571 0.2849713 0.0008023303 -0.03853002 -0.27518347 0.3160562 -0.20406389 -0.15361336
0.07588767 0.09533726 -0.29346883 -0.24911776 0.13856566 0.2944465 0.27846545 0.1374331
0.0002629988 0.17037888 -0.39435145 0.2408274 -0.005831981 -0.008076805 -0.17795451 -0.26061776
0.087945946 0.32867184 -0.097487085 0.16189271 0.08050359 -0.1106801 -0.49200904 -0.07739424
-0.21798494 -0.03054157 0.40160775 -0.18803148 0.27026522 0.123417586 0.25108504 0.07994351
-0.23820312 -0.19074936 -0.14872526 0.110930674 -0.21754137 -0.09797659 0.112394005 0.12651077
-0.038789455 -0.16527568 0.27216575 -0.060951114 0.16376585 -0.4675151 -0.21339597 -0.07476876
0.11416223 0.08669843 0.21388803 0.14971025 0.067484595 -0.24865474 -0.07661856 0.018028246
-0.14900468 0.14702901 0.02983401 -0.042035438 -0.38966691 0.05424776 -0.11907339 0.00029124235
-0.23323624 -0.082508564 -0.028345678 0.086430624 -0.24170837 0.37056378 0.317817 -0.12061863
0.019387625 0.08818725 0.15343314 0.1151869 -0.04529359 -0.024793353 -0.24568358 0.28901517
-0.13420087 0.002101617 -0.1299224 -0.29818124 0.19724691 0.026836587 -0.19688311 -0.36590707
0.06712508 0.17468445 -0.0032339005 0.33068445 -0.062672965 0.18070957 -0.055706315 -0.3248398
0.008189851 0.058736015 -0.078231215 0.294343 -0.10795122 0.06845991 0.085448205 -0.2659916
-0.328575 0.18672143 0.25165418 -0.006843099 0.24690492 -0.13334502 0.08041568 -0.26818293
-0.084144525 0.23017989 0.25680488 0.025583124 -0.13936049 -0.082445696 -0.02680384 -0.36711738
-0.19165757 0.15667863 -0.06578158 0.2683016 -0.044374626 0.36551577 -0.065418355 0.122495666
0.1574704 -0.0014562829 0.1293035 0.15223849 -0.026993295 0.097147115 0.037252706 0.27182585
-0.039454028 -0.06521035 -0.32385662 0.16726191 0.043860584 0.23553912 0.0076291165 0.1533481
-0.037367675 -0.011175929 0.3868897 0.1462542 0.08135912 -0.21104546 -0.08339513 0.1566527
-0.10159275 0.1788572 0.1052502 -0.31157976 0.16440722 -0.14327677 0.15403812 -0.12643713
-0.14345065 0.22506952 0.16056523 -0.07979866 0.20235556 0.14070429 -0.23037045 0.27166545
-0.08213754 -0.16737936 -0.29653746 0.34749374 0.07194889 -0.07952583 0.123747155 -0.07375809
0.18677521 0.25332448 -0.12554945 0.079494216 -0.16237287 0.15931478 -0.27983207 0.082117446

sequential/dense_1/MatMul f4 [16, 32]
00000000: 7efa e13d e10d c9be 1e39 60be 870e 323e
00000010: 85af 8c3e a5f8 823e 23c1 59bc 3f51 a3be
00000020: 744e 103e fcb9 7fbe 4a2e 8cbe 1bba 05be
00000030: 1f37 903e 77d3 0b3e 7525 0dbe 3176 bf3e
00000040: 3f71 c3bd 2db4 5b3e 2ea5 06bf 4201 b5be
00000050: 1552 03bf e2d5 bcbe 500d ad3e 1748 a1be
00000060: 875e fa3d 4b40 ecbb 84e8 a9be a261 64be
00000070: a015 dd3d 3e06 98be 6f0f 3fbd 37bc 9d3e
00000080: 9bb6 683e ce9f 6a3e 52c4 883e f2d5 e8be
00000090: f2d7 e03d 7227 89be 3f33 ab3e 3395 7b3e
000000a0: 1789 06bf eaea bcbe c02b 03be e48d 7cbe
000000b0: abdb a3be fc20 c0bc e4dd 763e 7114 6bbd
000000c0: efee db3b 9cc6 7abe e5b3 f6be 6698 85bd
000000d0: 1c43 0fbe d3f4 51bc eaf5 2b3e f4b8 e0be
000000e0: 443e adbc af15 d1be 88bf b23e 2fa8 b1be
000000f0: af8a 7f3e 4a79 8abd 1963 09bf fea5 e6bd
00000100: 5fd1 463e e572 0cbd fd53 d3be 130e 983e
00000110: 1242 01bf 379f c0be fa05 3dbe 7780 583e
00000120: b543 02bf 3cf7 35be d999 b73d e4af f63d
00000130: 4e3b 5ebe dc3d 743d ac11 cf3d 3ca0 62be
00000140: 9815 babe 83ea 73be ded1 703e c5f9 9a3e
00000150: 877c c73e cbcb 17be ff01 c0be d78a 68bd
00000160: 14e8 c23e b63f 943e 0df8 08be 72be a5bc
00000170: c0a5 5bbe 4755 9fbe 19c4 11bf 631b aabe
00000180: ffe4 833d cc55 973e 69b4 c63d 3990 99be
00000190: ab72 b0bd 3889 ca3e 1989 91be 7fec 413e
000001a0: 5dc8 c3be 3b2d 98be 0dfb 2dbe 3da8 44be
000001b0: bc50 35be 9552 bcbe 622a cabe 8160 8e3e
000001c0: 895c a33e 3031 603b deb4 a63e c8ad e63c
000001d0: 050b 6fbe 7a16 01bf a947 05bf bd48 9ebe
000001e0: b6ee ac3e f415 c5be e0a2 793e 53e4 0ebe
000001f0: fffc 4bbd 211a b93e 4bdb 95bd 09ee 6ebe
00000200: a786 7b3e ba3f 54be 4857 b2b8 2a07 6abe
00000210: a2b2 a23d 528e e73b aec0 a53e 23c5 a6be
00000220: 8466 033e 7eb6 b3bd 3473 aebb d791 643d
00000230: 7a67 69be ddbf d03d 803f 00be 38d6 d43d
00000240: b760 75bd 4a53 40be 8d56 c5be 124d 7cbe
00000250: 1e0c 0d3c 6437 a2be 3294 abbd 6477 aa3d
00000260: e1b5 88be a9b4 d2be e137 eabd ec6f 60be
00000270: 0e0b 7abb c999 8c3d f1cd 4fbe 7e2e 813e
00000280: e324 033e 8584 80be f559 70be 6ab3 e7be
00000290: ecda ce3e 3783 89be a272 713e 7928 853e
000002a0: 2dfc 573e d8f7 fdbe b66d 13be 9d0b a13e
000002b0: b45b 993e ff3e 89be 9fba 443e 30d5 35be
000002c0: e56e 04bf 8f3d c5be 6c01 0f3d 9999 bbbe
000002d0: 6d33 f7bd 6125 1a3e 985e bebe f976 a63e
000002e0: fb72 06be 4ae0 d93d f9ce 7abd bebd b2be
000002f0: b6d1 88be b9a7 c4be 862d e3be 754b 8ebe
00000300: 3b77 1bbf e310 c6bd e09d 7fbe acd3 75be
00000310: 5174 9abe c584 ab3e cd96 1ebe 9f34 91be
00000320: 589e 9f3e bbae 163e 19f3 ddbe b2db 06bf
00000330: 322d c23d 6133 523e 7b8e a8be 8d74 a1be
00000340: 9646 06bf 7406 8c3e 4593 cfbe 5b80 1abe
00000350: 46ea d3be 4c30 d3be 7ea2 1cbe 850b 863e
00000360: 5c41 8ebd 04f1 c03e 1f0a dcbb 7971 293e
00000370: 91fd 3ebe 5fd1 0abf 6ba9 78bd 4633 9a3e
00000380: 6b74 f6be 36c2 323e d2fa 923e e29f c0be
00000390: 346f c03e 62bd d1be 72c9 25be 5016 bb3d
000003a0: 5fcd 5bbe c2d7 2dbf ff89 c93e 51a1 b03e
000003b0: 678c 6bbe 5e85 5bbe 3199 ebbe ae46 82be
000003c0: 45be 9fbe 2e7f debe a9b0 0abe cba3 91be
000003d0: 2099 2c3e b59d f4be f1f5 02bf 6daf 9fbe
000003e0: b0c6 b53e c530 893e 7f15 9fbb f478 593e
000003f0: 2df4 7c3d b09e b73e a876 bebe c388 a3be
0.11034106 -0.392684 -0.21896788 0.17388354 0.2747766 0.25580326 -0.013290676 -0.31897923
0.14092427 -0.24973291 -0.27379066 -0.13059275 0.28167054 0.13654886 -0.1378382 0.3739486
-0.09543084 0.2145545 -0.52595794 -0.35352522 -0.5129712 -0.3688193 0.3379922 -0.31500313
0.12225061 -0.0072098128 -0.33185208 -0.22302869 0.1079514 -0.29692262 -0.046645578 0.3080766
0.22725908 0.22912523 0.2671228 -0.45475727 0.10978688 -0.26787907 0.33437535 0.24568634
-0.5255293 -0.36897975 -0.12809658 -0.24663502 -0.3200353 -0.023453228 0.24108082 -0.05739254
0.0067118327 -0.24489826 -0.48184124 -0.06523208 -0.13990444 -0.012814718 0.16793028 -0.43891108
-0.021147855 -0.40836856 0.34911752 -0.34698626 0.24955247 -0.06761415 -0.53666836 -0.11262129
0.19415806 -0.03428926 -0.41275015 0.29698238 -0.5049144 -0.3762147 -0.18459311 0.21142755
-0.5088456 -0.17770094 0.08964891 0.12045267 -0.2170231 0.059629306 0.101107925 -0.22131437
-0.363446 -0.23819928 0.23517558 0.30268684 0.38962194 -0.14823835 -0.37501523 -0.056773033
0.38067687 0.28954858 -0.13375874 -0.020232413 -0.21449947 -0.3111975 -0.56939846 -0.3322402
0.06440162 0.29557645 0.09702379 -0.29992846 -0.08615621 0.39557815 -0.2842491 0.18937872
-0.38238803 -0.29722008 -0.169903 -0.19204803 -0.17706579 -0.36781755 -0.3948546 0.27808002
0.31906536 0.0034209006 0.32559866 0.028159037 -0.23344047 -0.5042492 -0.5206247 -0.3091487
0.33775872 -0.3849331 0.24378538 -0.13954286 -0.049801823 0.36152747 -0.073172174 -0.2333299
0.24563085 -0.20727435 -8.503959e-05 -0.22854295 0.07944228 0.0070665265 0.32373565 -0.32572278
0.12832075 -0.08775042 -0.005323792 0.055803146 -0.2279338 0.10192845 -0.12524223 0.103924215
-0.059906688 -0.18781772 -0.38542596 -0.24638775 0.008608846 -0.31682885 -0.083778754 0.08323553
-0.26701263 -0.41153458 -0.11436439 -0.21917695 -0.0038153562 0.0686527 -0.20293404 0.25230783
0.1280704 -0.25101104 -0.23471816 -0.4525407 0.404014 -0.2685792 0.23578885 0.2600744
0.21092291 -0.49603152 -0.1439732 0.31454173 0.29952776 -0.26805875 0.19211815 -0.17757106
-0.5173171 -0.38523528 0.034913465 -0.36640623 -0.120703556 0.15053321 -0.37181544 0.32512644
-0.13129799 0.10638483 -0.06123254 -0.34910387 -0.26722497 -0.38409212 -0.4437067 -0.27791944
-0.60728806 -0.0967119 -0.24962568 -0.24006528 -0.30166867 0.33499733 -0.15487213 -0.2836046
0.31175494 0.14715092 -0.4334953 -0.5267898 0.094812766 0.20527412 -0.32921204 -0.31534234
-0.52451456 0.27348673 -0.40542045 -0.15088026 -0.41389674 -0.41247785 -0.15296361 0.26180664
-0.0694606 0.3768388 -0.0067150737 0.16547193 -0.18651415 -0.54225725 -0.060708445 0.30117244
-0.48135695 0.17456898 0.28706986 -0.3762198 0.3758484 -0.409648 -0.16190127 0.09135115
-0.21465062 -0.67907345 0.39363095 0.34498075 -0.23002778 -0.21437594 -0.46015313 -0.2544455
-0.31199852 -0.43456405 -0.13543953 -0.28445277 0.16855288 -0.4777657 -0.51156527 -0.31188527
0.3550315 0.2679502 -0.0048548575 0.21237546 0.0617563 0.35863256 -0.37199903 -0.31940278

sequential/lstm/Read_2/ReadVariableOp1 f4 [256]
00000000: 3037 513d 27d4 9c3d e4bd c13b 630f 983d
00000010: f266 d53d 1c22 bc3c 5606 9f3b 8dcb c23c
00000020: f3d8 eabb c87f 473d 0b6b 4a3d 8bab c23c
00000030: 00e6 9a3d 87da e23c 6136 5c3c ae71 173c
00000040: 0824 763c 0904 cc3a 6953 653d f06b 533b
00000050: 79cc 613d 30ba d53c 30fc 0c3d 463b e33c
00000060: dfd9 3f3d 3b58 743b b967 8f3d aa19 ca3c
00000070: 60da 5c3d ea38 843d 16e7 6aba 6a82 3dbc
00000080: 438a f53b d48b b63c 0aae 103d 9181 103d
00000090: 2c88 343d 7923 253d 8757 3a3d 7b47 363b
000000a0: ce1f 983d 7168 c3bb 9868 823b 789c f83b
000000b0: 9bd3 063d 90f3 813d be17 353c d6f5 683c
000000c0: 7eb0 8d3d 5c35 ba3c b3b5 0f3d 3da3 013d
000000d0: 64e7 0b3d ecdf 773d 7be8 c13c 097a 07bc
000000e0: 5fe1 fb3c 612f 663d 5df3 983d c442 253d
000000f0: 05fa b43c 4602 af3c 0012 483c f00d ac3d
00000100: bd81 833f afec 853f bafb 823f e62f 823f
00000110: dd77 883f cbff 803f e6f2 823f 3c33 873f
00000120: 1898 803f 6798 843f 9260 823f a6eb 833f
00000130: eeb3 843f 6bdd 823f 3bc9 853f a9c2 873f
00000140: 822a 7c3f 566e 823f ca58 7e3f be19 833f
00000150: e18f 873f caa1 823f c13c 7f3f 41a3 803f
00000160: f11a 853f 0962 823f b6cf 833f 2242 8a3f
00000170: cce0 8b3f 7027 863f 3f54 803f 678d 7c3f
00000180: 6825 803f 8831 823f 7e2e 833f 6213 833f
00000190: d7d4 803f 927a 843f a69e 853f 3a81 863f
000001a0: 5125 843f 5771 863f 5f71 833f 44ec 7f3f
000001b0: 727e 8b3f a9a3 823f 7003 843f 185b 843f
000001c0: a6ac 8a3f b20a 843f 467a 7e3f 4758 803f
000001d0: bb16 823f e1b4 823f dd62 863f cd91 803f
000001e0: cc90 863f 6e80 833f 6923 833f a1db 8a3f
000001f0: 195c 813f 6dbf 853f fd63 7e3f 72f0 843f
00000200: b8ed dcb7 893d 053c 35dd 4cbc 0e74 1bbc
00000210: 2764 a23c 2c6a 443d c3d8 d8bc f6c7 ccbc
00000220: dbe2 6a3b 729c d1bb 5a3d 0bbb 3d95 3d3c
00000230: c2d0 013d 31ac efbc 2fb1 153d b4c9 323c
00000240: 9361 8a3c 6059 1f3c e44a 8ebc 07a1 a23c
00000250: 7293 c9bc 3672 8f3c 0bcc cf3a f14e 2fbc
00000260: d893 c1bb 4490 9b3c 46cb bb3c 5b08 6cbc
00000270: b74b b6bc f78d 95b9 828d d3bc 3e4b 21bc
00000280: 01ad 54bc ab43 8e3c cd60 763c 29ea 13bd
00000290: faa1 013d 54db 4abc 9bd7 95bc 316d 993c
000002a0: e879 a5bb 00b8 2b3a d97c 38bd 4128 253c
000002b0: 3e3c ca3c 9b47 c7ba ba0b 8abc 18f9 d33a
000002c0: 12d1 aabb 5d41 4fbc 5e93 84bc 6390 b53c
000002d0: c0e0 353d 53e8 7cbc 24b7 06bb 850e 8f3c
000002e0: 3cf4 2fbb 919f a23c b49e b93c f3aa ff3c
000002f0: 9a61 88bc ca2a cabc 1af9 19bd e1a8 c93c
00000300: 4e7f a13d 6299 973d 48c6 083d 689d a53d
00000310: fe5a 503d f32a 803d 652f 7f3d 91f3 ad3c
00000320: 1dfb ea3c ad8d ed3c bf10 0a3d 200f 333d
00000330: 24f9 843d ce19 8b3d 5037 7a3b 36bf 6a3d
00000340: de26 c13c b258 933d 2749 c43d f86c 0e3d
00000350: 041d a63d b0d0 153d 0d3c 493d 5f86 843d
00000360: 8853 f53d da8d fb3c ebce 033e 1727 a03d
00000370: 07d7 7d3d 16e4 603c 6c67 1d3d 2d50 793b
00000380: bac8 c43c e2f9 343d 2684 853d 53dd b33d
00000390: e699 8a3d 709f 183d c7cc 7b3d 3429 a83d
000003a0: 9041 ba3d 018c 233d fbd3 d03c d181 cf3c
000003b0: 6b0c 2f3d 16f8 a13d 93b1 e53c a4a4 503d
000003c0: 1cc5 a33d 3f14 163d 69e4 153d a49e 073d
000003d0: cd79 523d 7c98 ce3d 9e65 4a3d a8f0 efb8
000003e0: 3475 d63c d76d 7d3d fe92 a63d bb8b bd3d
000003f0: 61b2 963c 47bb 823d dbd2 683d 1d86 b43d
0.05107802 0.07657652 0.0059125293 0.0742481 0.10420026 0.022965483 0.00485305 0.023778701
-0.0071669756 0.048705846 0.04941849 0.023763439 0.075634 0.027692093 0.013440699 0.009243412
0.015023239 0.0015565167 0.05598775 0.003226038 0.05512664 0.026089758 0.034420192 0.027738225
0.046838637 0.0037284035 0.070022054 0.02467044 0.053919196 0.06456168 -0.0008960826 -0.011566738
0.0074932887 0.022283472 0.035322227 0.035279814 0.044075176 0.040317032 0.04549363 0.0027813602
0.07427941 -0.005963378 0.0039797537 0.007587012 0.032916646 0.06345284 0.011053024 0.014218768
0.06918429 0.022730522 0.03508539 0.031649817 0.03415622 0.060516283 0.023670426 -0.008268842
0.030747114 0.056197528 0.07468293 0.040346876 0.022091875 0.021363389 0.012211323 0.08401096
1.0273968 1.0462855 1.0233071 1.0170867 1.0661579 1.0078062 1.0230377 1.056251
1.0046415 1.035901 1.0185721 1.0306289 1.036741 1.0223821 1.0452036 1.060628
0.9850236 1.0189922 0.9935423 1.0242231 1.0590783 1.0205624 0.9970208 1.0049821
1.0398847 1.0186168 1.0297763 1.0801432 1.0927978 1.0480785 1.002571 0.9865326
1.0011415 1.0171366 1.0248563 1.024029 1.0064954 1.0349905 1.0439041 1.0508187
1.0323888 1.0503339 1.0268973 0.9996989 1.0897963 1.0206195 1.0313549 1.03403
1.0833938 1.0315764 0.99405324 1.002694 1.0163187 1.021145 1.0498921 1.0044495
1.0512938 1.0273569 1.0245181 1.0848275 1.0106231 1.0449044 0.9937132 1.0385878
-2.633674e-05 0.008132347 -0.012503912 -0.009488119 0.019823147 0.047952816 -0.026470548 -0.024997693
0.0035840783 -0.0063968236 -0.0021246285 0.011571226 0.031693228 -0.029256912 0.03654593 0.010912348
0.01689223 0.0097258985 -0.017369695 0.019852174 -0.02460644 0.017510515 0.0015853656 -0.010699973
-0.005907517 0.01898969 0.022924077 -0.014406289 -0.0222529 -0.00028525267 -0.025824312 -0.009844599
-0.0129807005 0.017366251 0.015037728 -0.036111984 0.031648614 -0.012381393 -0.018291285 0.018728824
-0.0050499327 0.00065505505 -0.04504094 0.010080398 0.024686929 -0.0015203835 -0.016851295 0.0016172258
-0.0052129114 -0.012649861 -0.016183551 0.022163576 0.04440379 -0.01543625 -0.0020555938 0.017462978
-0.0026848456 0.019851478 0.022658683 0.031209445 -0.016648103 -0.024678607 -0.037591077 0.02461666
0.078856096 0.07402302 0.03339222 0.080866635 0.050868027 0.06258192 0.06230106 0.021234306
0.028684193 0.02899822 0.033707377 0.043715596 0.06492832 0.06792031 0.0038179941 0.05731126
0.023578104 0.07194652 0.09584265 0.03477189 0.08111003 0.036575973 0.049129535 0.06470942
0.11978823 0.030707289 0.12871902 0.07819956 0.061972644 0.013726255 0.03842871 0.0038042173
0.024021495 0.04418362 0.06519346 0.087824486 0.06767635 0.037261426 0.061474588 0.08210984
0.09094536 0.03992844 0.025491705 0.025330456 0.042736452 0.07908647 0.028038776 0.050938264
0.0799658 0.036640402 0.036594782 0.033110276 0.05138569 0.10087678 0.049413316 -0.00011441234
0.026178934 0.06187233 0.08133505 0.09255167 0.018395605 0.063833766 0.056841712 0.088146426

while/MatMul_11 f4 [256, 64]
00000000: 041c d9bd 07a0 1bbc 2308 aa3b 3c18 f03b
00000010: 689e ee3c 5c35 c8bd 5abe f33c 9110 06be
00000020: 9565 393c 0da8 a6bd 9700 6d3d 9179 b4bc
00000030: 010b 693c 0584 6bbd 0b46 0e3e bee8 c63d
00000040: 2f6f 003d e287 d83d f9f3 893d 2995 ba3d
00000050: a541 3cbe 4ad5 923d 3e9e ecbd 40fb 99bd
00000060: ee4b d2bc 087a a03c 1146 cd3d acaf df3d
00000070: c805 48bd 94c7 b63d e3df 0e3e 5333 c8bb
00000080: 65d3 8e3d 8354 1a3d 64df eabd a667 89bc
00000090: c006 e5bd 71f7 a13d 801a 3f3d 9152 ce3a
000000a0: 4ef7 96bd f7ef b13c 24b4 6dbd f15b 5fbd
000000b0: 80d4 cb3d 3ce0 c3bd 6de1 6a3d 667a 2cbd
000000c0: 6996 463d c3cd e2bd 67b3 52bd 24cd 97ba
000000d0: e4a4 563e dd46 4bbd 783d 5b38 53a4 5dbc
000000e0: 73b8 3a3d 355b c23d f77a d5bd d8cc ac3d
000000f0: 1d79 13be d5de 65bd 2f1d bd3d db02 8a3c
00000100: 76a4 0f3b 20d2 893c 7f4a b83d ddbb 923c
00000110: 1371 ab3b b4c6 a039 a88c 85bd b83c 73bd
00000120: 9fc8 02bc 0366 e4bd 8f9e af3d 810f 4fbb
00000130: 0170 1f3e 0f86 2dbc 3341 b73d fdff ff3c
00000140: 40b3 b93d 44e9 0b3e a440 7fbd f6d0 0e3e
00000150: 433c 19be a79b 4dbc 9dd1 7b3d d13d 513d
00000160: 976f 05be 4cc6 8b3d 52d2 89bd a192 8abd
00000170: ba7b ecbd 4e56 133e 05c9 c73d 2b78 9abd
00000180: 1688 e8bc c3db 11bd d528 e73d a53a 693e
00000190: 5211 69ba 2858 b93c d131 8cbd 0bc8 01bd
000001a0: e4dd b2bd 4059 073d c162 70bd 94d3 cdbd
000001b0: 9401 afbc 044d 06be 00d7 1bbd 1771 d0bd
000001c0: f230 12be 18b0 2bbd bc52 5a3d 32f8 22bc
000001d0: a074 4c3c 3346 85bd 17ff b5bd 5fb5 e33d
000001e0: 2ca5 2e3c 02bf 893d 03ae e5bc b306 96bd
000001f0: 19a6 8abd 2989 1fbe 5f44 a53d 60c8 bfbb
00000200: dde4 a03d 6d3f c23b 9f1b b4bc d698 c93d
00000210: ab17 7ab9 9cbc 30bd 34af b5bd 3eee 36bd
00000220: 1465 c93c 0e01 aabd e6eb de3d 93f7 223d
00000230: 913c b23d e6d9 b63d 3245 a5bd 58e8 01bc
00000240: 1657 b93c f64d 5bbd 0010 c93d d922 f8bd
00000250: 6661 3bbc a784 e83d a82c 20be c27c 69bc
00000260: e9b1 9d3c 4358 afbd 0c6b d7bc 6f54 a83d
00000270: ce7a 9abc 52d6 153e 19c2 973d 03a7 36be
00000280: 144a cbbc e379 84bd 1ca2 293d b1ea efbd
00000290: 7901 25bd 81c0 6b3d 6e31 6d3d 7990 92bd
000002a0: 52da b53d 0594 a03b 3119 e7bc 6d6e 48bd
000002b0: 31ce 063e 59c8 943c 10e3 9abd 9805 1fbd
000002c0: 26e5 123c a614 55bd 0ed1 e1bc 2553 0dbd
000002d0: 91f5 a23c edc7 393e 1e80 dd3b 0930 d7bb
000002e0: 0ab2 b93d 769d a63b f01c a03d 53cd 4e3d
000002f0: 089b 24be efa6 67be 68b2 73bd 0ffc 54bc
00000300: aa27 83bc e405 17bd 66a2 e4bd d37b 2d3d
00000310: 9642 e83c 6e70 113e 494a 83bd 8b56 a83c
00000320: 9fd2 343d 0dc6 18be 2260 e33d be70 0bbe
00000330: ccb8 1cbd e370 093c cd86 3a3e 51ca cb3d
00000340: 431b f9bd df4b ee3d 40cd f4bc 3f9f 8a3d
00000350: d728 28bd 376b 983d 6656 8abd 78de cabc
00000360: e603 91bd 07bf d7bd 2153 973c bfcb c33d
00000370: abc4 9cbd b363 c23d c4a4 3a3d 4207 713d
00000380: c538 bfbd 00db 873d 5ac3 f53d fc12 bc3d
00000390: f04c a5bd aabc a9bc 54e9 123e 0cdd 983c
000003a0: 4f29 4cbd 8593 8bbd a7df 0cbe 0925 57bd
000003b0: 734b e53d 7f6c 90bd 10ea 54bd 8c93 083c
000003c0: fbb2 e33d 4ae9 03bd 940a 5f3d 671e 8e3d
000003d0: c1e5 2f3e 716b 56bd c63b 493d 8c21 0a3d
000003e0: f238 e63c 8af2 9f3d 12cb c4bd 69be 43bb
000003f0: 62e0 23bd 7896 a9bd 3fb9 c53d bc65 6d3d
-0.10601047 -0.009498603 0.0051889583 0.0073271077 0.029128268 -0.097758025 0.029753853 -0.13092257
0.011315723 -0.08137522 0.05786189 -0.022030624 0.014223815 -0.05749895 0.13893907 0.09712361
0.031356033 0.105727926 0.06735987 0.09110481 -0.18384416 0.07169588 -0.1155362 -0.07518625
-0.025670972 0.019589439 0.1002313 0.109221786 -0.04883364 0.08924785 0.13952594 -0.006109634
0.06973914 0.037678253 -0.1146839 -0.016773056 -0.11182928 0.07908524 0.04665613 0.001574116
-0.073713884 0.02172087 -0.058033124 -0.05453104 0.099526405 -0.09564254 0.05734389 -0.042108916
0.048483286 -0.11074402 -0.051440623 -0.0011581522 0.20961338 -0.049628127 5.2270916e-05 -0.0135279475
0.04558606 0.094900526 -0.10423844 0.08437508 -0.1440167 -0.056120712 0.09234082 0.016847065
0.0021918095 0.016823828 0.08998584 0.017911846 0.0052319854 0.00030665623 -0.06520969 -0.059384078
-0.007982402 -0.1115227 0.085751645 -0.0031594934 0.1557007 -0.010591044 0.08947983 0.031249994
0.09067392 0.13663203 -0.062317505 0.139469 -0.14964394 -0.012549317 0.0614792 0.051084343
-0.1303085 0.068249315 -0.067295685 -0.067662485 -0.115470365 0.14388391 0.09755138 -0.075424515
-0.028385203 -0.03560997 0.11287085 0.22776277 -0.00088908256 0.022625044 -0.06845439 -0.031684916
-0.087337285 0.0330441 -0.05868793 -0.10050121 -0.021363057 -0.13115317 -0.038046837 -0.1017782
-0.14276484 -0.041915983 0.053301558 -0.00994687 0.012478977 -0.0650753 -0.08886545 0.11118578
0.010659497 0.06725885 -0.028037077 -0.073254965 -0.06769962 -0.15579666 0.080696814 -0.005852744
0.07856152 0.005927971 -0.021985827 0.09843604 -0.00023850675 -0.043148622 -0.08871308 -0.0446608
0.02458433 -0.083009824 0.10884838 0.039786886 0.087029584 0.089282796 -0.080698386 -0.00792893
0.022624534 -0.053541146 0.09817505 -0.12116022 -0.011436796 0.113534264 -0.15642035 -0.014250936
0.019249873 -0.085617565 -0.026296161 0.082192294 -0.018857386 0.14632538 0.07410068 -0.17837147
-0.024815597 -0.064685605 0.041414365 -0.11714686 -0.040284608 0.057556633 0.057908468 -0.07156462
0.08879532 0.004900458 -0.028210254 -0.048933435 0.13164593 0.01816194 -0.0756284 -0.038823694
0.008965766 -0.052021645 -0.027565505 -0.03450312 0.019892486 0.18142672 0.0067596575 -0.0065670055
0.090671614 0.005084689 0.078180194 0.05048878 -0.16074765 -0.22622274 -0.059496313 -0.012999549
-0.016010124 -0.036870852 -0.111637875 0.042354416 0.028352063 0.14203045 -0.06410653 0.02054908
0.044146176 -0.149193 0.1110232 -0.13617226 -0.038262174 0.008388731 0.18215485 0.09950698
-0.12163403 0.11635565 -0.029883027 0.06768655 -0.041054573 0.074423246 -0.067547604 -0.024764284
-0.07080822 -0.105344824 0.018472256 0.09560346 -0.07654699 0.09491672 0.04556729 0.058844812
-0.09337 0.06633568 0.12000151 0.091833085 -0.08071315 -0.020719845 0.1434682 0.01866009
-0.049844082 -0.068152465 -0.13757192 -0.052525554 0.111960314 -0.07051944 -0.051981032 0.008335959
0.11118122 -0.032204904 0.054453447 0.069393925 0.17177488 -0.052348558 0.04912927 0.0337234
0.028103326 0.078099325 -0.09609045 -0.0029868132 -0.04000891 -0.08280653 0.096544735 0.05795835

while/MatMul f4 [256, 64]
00000000: 72ab 38bd 24ad ca3d 66d0 163e 1ba9 8d3d
00000010: 0a49 4cba c88c cfbc b6ad 333d 2dcb 793c
00000020: 0408 98bd 8fac bb3d 88df 343d a235 373e
00000030: bdad bfbd b8cb 64bd 9e04 ee3d 4a2b c33d
00000040: 93cc 84bd f41e b33c c210 be3d ab56 853d
00000050: 1dd9 eb3d 0d03 103e 09d8 bfbd 72f1 02be
00000060: 55ef 143d 8057 51bd 4b47 93bd 4272 00be
00000070: ab58 aa3d a66f cf3d 0ddc 663d e54b f8bd
00000080: f421 a63d 20d1 ddbb b805 113e dc14 d23d
00000090: de8e 9cbd 8cd5 2ebd e256 473e 3791 5c3d
000000a0: 9a2a 393e 0478 7b3d b934 fc3d 9c43 16bd
000000b0: 68a9 63bd d9f7 e63d 9abc ad3d 4d82 1b3e
000000c0: 9d23 00be ec63 a03d 348d 0d3e 07f2 ac3d
000000d0: bce9 e53d 0f73 ae3d 72ef e53d c22f bfbd
000000e0: d887 88bd d9f5 46bd b44b e4bd f28f a33d
000000f0: 2828 c73d f1a2 303d 7bd5 46bd 204b ad3c
00000100: c67e b33d fd5c 8bbd 165a 273a ed49 e93c
00000110: 1c45 22bd c4b3 b5bd 67dd 1d3d adc2 a2bd
00000120: 9146 b33d 9759 d43d a17c cebd ce98 eb3d
00000130: 7a6c 88ba 5dcc 4b3e a8db 7f3d 5430 833d
00000140: 7cfd e7bd 5a8b a13c c78a f53c 8b09 3e3d
00000150: 7f8c cabc 840a b4bd a528 c2bd 2a45 50bd
00000160: 1681 5fbd 1653 3e3d c40d 0bbe f05f 8dbd
00000170: 0150 843e 94fb f93d 1b18 c43d ce67 ab3d
00000180: 1fec 01be 739e 9dbd 6529 93bd 40cc 953c
00000190: ac59 cd3d d732 a33d 099f 47bc 1125 36bd
000001a0: 34ce 54bd 7703 2d3d cf7d d03c f700 de3d
000001b0: eb0f bfbc c4ea 8dbd 9a87 15bd 5740 dd3d
000001c0: 7e56 ad3d 5468 10bc 21d9 c6bc 5571 8a3d
000001d0: 8e1a ca3d 2637 043d dec8 a93c f603 ad3d
000001e0: 44b4 3f3d 1b7a cb3c 6199 c23d c57c d8bd
000001f0: c8f8 933d 735a c1bd 91c8 43bc 8006 7bbc
00000200: 876e e8bd 4ed2 773d 5a22 1fbc fb53 f7bd
00000210: 3a0c bebd 4ebe 1fbd 0f99 e13d 9079 8c3c
00000220: 5202 03be 01c7 2d3e 1d3d 8e3c 0ed4 26bd
00000230: 387b babc a9ba 2bbe 29bb c0bc 9a3f bbbd
00000240: 4dd7 73bd b793 e23d c0cc 053d 653a ef39
00000250: f3d1 c93d 9174 de3b eb08 a7bd 2cb8 c1bd
00000260: fdd1 583d d923 fbbb 19b7 e03d 51c6 9dbc
00000270: 728f d5bd ec64 903d c653 98bc f351 61bd
00000280: e4c4 71bd d0f5 f63d 39e0 2cbd 42bd a33d
00000290: 6c0f 053e 6ce8 a83d 1c40 c93d b861 94bd
000002a0: 3892 2a3e 2354 e8bd 68a8 10be c33a b3bd
000002b0: 7e8c b2bc 394f e2bd 60be 37bd 6624 94bd
000002c0: 2bf5 38bd 460f 2ebd bd7e 063e c04a 153e
000002d0: 6b44 ee3d 8230 b4bc 039f a43d f3c4 cebd
000002e0: 328d 5f3c a349 193c 10d6 ad3d 1494 b3bd
000002f0: 63e9 8b3d 55d1 fd3d 9020 b13c 22a0 ad3d
00000300: b087 dcbc 07a5 303a cd3a f9bc fc19 d8bd
00000310: 5ed7 15bd 8071 f23a 5b9a 4e3e 4b02 a03c
00000320: dcfe 723b 16a4 003e 31e3 903d 6461 333e
00000330: ea75 2a3d 9163 763e 7ab5 0abd c6d5 be3d
00000340: c9fd 4fbd dcc3 903d 6849 4b3d 646e afbc
00000350: 4ee6 fcbc 3c43 a5bc cb8f c23c a29a b03d
00000360: a624 d83c 7566 debb 9c0f 94bd 2fbf d0bd
00000370: fde3 b738 9500 d2bc ab9f c9bd 1259 ed3d
00000380: b136 e2bd 0046 a039 5c56 9e3d bef1 0a3e
00000390: b040 4dbd 5976 c13d eb01 483d 177a 73bc
000003a0: 516b bc3d 6b43 073e f292 dd3d 43d7 683d
000003b0: 2233 da3d fa0e f63d d4aa 0c3e 18f2 c63c
000003c0: b6c9 8f3d ff21 6c3d 35fb cf3c 8f77 f03c
000003d0: f12a e93d 6d94 063e 4c1c 123e 5125 26bd
000003e0: dcfb 36bc 0074 18bd c9eb 083d dc67 f93d
000003f0: 7e86 b8bc 8d6c 133e 31bb 2ebd dee6 ae3d
-0.045085378 0.09896305 0.14727935 0.0691702 -0.0007792866 -0.025335684 0.043866836 0.015246195
-0.07423404 0.09163772 0.04415849 0.17891553 -0.0935931 -0.055858344 0.116219744 0.09529741
-0.06484332 0.021865346 0.0928054 0.06510671 0.115160204 0.14063664 -0.09367377 -0.12787417
0.036361057 -0.051108837 -0.071913324 -0.12543586 0.08317693 0.10128717 0.0563622 -0.12123851
0.08111945 -0.0067693144 0.14162338 0.10257885 -0.07644437 -0.042684123 0.19466737 0.053849425
0.18082657 0.061393753 0.123147435 -0.03668557 -0.05558148 0.11277742 0.084832385 0.15186425
-0.12513585 0.078315586 0.13823396 0.084446006 0.11226222 0.085180394 0.11227311 -0.09335281
-0.06666535 -0.048574302 -0.11147252 0.0798644 0.09724456 0.043124143 -0.048543435 0.021153986
0.087644145 -0.068048455 0.0006383968 0.028477633 -0.03961669 -0.08872178 0.038541224 -0.07947288
0.08753694 0.103686504 -0.10082365 0.115037546 -0.0010408305 0.19902177 0.06246534 0.06405702
-0.11327645 0.019719768 0.0299734 0.04639582 -0.024725197 -0.08791068 -0.094804086 -0.05084721
-0.054566465 0.046465956 -0.1357947 -0.06903064 0.25842288 0.12206188 0.0957491 0.083694085
-0.1268773 -0.076962374 -0.0718563 0.01828587 0.10026869 0.07968681 -0.012183913 -0.044468943
-0.051954463 0.042239632 0.025450615 0.10840028 -0.02332302 -0.069295436 -0.036506273 0.108032875
0.08463763 -0.008813936 -0.024273457 0.067598976 0.09868346 0.032279156 0.020725664 0.08448021
0.046802774 0.024838498 0.09501911 -0.10570673 0.07225186 -0.0944108 -0.011949674 -0.015321374
-0.113492064 0.060503297 -0.00971278 -0.12076565 -0.09279676 -0.038999848 0.11015522 0.01714781
-0.12793854 0.16970445 0.017363125 -0.040729575 -0.022763833 -0.16770424 -0.023526745 -0.091429904
-0.0595315 0.110633306 0.032665968 0.0004562914 0.09854498 0.006788798 -0.08155998 -0.09458956
0.052934635 -0.0076641855 0.10972423 -0.019259604 -0.10427751 0.07050499 -0.018594634 -0.055009793
-0.05902566 0.12058604 -0.042206023 0.079950824 0.12994164 0.08247456 0.09826681 -0.07245201
0.1665734 -0.11344173 -0.14126742 -0.08751442 -0.021795508 -0.11050267 -0.04485929 -0.07233505
-0.045155685 -0.042495035 0.13134284 0.14579296 0.116341434 -0.021995787 0.080381416 -0.10096159
0.013644503 0.009355935 0.08488095 -0.08768478 0.06831624 0.123934425 0.021621972 0.084778085
-0.02692017 0.0006738458 -0.030423546 -0.10551831 -0.036582343 0.001849696 0.2017607 0.019532343
0.0037078178 0.12562594 0.07074583 0.1751762 0.041616358 0.24061419 -0.033864476 0.09318118
-0.050779138 0.07068607 0.049630553 -0.021414943 -0.030871537 -0.020173661 0.023750206 0.08623244
0.026384663 -0.006787116 -0.0722954 -0.101927154 8.768586e-05 -0.025635043 -0.098449074 0.115892544
-0.11045588 0.00030569732 0.077313155 0.1356878 -0.05011052 0.09446401 0.048829954 -0.014860651
0.092001565 0.13209312 0.10819043 0.056845915 0.10654284 0.12014575 0.13737041 0.024285361
0.07020895 0.05764961 0.02538834 0.029353885 0.113851435 0.13142557 0.14268607 -0.04056293
-0.011168446 -0.03722 0.033427987 0.12178013 -0.022525068 0.14396878 -0.04265899 0.08540128
