reference/다 쓴거/saved_models_04/20250725_183545/gesture_classifier.tflite (tflite, 173880 bytes, 8 tensors)

sequential/lstm/Read_2/ReadVariableOp f4 [256]
0	0x3cb3ac56	0.021932762
1	0xbb6e3f41	-0.003635362
2	0x3cddf465	0.027094075
3	0x3c481732	0.012212561
4	0xbc45f9c1	-0.012083472
5	0xbad64fd9	-0.0016350701
6	0xbb38b32e	-0.0028182971
7	0x3d08ddeb	0.033414762
8	0x3cb9ab50	0.022664696
9	0x3d95aaf7	0.073079996
10	0x3d25775b	0.04039703
11	0xbd0175fc	-0.03160666
12	0xbc0743a3	-0.008255872
13	0x3d15c7ff	0.036567684
14	0x3cbf8d17	0.023382707
15	0x3d364b68	0.044505507
16	0x3c1fa2fa	0.0097434465
17	0x3cf7e884	0.03026224
18	0x3aeccf3f	0.0018067135
19	0x3bf3f9b6	0.0074455393
20	0x3cf57310	0.029962093
21	0x3a43f268	0.0007474781
22	0x3a96d2f2	0.0011506958
23	0x3c919769	0.017772393
24	0x3d41f56a	0.047353186
25	0x3d27f39a	0.0410038
26	0x3cabc64d	0.02096858
27	0x3b754819	0.0037427007
28	0x3c454462	0.0120402295
29	0x3d0de79b	0.034644704
30	0xbb93926c	-0.004503539
31	0x3d1b30d2	0.037888356
32	0x3d36b222	0.044603474
33	0x3d509310	0.0509215
34	0xbb92f954	-0.0044852886
35	0x3c0b5288	0.008503564
36	0xbb792090	-0.0038013794
37	0x3d304b2d	0.043040443
38	0x3d0d0d41	0.034436468
39	0x3d328938	0.043587893
40	0x3cf43539	0.029810535
41	0x3d1e779a	0.03868828
42	0x3d1189fc	0.035531983
43	0x3cdcc43d	0.026949042
44	0x3d43ae28	0.04777351
45	0x3ccb2ae4	0.024800725
46	0x3a93b878	0.0011270186
47	0x3b23e498	0.0025008079
48	0x3cded382	0.027200464
49	0x3c2868ad	0.010278863
50	0x3db7160f	0.08939754
51	0x3cb7abf2	0.022420857
52	0xbc97cc52	-0.018530045
53	0x3c1818f0	0.009283289
54	0x3b8fe705	0.0043915533
55	0x3d1a55c4	0.03767945
56	0x3c2cec37	0.010554365
57	0x3c880ad2	0.016606722
58	0x3c36b2ac	0.011150997
59	0x3b10985f	0.0022063476
60	0x3d9ee826	0.077591226
61	0xbc7dd371	-0.015492306
62	0x3b97de4c	0.004634654
63	0x3c9fb2f9	0.01949452
64	0x3f865812	1.0495627
65	0x3f82fc9a	1.0233338
66	0x3f83db84	1.0301366
67	0x3f7c78f3	0.98622054
68	0x3f86727b	1.0503687
69	0x3f7efece	0.9960755
70	0x3f81defe	1.0146177
71	0x3f7f38a1	0.99695784
72	0x3f8355eb	1.0260595
73	0x3f812457	1.0089215
74	0x3f836a3a	1.0266793
75	0x3f82b393	1.0211052
76	0x3f81e1eb	1.014707
77	0x3f8445d4	1.033381
78	0x3f8309fb	1.0237421
79	0x3f8b4546	1.0880516
80	0x3f872116	1.0556972
81	0x3f812fed	1.0092751
82	0x3f7f1d96	0.9965452
83	0x3f836925	1.0266463
84	0x3f8138a3	1.0095409
85	0x3f80db72	1.0066969
86	0x3f80e72a	1.0070546
87	0x3f824973	1.0178665
88	0x3f828794	1.0197625
89	0x3f83a74d	1.0285431
90	0x3f837f75	1.0273272
91	0x3f83a2d4	1.0284066
92	0x3f860d07	1.0472726
93	0x3f7f84d9	0.99812084
94	0x3f860f94	1.0473504
95	0x3f823f93	1.0175651
96	0x3f82f038	1.0229559
97	0x3f852593	1.0402092
98	0x3f807021	1.0034219
99	0x3f7f9214	0.9983227
100	0x3f80c6c3	1.0060657
101	0x3f822c52	1.0169775
102	0x3f82bd5b	1.0214037
103	0x3f846c14	1.0345483
104	0x3f821dc5	1.0165335
105	0x3f812b84	1.0091405
106	0x3f833e43	1.0253376
107	0x3f8122a0	1.0088692
108	0x3f81e2bd	1.014732
109	0x3f7fba99	0.998941
110	0x3f7d66e1	0.98985106
111	0x3f80dcc2	1.006737
112	0x3f82eadb	1.0227922
113	0x3f82e7ce	1.0226991
114	0x3f815b33	1.0105957
115	0x3f82fb70	1.0232983
116	0x3f7f4814	0.9971936
117	0x3f858cd7	1.0433606
118	0x3f861c0e	1.0477312
119	0x3f81797a	1.0115197
120	0x3f7dfb33	0.99211425
121	0x3f815d47	1.0106591
122	0x3f87f724	1.0622296
123	0x3f824b4d	1.017923
124	0x3f83ac9e	1.0287054
125	0x3f7fba83	0.9989397
126	0x3f8628d4	1.048121
127	0x3f80a341	1.0049821
128	0x3beeb46e	0.0072846925
129	0xbd37e372	-0.044894643
130	0xbc453ca7	-0.012038386
131	0x3c5a840e	0.013337148
132	0xbc1cbfe2	-0.009567233
133	0xbc488fb0	-0.012241289
134	0x3c5e201c	0.01355746
135	0xbb2cff71	-0.0026397372
136	0xb9bf6a7f	-0.00036509705
137	0xbb770e50	-0.003769774
138	0x3af6ee36	0.0018839303
139	0xbd05eb33	-0.032695007
140	0x3aad13bc	0.0013204734
141	0x3c1004ff	0.008790254
142	0x3bfd99b7	0.0077392715
143	0xbbba2d01	-0.0056816344
144	0xbbca53e2	-0.0061745504
145	0x3ce534b4	0.027979232
146	0xbcbd3c3f	-0.023100017
147	0xbc4a6cbf	-0.012355029
148	0xba35eefb	-0.0006940213
149	0xbc3b0f8e	-0.011417283
150	0xbc494f7e	-0.012287019
151	0x3affce8a	0.001951651
152	0xbad067cf	-0.0015900078
153	0xbc649cc4	-0.013953391
154	0xbc83a51b	-0.01606994
155	0x38de6057	0.000106037296
156	0xbb914dea	-0.004434337
157	0xbc4d12fa	-0.012516731
158	0xbc7aaeab	-0.015300433
159	0xbb765202	-0.0037585502
160	0xbd06cce3	-0.03291024
161	0x3c2e7265	0.010647391
162	0xbc864d45	-0.016394267
163	0x3c8d523c	0.017251126
164	0x3cb7334d	0.02236333
165	0xbc189c74	-0.009314645
166	0xbd05c605	-0.03265955
167	0xbc20b07b	-0.009807701
168	0xbc853a92	-0.01626328
169	0xbc64af87	-0.013957865
170	0x3a9abae2	0.0011804963
171	0xbc06254a	-0.008187601
172	0xbc1724ee	-0.009225113
173	0xbc084826	-0.008317983
174	0xbcdb8cf7	-0.026800616
175	0x3caadee5	0.020858238
176	0xbc12d651	-0.00896223
177	0xba8150b2	-0.0009865968
178	0x3c2b2471	0.0104457
179	0x3ba7a2e7	0.005115855
180	0xb90bd5ca	-0.00013335716
181	0x3b89a78a	0.0042008804
182	0x3b3f765a	0.002921483
183	0xbba7cb77	-0.0051206904
184	0xbccc3bb1	-0.024930807
185	0x3c2f3bc0	0.010695398
186	0x3c3de195	0.0115894275
187	0x3c709fd8	0.014686547
188	0x3c4513c8	0.012028642
189	0xbb82e469	-0.003994514
190	0xbcd55eaa	-0.026046116
191	0x3bb72401	0.005589009
192	0x3d682384	0.056674495
193	0x3cba8dab	0.02277263
194	0x3da5b0e7	0.08090382
195	0x3d19576b	0.037436884
196	0x3d8285e4	0.06373194
197	0x3cc4fac8	0.024045363
198	0x3c935ded	0.017989123
199	0x3ca25a8a	0.019818563
200	0x3d29032e	0.041262798
201	0x3dac3452	0.08408417
202	0x3d4130a6	0.047165535
203	0x3d233f4a	0.03985528
204	0x3d29649e	0.04135572
205	0x3d2fc607	0.042913463
206	0x3d14a940	0.036294222
207	0x3d681df5	0.056669194
208	0x3d79f7f0	0.061027467
209	0x3d4e322f	0.050340828
210	0x3ab0726e	0.0013461837
211	0x3d01d979	0.03170154
212	0x3d3d0f16	0.046156965
213	0x3cb78c07	0.022405637
214	0x3c0be25f	0.008537858
215	0x3d254261	0.040346507
216	0x3c9f96ef	0.01948115
217	0x3d4b104a	0.04957608
218	0x3d2d059c	0.042241678
219	0x3d649373	0.05580468
220	0x3d0443fb	0.032291394
221	0x3d44a8b9	0.04801247
222	0x3da1beb8	0.07897705
223	0x3d43334f	0.047656354
224	0xbbcc5f13	-0.0062369197
225	0x3d383151	0.044968907
226	0x3ca3f739	0.020015346
227	0xbba976a3	-0.0051716133
228	0x3c0cecf0	0.008601412
229	0xba92182c	-0.001114612
230	0xbb3b4933	-0.0028577566
231	0x3d56623c	0.052339777
232	0x3d38e2a4	0.045138016
233	0x3d5fed56	0.0546697
234	0x3d58be1e	0.052915685
235	0x3cef40cf	0.029205708
236	0x3dbbf067	0.091767125
237	0x3ca47120	0.020073473
238	0x3b856d20	0.0040718466
239	0x3b8d4611	0.004311331
240	0x3cbbb322	0.022912566
241	0x3d2a24b1	0.041538898
242	0x3dd55f9f	0.10418629
243	0x3cd9fa6d	0.02660867
244	0x3c9f4668	0.019442752
245	0x3cb60a31	0.022221657
246	0x3d77ba13	0.06048019
247	0x3d5c73d3	0.053821396
248	0x3bfa2932	0.0076343054
249	0x3d94bafe	0.072622284
250	0x3d067c06	0.03283312
251	0x3ca6fd34	0.020384409
252	0x3dcddcdb	0.100518905
253	0x3c8c18eb	0.017101726
254	0x3be3be9d	0.006950213
255	0x3b688b1a	0.0035483302

sequential/dense/BiasAdd/ReadVariableOp f4 [32]
0	0xbbb7df19	-0.005611312
1	0x3c89d9bf	0.016827462
2	0x3d0d2956	0.03446325
3	0x3d03ba71	0.032160226
4	0x3bd33953	0.0064460426
5	0x3ceb2a13	0.028706586
6	0x3d846d1a	0.06466122
7	0x3d380c15	0.044933397
8	0x3d37a634	0.044836238
9	0x3c090db1	0.008365081
10	0x3d5d05e4	0.053960696
11	0xbc76d643	-0.015065732
12	0x3daaef05	0.083463706
13	0x3d0164af	0.03159016
14	0x3d338f19	0.04383764
15	0x3d0f3550	0.034962952
16	0x3b7478ae	0.0037303376
17	0x3d807d12	0.06273855
18	0x3b1b73a2	0.0023720046
19	0x3cf3fb8f	0.029783038
20	0x3e1550f2	0.1458166
21	0x3d5ab68e	0.053396754
22	0x3d18c344	0.037295595
23	0x3ad16cb4	0.0015977831
24	0x3cf581bc	0.029969089
25	0x3dd0e38b	0.101996504
26	0x3d416cfb	0.047223072
27	0x3cec1dbd	0.028822774
28	0x3dfb2355	0.122625984
29	0x3c8a7cc8	0.016905203
30	0x3d82bef9	0.063840814
31	0xbc3e1052	-0.011600571

sequential/dense_1/BiasAdd/ReadVariableOp f4 [16]
0	0xbc99818a	-0.018738527
1	0xbb18ce00	-0.0023316145
2	0x3ce74086	0.02822901
3	0x3d0ffb8e	0.03515201
4	0xbc191c8a	-0.009345183
5	0x3c942354	0.018083252
6	0xbc506df7	-0.01272153
7	0xbd4e2c99	-0.0503355
8	0x3d3441ff	0.04400825
9	0x3d5c695c	0.053811416
10	0x3d0171e4	0.031602755
11	0xbd97122f	-0.07376515
12	0xbd44ee29	-0.04807869
13	0xbd130dd0	-0.035901845
14	0x3d09a694	0.033606127
15	0xbbcebe8c	-0.006309336

sequential/dense/MatMul f4 [32, 64]
0	0xbdde0d74	-0.1084241
1	0xbdaacb4d	-0.08339558
2	0x3e487e9e	0.1957955
3	0xbe09c5ea	-0.13454404
4	0xbcb9bd18	-0.022673175
5	0x3bf6e8b7	0.007535066
6	0x3ebdba76	0.3705632
7	0xbe2a7841	-0.16647436
8	0x3e1c1471	0.15242173
9	0xbe7d7d5c	-0.24754852
10	0x3d964268	0.07336885
11	0x3d9c81c4	0.07641938
12	0xbe1bc4e9	-0.15211834
13	0x3e8440f1	0.25830796
14	0x3e38665f	0.18007801
15	0x3e2267c9	0.15859903
16	0x3df7bea8	0.12096912
17	0xbea18280	-0.31544876
18	0x3e476eaa	0.19475809
19	0xbeb77dc7	-0.35838148
20	0xbcae1bb0	-0.021253437
21	0xbe270723	-0.16311316
22	0xbe9faef5	-0.3118817
23	0x3e6a7b23	0.22898535
24	0x3d3faf1d	0.04679786
25	0x3da4a510	0.08039296
26	0xba5f49a3	-0.00085177476
27	0x3e261304	0.16218191
28	0x3e438d10	0.1909678
29	0xbe215519	-0.15755118
30	0x3a03aedf	0.0005023311
31	0x3db06a17	0.08613985
32	0x3e842880	0.2581215
33	0x3da5fd9d	0.081050135
34	0xbdf07484	-0.117409736
35	0x3c90fa79	0.01769756
36	0x3d621ad2	0.05520136
37	0x3e3937dd	0.18087716
38	0xbe4143e4	-0.18873554
39	0xbe4b4b39	-0.19852914
40	0xbe028940	-0.12747669
41	0xbdab1b2a	-0.083547905
42	0xbe0a29c9	-0.13492502
43	0xbd5a2f74	-0.05326791
44	0xbe0ab14b	-0.13544194
45	0x3e83145c	0.2560147
46	0x3e9d2da0	0.30698872
47	0x3e1fedca	0.15618053
48	0x3e09eef1	0.13470055
49	0x3e2cb755	0.1686681
50	0xbd78f847	-0.06078365
51	0x3e888884	0.26666653
52	0x3e6fa3a8	0.23402274
53	0xbd979c04	-0.074028045
54	0xbe6827a9	-0.22671379
55	0x3e1a8106	0.15088281
56	0x3e55a588	0.20863926
57	0xbddecc63	-0.108788274
58	0xbe41a1d3	-0.18909387
59	0xbd72f579	-0.059316132
60	0xbea3c0cd	-0.31983033
61	0x3dcb7826	0.09935026
62	0x3d69901d	0.057022203
63	0xbdbfaec0	-0.09359503
64	0xbd95b745	-0.073103465
65	0x3d222476	0.039585553
66	0x3e2ed5c0	0.17073727
67	0x3dc6b8ce	0.097032174
68	0x3cc214c9	0.023691552
69	0xbdede07f	-0.11615085
70	0xbe972837	-0.2952287
71	0x3e958ac7	0.2920744
72	0x3d8b3522	0.06797244
73	0xbe116b7f	-0.14201163
74	0x3d824d76	0.06362431
75	0xbe84bac0	-0.2592373
76	0xba16fad5	-0.0005759423
77	0xbe037bbe	-0.12840173
78	0x3e3e48fe	0.18582532
79	0x3d80a29d	0.06281016
80	0x3e353e4d	0.17699547
81	0x3e093503	0.13399129
82	0xbe281346	-0.16413602
83	0xbe041ebc	-0.12902349
84	0x3e86ebbb	0.26351723
85	0xbd910fa4	-0.07083061
86	0xbe5e4833	-0.2170723
87	0xbd944a7f	-0.072407715
88	0x3e5c3c7e	0.21507451
89	0xbe7e258d	-0.24819012
90	0xbe2dfbc4	-0.16990572
91	0xbe56de22	-0.20983174
92	0xbc5b7c8b	-0.013396393
93	0xbea2fee5	-0.31835094
94	0xbe667706	-0.22506341
95	0xbe0a1f19	-0.13488425
96	0xbe6690bb	-0.22516148
97	0x3e14163a	0.14461604
98	0x3bbb3228	0.005712766
99	0x3e1a7e98	0.15087354
100	0x3e9104f9	0.28324106
101	0xbe39465d	-0.18093248
102	0xbdf78db1	-0.12087572
103	0xbe1ef36c	-0.15522546
104	0xbe9e9759	-0.30974844
105	0xbd96d361	-0.07364536
106	0x3d0de935	0.03464623
107	0xbc9645b7	-0.01834379
108	0x3d8288ed	0.06373773
109	0xbe8c6d21	-0.2742701
110	0x3dade153	0.08490243
111	0xbe4e44a4	-0.20143372
112	0x3c9bb2ab	0.019006094
113	0xbe0063df	-0.12538098
114	0x3d9c8d89	0.07644183
115	0x3d0977b0	0.03356141
116	0xbe1e4b56	-0.15458426
117	0xbe564903	-0.2092629
118	0x3db86b39	0.09004826
119	0x3e83e275	0.2575871
120	0xbde93660	-0.11387324
121	0x3e97e68e	0.29668087
122	0xbe5493c5	-0.20759495
123	0x3de19190	0.11014092
124	0xbc8614b7	-0.0163673
125	0x3e562a4f	0.20914577
126	0xbbb4e688	-0.0055206455
127	0x3e2c0698	0.1679939
128	0x3e6a2bc4	0.22868258
129	0x3acff81c	0.0015866789
130	0x3e702e50	0.23455167
131	0xbe6516e4	-0.22372013
132	0x3df8499e	0.12123416
133	0xbe112746	-0.14175138
134	0x3e90dd40	0.282938
135	0x3e23285e	0.15933368
136	0xbe4fb6c8	-0.2028457
137	0x3cd92783	0.026508098
138	0xbe5e4f92	-0.21710041
139	0x3e7b0a9c	0.24515766
140	0x3e0fca45	0.14042003
141	0xbd4af4e4	-0.049549952
142	0x3e1361c6	0.14392766
143	0xbc39a826	-0.011331594
144	0xbe0b9d24	-0.13634163
145	0xbe754b1c	-0.23954433
146	0x3e637c2d	0.22215338
147	0xbde06008	-0.109558165
148	0x3e532d74	0.20622808
149	0x3d5a012b	0.05322377
150	0x3e11cb82	0.14237788
151	0xbc7a071d	-0.015260485
152	0x3e33ab97	0.17545925
153	0xbe62d4d4	-0.221515
154	0x3e82e2bc	0.2556361
155	0xbc1a88b7	-0.009432009
156	0x3e5e03a9	0.21681084
157	0x3df1bf07	0.11804014
158	0xbe864523	-0.26224622
159	0x3e7af847	0.24508773
160	0x3d0f4ac4	0.03498341
161	0x3dcfc346	0.10144667
162	0x3ce20a94	0.027592935
163	0x3e4895a7	0.19588338
164	0xbdef7ef0	-0.11694133
165	0xbda8c364	-0.08240393
166	0xbe66c5cc	-0.22536391
167	0xbe102e8f	-0.1408026
168	0x3e516095	0.20447
169	0x3e3637c1	0.17794706
170	0x3e8faccc	0.2806152
171	0xbca5e067	-0.020248605
172	0xbe59366c	-0.21212167
173	0x3d8f715f	0.07004046
174	0xbe5dd1ad	-0.21662016
175	0x3dc68432	0.09693183
176	0xbe8b5b6e	-0.27218193
177	0xbd8f8d23	-0.070093416
178	0xbe3e37b0	-0.1857593
179	0xbd3a3a5c	-0.045465812
180	0xbe77da50	-0.24204373
181	0x3e4b8344	0.19874293
182	0xbd07c7fd	-0.033149708
183	0xbe196c9d	-0.14982839
184	0xbe2def36	-0.16985783
185	0xbe6e7c5d	-0.23289628
186	0x3d6c8260	0.057741523
187	0xbd285cb1	-0.041104022
188	0xbe0ea01c	-0.13928264
189	0xbe8f942d	-0.28042737
190	0x3dcb419f	0.099246256
191	0x3e1e5c07	0.15464793
192	0xbea6723e	-0.32509035
193	0xbd984fb0	-0.07437074
194	0x3ec72add	0.3889989
195	0x3cdde556	0.027086895
196	0x3e00c3a2	0.12574628
197	0xbe2ee370	-0.17078948
198	0xbea6fde3	-0.32615575
199	0xbe68235c	-0.22669739
200	0xbe1b4fd7	-0.15167175
201	0x3db69811	0.08915723
202	0xbde3df5f	-0.11126589
203	0x3d9c23e3	0.07624032
204	0x3b66e254	0.0035230117
205	0xbe0f5e17	-0.14000736
206	0xbd6a9254	-0.057268456
207	0xbe418927	-0.18899976
208	0xbdc927f5	-0.09822074
209	0xbe193e6c	-0.14965218
210	0x3e1e7faa	0.15478387
211	0x3e6cf944	0.23141962
212	0x3e68f21c	0.22748607
213	0x3e5864d9	0.2113222
214	0x3e082399	0.1329483
215	0x3e003d14	0.125233
216	0x3dd04326	0.101690575
217	0xbdbb2522	-0.09137942
218	0x3e85fbb3	0.26168594
219	0x3e05aef8	0.13055027
220	0x3e2c2ce1	0.16813995
221	0x3e8fc5c7	0.2808058
222	0x3e9ce5d3	0.30644092
223	0xbe05b483	-0.13057141
224	0x3e6c0c55	0.2305158
225	0xbe65c0d8	-0.22436845
226	0xbe64225d	-0.22278734
227	0xbd9f2e3e	-0.07772492
228	0xbda1d44c	-0.079018205
229	0x3e07ed77	0.1327418
230	0x3e31ee1d	0.1737599
231	0x3d4afbc8	0.049556524
232	0xbdb5e1f3	-0.08880987
233	0x3dae03d9	0.08496828
234	0x3e381ae3	0.17979006
235	0xbe06874f	-0.13137554
236	0x3dc6b70c	0.09702882
237	0xbd14e190	-0.036347926
238	0xbeb9eb1c	-0.36312187
239	0xbcd5f618	-0.026118323
240	0x3e47e234	0.19519883
241	0x3dedd2f4	0.11612502
242	0xbe813f1b	-0.25243458
243	0xbd3bc169	-0.045838747
244	0x3d82a073	0.063782595
245	0xbc8addb3	-0.016951418
246	0x3cbd44df	0.02310413
247	0xbe565454	-0.20930606
248	0xbd452474	-0.048130468
249	0xbebb7e20	-0.36619663
250	0x3e8c2d24	0.2737819
251	0xbe89137b	-0.26772675
252	0xbe84be08	-0.25926232
253	0xbe10f2b7	-0.14155088
254	0x3e01fa74	0.12693197
255	0x39b330a8	0.00034177792

sequential/dense_1/MatMul f4 [16, 32]
0	0x3eaf8dea	0.3428796
1	0xbeeba340	-0.46022987
2	0x3e47aea8	0.1950022
3	0x3c2f37e9	0.010694482
4	0x3e1959d2	0.1497567
5	0xbe320bfd	-0.17387386
6	0x3ddc2ec2	0.10751106
7	0x3d26c0f9	0.040711377
8	0x3d56c9b9	0.05243847
9	0x3e96bb7f	0.29439923
10	0xbe7b9bb1	-0.2457111
11	0xbd253865	-0.040336985
12	0xbd8c99f9	-0.068653055
13	0xbe693505	-0.22774132
14	0xbea94e6f	-0.33067653
15	0x3d625d16	0.055264555
16	0x3e344f50	0.1760838
17	0xbee42aa8	-0.44563794
18	0xbd1c20ef	-0.038117345
19	0xbed5be09	-0.41746548
20	0xbe431a06	-0.19052896
21	0xbeaccf67	-0.33751985
22	0x3e6640cb	0.22485654
23	0x3d5da8ea	0.054116167
24	0x3e913a2c	0.28364694
25	0xbe503e50	-0.2033627
26	0x3dfd34de	0.12363599
27	0xbd58fd3f	-0.05297589
28	0xbead0a55	-0.33796945
29	0xbe493d69	-0.19652332
30	0xbe54809f	-0.2075219
31	0x3eb9cb72	0.3628803
32	0x3ee7caaa	0.45271808
33	0x3af447f5	0.0018637168
34	0x3e71bd95	0.23607476
35	0xbec70a61	-0.38875106
36	0xbcae7b52	-0.021299038
37	0xbe96248c	-0.29324758
38	0xbf0e0812	-0.55481064
39	0x3b30717f	0.0026923118
40	0x3ecbf5f7	0.39836094
41	0xbc5bde57	-0.013419709
42	0x3e94f799	0.29095152
43	0xbf11728c	-0.5681541
44	0x3e529fa4	0.2056871
45	0xbcbaa4a6	-0.022783589
46	0x3e228c66	0.1587387
47	0xbecfa696	-0.40556782
48	0xbea333c5	-0.31875435
49	0x3e8bca93	0.2730299
50	0xbe773cc4	-0.24144274
51	0xbd3cc5e5	-0.046087164
52	0xbe623375	-0.22089942
53	0xbde66863	-0.11250379
54	0xbecd5df7	-0.40110752
55	0xbec31f75	-0.38109937
56	0x3e5ae139	0.21374978
57	0x3e1b5e96	0.151728
58	0xbeb2c909	-0.34919003
59	0xbee5ebc4	-0.44906437
60	0xbec02d02	-0.37534338
61	0xbe959f2f	-0.2922301
62	0x3e3484b6	0.1762875
63	0x3ed14bd9	0.4087818
64	0x3e9f11a0	0.31068134
65	0xbd0625e9	-0.032750998
66	0xbdcd59eb	-0.10026916
67	0xbd1b4cbe	-0.037914984
68	0xbe779cba	-0.2418088
69	0x3e268312	0.16260937
70	0x3cbde9b6	0.023182731
71	0x3ec346c1	0.38139918
72	0x3ebe7d5e	0.37205023
73	0xbee1057a	-0.4394949
74	0x3e46e638	0.19423759
75	0xbe66e62c	-0.22548741
76	0xbbdc7e92	-0.0067289555
77	0x3eb51bff	0.35372922
78	0xbea4bbeb	-0.3217462
79	0xbe51acab	-0.20476024
80	0xbe20fd3a	-0.15721598
81	0xbea03f2a	-0.3129819
82	0xbdf64d3c	-0.1202645
83	0xbe79d6f5	-0.24398406
84	0x3de11cb4	0.10991803
85	0x3e07ae31	0.13250042
86	0x3e01edbb	0.12688343
87	0x3e414bd1	0.18876578
88	0xbeb6ebfe	-0.35726923
89	0xbea324be	-0.3186397
90	0x3e930b95	0.28719774
91	0xbe8403e6	-0.25784224
92	0xbe52f2f1	-0.20600487
93	0xbed268ff	-0.4109573
94	0x3e572473	0.21009998
95	0x3e34ed65	0.17668684
96	0xbea30696	-0.31840962
97	0x3dc8945f	0.097939245
98	0xbed89246	-0.42299098
99	0xbd9a95ef	-0.07548129
100	0xbe7d511f	-0.24737976
101	0xbee779df	-0.45210168
102	0xbe3144d1	-0.17311408
103	0xbcc9991c	-0.024609141
104	0xbd1e30b8	-0.03862068
105	0x3c8f870f	0.017520456
106	0x3e8e6bd3	0.27816638
107	0xbf1edb53	-0.6205341
108	0x3e6c6470	0.23085189
109	0xbeb47101	-0.35242465
110	0x3e97c4a4	0.29642212
111	0x3e1b84c3	0.15187363
112	0xbe1af192	-0.15131214
113	0x3e99c862	0.30035692
114	0x3e16bc27	0.14720212
115	0xbd5eb312	-0.054369994
116	0x3dbad732	0.091230765
117	0x3e3534b9	0.17695893
118	0xbe301a49	-0.17197527
119	0x3e66b5d2	0.22530296
120	0xbcf753f8	-0.030191407
121	0x3e954a8f	0.29158446
122	0xbd9623af	-0.07331025
123	0xbf057bf8	-0.52142286
124	0x3cde5060	0.027137935
125	0xbeaff96e	-0.34369987
126	0xbe5bc1a6	-0.2146059
127	0xbe197311	-0.149853
128	0xbe810c42	-0.25204664
129	0xbd3d5913	-0.046227526
130	0xbe909ae9	-0.28243187
131	0xbd5b7ca4	-0.053585663
132	0x3d31bf94	0.043395594
133	0xbe2f651f	-0.17128418
134	0x3e821fe8	0.25414968
135	0xbdc1da36	-0.094654486
136	0x3e2bf744	0.16793543
137	0x3dc9d759	0.098555274
138	0x3e5b1e34	0.2139824
139	0xbe0ca131	-0.13733365
140	0xbee00a33	-0.4375778
141	0xbe9dbd45	-0.30808464
142	0x3e2649cb	0.16239087
143	0x3e7a9ca4	0.24473816
144	0x3e8e2b9a	0.2776764
145	0xbed8f2ae	-0.4237265
146	0xbeb852c9	-0.3600066
147	0xbe8fd181	-0.28089526
148	0xbeb7ed6e	-0.35923332
149	0xbd68e04f	-0.056854542
150	0xbe5e90b2	-0.21734884
151	0xbb88fee4	-0.004180776
152	0x3eb35f62	0.3503371
153	0xbea2c172	-0.31788212
154	0xbe4b8a77	-0.19877039
155	0x3d709fb0	0.05874604
156	0xbe7121cc	-0.23548049
157	0xbdfdc3b1	-0.12390841
158	0xbdfb1f10	-0.12261784
159	0xbe442f35	-0.19158633
160	0xbec6bab5	-0.3881432
161	0xbeec23ba	-0.46121007
162	0x3eb3143b	0.34976372
163	0x3eac521d	0.33656397
164	0xbe26d14d	-0.1629078
165	0xbebd82f1	-0.37013963
166	0xbe867fd1	-0.2626939
167	0xbe9e0c6e	-0.30868858
168	0x3ed1bab5	0.4096276
169	0xbd9d2c71	-0.07674492
170	0x3e9f0f50	0.3106637
171	0xbed53d70	-0.41648436
172	0xbcbcb389	-0.023034828
173	0x3e5126b1	0.20424916
174	0x3df6c4fa	0.12049289
175	0xbecdb6b4	-0.40178454
176	0xbcb1c05c	-0.02169817
177	0xbdc43338	-0.09580082
178	0x3ec72911	0.3889852
179	0xbea5a241	-0.32350352
180	0xbee199e2	-0.44062716
181	0xbeb22ad7	-0.3479831
182	0x3e969de9	0.2941735
183	0x3d729ad9	0.059229705
184	0xbd5367b9	-0.05161259
185	0x3e93a641	0.2883778
186	0xbeed6e7b	-0.46373352
187	0xbd951d88	-0.07281023
188	0xbb29fe19	-0.0025938808
189	0x3e775e8e	0.24157164
190	0xbedac76e	-0.42730278
191	0xbe4c9e83	-0.19982342
192	0xbef319c1	-0.47480586
193	0x3db732b9	0.089452215
194	0x3e4f51d4	0.20246059
195	0x3d3a645b	0.045505863
196	0x3eafed6f	0.34360835
197	0xbeb67d6a	-0.35642558
198	0x3e332bf3	0.17497234
199	0xbf08a866	-0.53381956
200	0xbd996eed	-0.074918605
201	0x3ebf1d6f	0.37327144
202	0xbe48f51e	-0.19624755
203	0xbe74e73b	-0.23916332
204	0xbce4b514	-0.027918376
205	0xbe109903	-0.1412087
206	0x3dc9ab6f	0.098471515
207	0xbeb31251	-0.34974912
208	0xbd74d03d	-0.059768904
209	0xbebd6cbb	-0.36997017
210	0xbda4f5fb	-0.080547296
211	0xbe31c319	-0.1735958
212	0xbd96aa7f	-0.07356738
213	0x3d381f38	0.044951648
214	0xbd98dfb4	-0.07464543
215	0xbe88c36c	-0.26711595
216	0xbef132e2	-0.47109133
217	0xbb8d2a09	-0.0043079895
218	0x3ec60866	0.38678282
219	0x3e5bc17d	0.21460529
220	0xbe97291f	-0.2952356
221	0xbc0fd1cd	-0.008778048
222	0x3df264f3	0.11835661
223	0xbdffc029	-0.124878235
224	0xbdae41bd	-0.08508632
225	0x3eaef0c5	0.34168068
226	0xbeb37f54	-0.3505808
227	0xbc1b1948	-0.009466477
228	0xbea40555	-0.32035318
229	0x3e0c4488	0.13698018
230	0x3dccbaa1	0.09996534
231	0x3e68e1ba	0.22742358
232	0xbdb41765	-0.08793525
233	0xbef220b8	-0.47290587
234	0xbeb6d013	-0.35705623
235	0xbcc51961	-0.024059953
236	0x3e88a07d	0.26684943
237	0xbe54b3bb	-0.20771687
238	0x3dd8aa0b	0.10579308
239	0xbedeb6a5	-0.43498722
240	0xbdbc57d7	-0.091964416
241	0x3e7c6bcf	0.246505
242	0x3c05591b	0.00813892
243	0x3e79335e	0.24336001
244	0x3e6f5eb7	0.23375975
245	0x3eaa4dae	0.3326239
246	0xbed80091	-0.42187932
247	0xbe8d9acc	-0.27657163
248	0x3df47615	0.11936585
249	0x3d8e1b1a	0.06938763
250	0xbeedeaa0	-0.46468067
251	0xbea333ae	-0.31875366
252	0x3c000cc6	0.007815545
253	0xbdcb632a	-0.099310234
254	0xbd832641	-0.06403781
255	0x3d8b15e9	0.067912884

sequential/lstm/Read_2/ReadVariableOp1 f4 [256]
0	0x3cb3ac56	0.021932762
1	0xbb6e3f41	-0.003635362
2	0x3cddf465	0.027094075
3	0x3c481732	0.012212561
4	0xbc45f9c1	-0.012083472
5	0xbad64fd9	-0.0016350701
6	0xbb38b32e	-0.0028182971
7	0x3d08ddeb	0.033414762
8	0x3cb9ab50	0.022664696
9	0x3d95aaf7	0.073079996
10	0x3d25775b	0.04039703
11	0xbd0175fc	-0.03160666
12	0xbc0743a3	-0.008255872
13	0x3d15c7ff	0.036567684
14	0x3cbf8d17	0.023382707
15	0x3d364b68	0.044505507
16	0x3c1fa2fa	0.0097434465
17	0x3cf7e884	0.03026224
18	0x3aeccf3f	0.0018067135
19	0x3bf3f9b6	0.0074455393
20	0x3cf57310	0.029962093
21	0x3a43f268	0.0007474781
22	0x3a96d2f2	0.0011506958
23	0x3c919769	0.017772393
24	0x3d41f56a	0.047353186
25	0x3d27f39a	0.0410038
26	0x3cabc64d	0.02096858
27	0x3b754819	0.0037427007
28	0x3c454462	0.0120402295
29	0x3d0de79b	0.034644704
30	0xbb93926c	-0.004503539
31	0x3d1b30d2	0.037888356
32	0x3d36b222	0.044603474
33	0x3d509310	0.0509215
34	0xbb92f954	-0.0044852886
35	0x3c0b5288	0.008503564
36	0xbb792090	-0.0038013794
37	0x3d304b2d	0.043040443
38	0x3d0d0d41	0.034436468
39	0x3d328938	0.043587893
40	0x3cf43539	0.029810535
41	0x3d1e779a	0.03868828
42	0x3d1189fc	0.035531983
43	0x3cdcc43d	0.026949042
44	0x3d43ae28	0.04777351
45	0x3ccb2ae4	0.024800725
46	0x3a93b878	0.0011270186
47	0x3b23e498	0.0025008079
48	0x3cded382	0.027200464
49	0x3c2868ad	0.010278863
50	0x3db7160f	0.08939754
51	0x3cb7abf2	0.022420857
52	0xbc97cc52	-0.018530045
53	0x3c1818f0	0.009283289
54	0x3b8fe705	0.0043915533
55	0x3d1a55c4	0.03767945
56	0x3c2cec37	0.010554365
57	0x3c880ad2	0.016606722
58	0x3c36b2ac	0.011150997
59	0x3b10985f	0.0022063476
60	0x3d9ee826	0.077591226
61	0xbc7dd371	-0.015492306
62	0x3b97de4c	0.004634654
63	0x3c9fb2f9	0.01949452
64	0x3f865812	1.0495627
65	0x3f82fc9a	1.0233338
66	0x3f83db84	1.0301366
67	0x3f7c78f3	0.98622054
68	0x3f86727b	1.0503687
69	0x3f7efece	0.9960755
70	0x3f81defe	1.0146177
71	0x3f7f38a1	0.99695784
72	0x3f8355eb	1.0260595
73	0x3f812457	1.0089215
74	0x3f836a3a	1.0266793
75	0x3f82b393	1.0211052
76	0x3f81e1eb	1.014707
77	0x3f8445d4	1.033381
78	0x3f8309fb	1.0237421
79	0x3f8b4546	1.0880516
80	0x3f872116	1.0556972
81	0x3f812fed	1.0092751
82	0x3f7f1d96	0.9965452
83	0x3f836925	1.0266463
84	0x3f8138a3	1.0095409
85	0x3f80db72	1.0066969
86	0x3f80e72a	1.0070546
87	0x3f824973	1.0178665
88	0x3f828794	1.0197625
89	0x3f83a74d	1.0285431
90	0x3f837f75	1.0273272
91	0x3f83a2d4	1.0284066
92	0x3f860d07	1.0472726
93	0x3f7f84d9	0.99812084
94	0x3f860f94	1.0473504
95	0x3f823f93	1.0175651
96	0x3f82f038	1.0229559
97	0x3f852593	1.0402092
98	0x3f807021	1.0034219
99	0x3f7f9214	0.9983227
100	0x3f80c6c3	1.0060657
101	0x3f822c52	1.0169775
102	0x3f82bd5b	1.0214037
103	0x3f846c14	1.0345483
104	0x3f821dc5	1.0165335
105	0x3f812b84	1.0091405
106	0x3f833e43	1.0253376
107	0x3f8122a0	1.0088692
108	0x3f81e2bd	1.014732
109	0x3f7fba99	0.998941
110	0x3f7d66e1	0.98985106
111	0x3f80dcc2	1.006737
112	0x3f82eadb	1.0227922
113	0x3f82e7ce	1.0226991
114	0x3f815b33	1.0105957
115	0x3f82fb70	1.0232983
116	0x3f7f4814	0.9971936
117	0x3f858cd7	1.0433606
118	0x3f861c0e	1.0477312
119	0x3f81797a	1.0115197
120	0x3f7dfb33	0.99211425
121	0x3f815d47	1.0106591
122	0x3f87f724	1.0622296
123	0x3f824b4d	1.017923
124	0x3f83ac9e	1.0287054
125	0x3f7fba83	0.9989397
126	0x3f8628d4	1.048121
127	0x3f80a341	1.0049821
128	0x3beeb46e	0.0072846925
129	0xbd37e372	-0.044894643
130	0xbc453ca7	-0.012038386
131	0x3c5a840e	0.013337148
132	0xbc1cbfe2	-0.009567233
133	0xbc488fb0	-0.012241289
134	0x3c5e201c	0.01355746
135	0xbb2cff71	-0.0026397372
136	0xb9bf6a7f	-0.00036509705
137	0xbb770e50	-0.003769774
138	0x3af6ee36	0.0018839303
139	0xbd05eb33	-0.032695007
140	0x3aad13bc	0.0013204734
141	0x3c1004ff	0.008790254
142	0x3bfd99b7	0.0077392715
143	0xbbba2d01	-0.0056816344
144	0xbbca53e2	-0.0061745504
145	0x3ce534b4	0.027979232
146	0xbcbd3c3f	-0.023100017
147	0xbc4a6cbf	-0.012355029
148	0xba35eefb	-0.0006940213
149	0xbc3b0f8e	-0.011417283
150	0xbc494f7e	-0.012287019
151	0x3affce8a	0.001951651
152	0xbad067cf	-0.0015900078
153	0xbc649cc4	-0.013953391
154	0xbc83a51b	-0.01606994
155	0x38de6057	0.000106037296
156	0xbb914dea	-0.004434337
157	0xbc4d12fa	-0.012516731
158	0xbc7aaeab	-0.015300433
159	0xbb765202	-0.0037585502
160	0xbd06cce3	-0.03291024
161	0x3c2e7265	0.010647391
162	0xbc864d45	-0.016394267
163	0x3c8d523c	0.017251126
164	0x3cb7334d	0.02236333
165	0xbc189c74	-0.009314645
166	0xbd05c605	-0.03265955
167	0xbc20b07b	-0.009807701
168	0xbc853a92	-0.01626328
169	0xbc64af87	-0.013957865
170	0x3a9abae2	0.0011804963
171	0xbc06254a	-0.008187601
172	0xbc1724ee	-0.009225113
173	0xbc084826	-0.008317983
174	0xbcdb8cf7	-0.026800616
175	0x3caadee5	0.020858238
176	0xbc12d651	-0.00896223
177	0xba8150b2	-0.0009865968
178	0x3c2b2471	0.0104457
179	0x3ba7a2e7	0.005115855
180	0xb90bd5ca	-0.00013335716
181	0x3b89a78a	0.0042008804
182	0x3b3f765a	0.002921483
183	0xbba7cb77	-0.0051206904
184	0xbccc3bb1	-0.024930807
185	0x3c2f3bc0	0.010695398
186	0x3c3de195	0.0115894275
187	0x3c709fd8	0.014686547
188	0x3c4513c8	0.012028642
189	0xbb82e469	-0.003994514
190	0xbcd55eaa	-0.026046116
191	0x3bb72401	0.005589009
192	0x3d682384	0.056674495
193	0x3cba8dab	0.02277263
194	0x3da5b0e7	0.08090382
195	0x3d19576b	0.037436884
196	0x3d8285e4	0.06373194
197	0x3cc4fac8	0.024045363
198	0x3c935ded	0.017989123
199	0x3ca25a8a	0.019818563
200	0x3d29032e	0.041262798
201	0x3dac3452	0.08408417
202	0x3d4130a6	0.047165535
203	0x3d233f4a	0.03985528
204	0x3d29649e	0.04135572
205	0x3d2fc607	0.042913463
206	0x3d14a940	0.036294222
207	0x3d681df5	0.056669194
208	0x3d79f7f0	0.061027467
209	0x3d4e322f	0.050340828
210	0x3ab0726e	0.0013461837
211	0x3d01d979	0.03170154
212	0x3d3d0f16	0.046156965
213	0x3cb78c07	0.022405637
214	0x3c0be25f	0.008537858
215	0x3d254261	0.040346507
216	0x3c9f96ef	0.01948115
217	0x3d4b104a	0.04957608
218	0x3d2d059c	0.042241678
219	0x3d649373	0.05580468
220	0x3d0443fb	0.032291394
221	0x3d44a8b9	0.04801247
222	0x3da1beb8	0.07897705
223	0x3d43334f	0.047656354
224	0xbbcc5f13	-0.0062369197
225	0x3d383151	0.044968907
226	0x3ca3f739	0.020015346
227	0xbba976a3	-0.0051716133
228	0x3c0cecf0	0.008601412
229	0xba92182c	-0.001114612
230	0xbb3b4933	-0.0028577566
231	0x3d56623c	0.052339777
232	0x3d38e2a4	0.045138016
233	0x3d5fed56	0.0546697
234	0x3d58be1e	0.052915685
235	0x3cef40cf	0.029205708
236	0x3dbbf067	0.091767125
237	0x3ca47120	0.020073473
238	0x3b856d20	0.0040718466
239	0x3b8d4611	0.004311331
240	0x3cbbb322	0.022912566
241	0x3d2a24b1	0.041538898
242	0x3dd55f9f	0.10418629
243	0x3cd9fa6d	0.02660867
244	0x3c9f4668	0.019442752
245	0x3cb60a31	0.022221657
246	0x3d77ba13	0.06048019
247	0x3d5c73d3	0.053821396
248	0x3bfa2932	0.0076343054
249	0x3d94bafe	0.072622284
250	0x3d067c06	0.03283312
251	0x3ca6fd34	0.020384409
252	0x3dcddcdb	0.100518905
253	0x3c8c18eb	0.017101726
254	0x3be3be9d	0.006950213
255	0x3b688b1a	0.0035483302

while/MatMul_11 f4 [256, 64]
0	0xbe53d1d0	-0.20685506
1	0x3b64b14c	0.0034895716
2	0x3d49eeac	0.04929988
3	0xbcbc940e	-0.023019817
4	0xbd42e922	-0.047585614
5	0xbd58edce	-0.052961163
6	0xbda39a40	-0.07988405
7	0x3d8f7645	0.0700498
8	0x3ca0f19f	0.019646464
9	0xbdf26e1c	-0.11837408
10	0xbdcbc4a2	-0.09949614
11	0x3d98bfd4	0.07458463
12	0x3c9bac02	0.019002918
13	0xbdbcb2e1	-0.09213806
14	0xbdc32176	-0.095278665
15	0x3d8422c1	0.06451941
16	0x3d8df4f7	0.06931489
17	0x3d81b2c2	0.063329235
18	0x3d0b3f8c	0.03399615
19	0xbc78df6f	-0.0151899895
20	0xbc90414f	-0.017609267
21	0x3d18e0fe	0.037323944
22	0xbd0f3eea	-0.03497211
23	0x3df650f5	0.1202716
24	0x3d5ff89c	0.05468045
25	0xbdec6e2a	-0.115444496
26	0x3dc187f0	0.09449756
27	0xbe1d964e	-0.15389368
28	0x3d238973	0.039926004
29	0x3d83953c	0.064249486
30	0xbdb7c2fb	-0.089727364
31	0xbdf9b8cb	-0.121934496
32	0xbb8dc9d3	-0.004327038
33	0x3d94ecab	0.07271703
34	0xbd18e107	-0.037323978
35	0x3b3742a2	0.00279633
36	0xbda3bdc1	-0.07995177
37	0xbdc1f743	-0.094709896
38	0xbda6405e	-0.08117746
39	0x3e04f431	0.12983777
40	0x3ddd320b	0.108005606
41	0xbd875c85	-0.066094436
42	0x3d51555d	0.0511068
43	0x3e247aef	0.1606252
44	0x3ba9cfc5	0.0051822388
45	0xbcff83b6	-0.031190734
46	0x3c6db172	0.014507638
47	0xbcc3b01a	-0.023887683
48	0x3cfe87b1	0.031070562
49	0xbd2562aa	-0.040377297
50	0xbe201985	-0.15634735
51	0xbc8c2548	-0.01710762
52	0x3d64a2d3	0.055819344
53	0xbdad7b32	-0.08470763
54	0xbc36f1f1	-0.011166082
55	0xbc2e15da	-0.010625327
56	0xbd572b3c	-0.052531466
57	0x3dac2bef	0.08406817
58	0x3ca05a76	0.019574385
59	0xbca735df	-0.02041143
60	0x3caeeb68	0.021352485
61	0x3d92bc7e	0.07164858
62	0xb9092fcc	-0.00013083144
63	0xbdcaae9d	-0.09896586
64	0xbe36946d	-0.17830057
65	0x3de34a51	0.11098159
66	0xbd522bae	-0.051311187
67	0x3db2af1e	0.08724807
68	0xba5b111b	-0.0008356736
69	0xbdfd85c1	-0.12379027
70	0xbcd428d9	-0.025898384
71	0xbd47e169	-0.048798952
72	0xbdcafcb0	-0.099114776
73	0xbdac26da	-0.08405848
74	0x3cd00290	0.025391847
75	0xbe5c8791	-0.2153609
76	0xbdba660b	-0.091014944
77	0xbb351e62	-0.0027636518
78	0xba74aeb5	-0.00093338947
79	0x3d3db562	0.04631556
80	0xbe15778a	-0.14596382
81	0x3d9d5e90	0.07684052
82	0x3baefed0	0.0053404346
83	0xbccd6275	-0.025071362
84	0x3dd7bbb9	0.10533852
85	0x3c65fce3	0.014037344
86	0xbd8c15bb	-0.06840082
87	0xbd9aedb0	-0.075648665
88	0x3a95627e	0.0011397151
89	0xbd2779d5	-0.040887672
90	0xbd57d400	-0.052692413
91	0xbe467834	-0.19381791
92	0x3d880f79	0.06643576
93	0xbd707b69	-0.058711443
94	0xbd8579a7	-0.06517344
95	0xbdd40132	-0.103517905
96	0xbb10bd54	-0.0022085505
97	0x3d426300	0.047457695
98	0x3d8241a1	0.06360174
99	0xbdb1e416	-0.08686082
100	0xbcab81ef	-0.02093598
101	0x3e3e8af6	0.18607697
102	0xbd11de85	-0.0356126
103	0x3d457ed8	0.04821667
104	0xbdb734a3	-0.089455865
105	0x3d72fc1a	0.059322454
106	0xbb8af3a8	-0.004240472
107	0x3ca92a17	0.020649953
108	0x3967210e	0.0002204219
109	0x3d5fc3fd	0.05463027
110	0xbdabf43d	-0.08396194
111	0xbb2d008b	-0.0026398029
112	0xbcd5a019	-0.026077317
113	0xbd1bf862	-0.038078673
114	0xb92d146e	-0.00016506176
115	0x3da4be06	0.080440566
116	0x3d03c0be	0.032166235
117	0x3c920ed8	0.017829344
118	0x3dc6a9ad	0.09700332
119	0xb922f8c5	-0.00015542198
120	0xbc27a3fd	-0.010231969
121	0x3e114501	0.14186479
122	0x3d5f578a	0.054526843
123	0x3dfe734b	0.12424334
124	0xbd0c1576	-0.034200154
125	0x3cb47457	0.022028131
126	0xbc8d30bc	-0.017235152
127	0x3d17606b	0.036957186
128	0xbca40081	-0.020019772
129	0x3d58bff7	0.052917447
130	0xbc106e46	-0.008815354
131	0xbce447b4	-0.027866222
132	0x3e1bb2e1	0.15204956
133	0xbe0a713c	-0.13519758
134	0xbd8cd333	-0.068762206
135	0xbad5df6a	-0.0016317193
136	0xbd2f0b20	-0.04273522
137	0x3c10abfe	0.008830069
138	0x3cafc9bd	0.021458501
139	0x3dccfe80	0.100094795
140	0xbdcf4797	-0.101210766
141	0xbd2d2873	-0.042274904
142	0xbd385f5e	-0.045012824
143	0xbd9fdb3f	-0.0780549
144	0xbdb0efc3	-0.08639481
145	0x3d12de74	0.03585668
146	0xbde61dc1	-0.11236144
147	0x3a83da5d	0.0010059584
148	0xbda7edd4	-0.08199659
149	0xbd798555	-0.06091817
150	0xbccdb7e0	-0.025112092
151	0x3e2edf0f	0.17077278
152	0xbc713ef7	-0.014724485
153	0xbd143c98	-0.0361906
154	0xbe0d0cba	-0.13774386
155	0xbd9587ad	-0.07301269
156	0x3cd7361a	0.026270915
157	0xbc74618b	-0.014915834
158	0x3d421cf3	0.04739089
159	0xbe28a90a	-0.16470733
160	0x3df69d17	0.12041681
161	0x3d9923dd	0.074775435
162	0xbc453dcd	-0.01203866
163	0x3ce81492	0.028330121
164	0x3cfa3430	0.030542463
165	0xbd88111e	-0.0664389
166	0xbdaa82c9	-0.083257265
167	0xbd7899ec	-0.060693666
168	0xbd8d66e9	-0.06904394
169	0xbdbe9809	-0.09306342
170	0x3dfdce16	0.123928234
171	0x3cbb24b8	0.022844657
172	0x3d3c0f6e	0.045913152
173	0xbd8bafd9	-0.0682065
174	0xbddbd78f	-0.10734474
175	0x3d310f2a	0.043227352
176	0xbda4814b	-0.08032473
177	0x3d31855d	0.043340076
178	0xbc96ff27	-0.018432213
179	0xbe1a4fb3	-0.15069465
180	0xbe11303a	-0.14178553
181	0xbc4e2b34	-0.012583543
182	0xbd65d591	-0.056111876
183	0x3d9c5978	0.07634252
184	0x3d172645	0.03690173
185	0x3d7482e4	0.05969514
186	0x3dc0575f	0.09391665
187	0x3c67cff1	0.014148698
188	0x3da40667	0.08009034
189	0xbdba846b	-0.09107288
190	0xbdf41dc0	-0.11919737
191	0x3dffbc94	0.1248714
192	0x3bf87f8c	0.007583564
193	0x3cfaf732	0.03063545
194	0xbc12589d	-0.00893226
195	0x3ddd7c03	0.10814669
196	0xbcce7c0e	-0.025205638
197	0x3c7b4b7e	0.015337823
198	0xbc69c2ac	-0.014267605
199	0xbbe1236e	-0.0068706786
200	0xbd74c7ca	-0.059760846
201	0xbd119587	-0.03554299
202	0xbe445e93	-0.19176702
203	0x3d126cbb	0.035748225
204	0xbccd9ed9	-0.025100159
205	0x3d927299	0.07150764
206	0x3c6ae4f6	0.014336815
207	0xbdb42e3b	-0.0879788
208	0xbe0f7444	-0.14009196
209	0x3db22761	0.08698917
210	0x3e1cf21b	0.15326731
211	0x3cf3bfbf	0.029754518
212	0xbddb825f	-0.10718226
213	0xbdcc7d15	-0.09984795
214	0xbc59ce2c	-0.013293784
215	0xbdc50ee7	-0.09621983
216	0x3d845671	0.064618
217	0xbddb0c90	-0.106957555
218	0x3cf1a128	0.02949579
219	0x3cdd7024	0.027031012
220	0x3c9bd40d	0.019022012
221	0x3d97b4f0	0.07407558
222	0x3c4281ba	0.01187175
223	0x3db88c2e	0.09011112
224	0x3c83f8b7	0.016109807
225	0x3c88c041	0.016693236
226	0x3d5b92d8	0.053606838
227	0x3e41f262	0.18940118
228	0xbbcc7152	-0.006239095
229	0xbca97e86	-0.020690214
230	0x3d8f1bf0	0.069877505
231	0xbdc57198	-0.09640807
232	0x3dbb065b	0.091320716
233	0x3da1d708	0.07902342
234	0x3d31fa5e	0.04345166
235	0xbcf9b458	-0.030481502
236	0xbdd22ff9	-0.10263056
237	0xbd2cd975	-0.04219957
238	0x3b6d72dc	0.0036231792
239	0xbd2a54ba	-0.041584708
240	0xbda2156e	-0.07914244
241	0xbd4b36d3	-0.04961283
242	0xbe17945c	-0.14802688
243	0xbd41906d	-0.047256876
244	0xb808279b	-3.2461812e-05
245	0x3e08c6ec	0.13357133
246	0xbdc7e203	-0.09759905
247	0xbdc18e93	-0.09451022
248	0x3d7c25b1	0.061559383
249	0xbdad0d93	-0.08449855
250	0x3d826556	0.063669845
251	0xbdc7bc58	-0.097527206
252	0xbcbb996e	-0.02290031
253	0xbc6cc06b	-0.014450173
254	0x3d42448f	0.047428664
255	0x3de7b124	0.11313084

while/MatMul f4 [256, 84]
0	0x3d38de0a	0.045133628
1	0xbd26dd34	-0.0407383
2	0x3e149ecb	0.145137
3	0x3d99ce4d	0.07510052
4	0x3db2a8fd	0.08723638
5	0x3e0191e8	0.12653315
6	0x3d9a0859	0.075211234
7	0x3c9eeb9f	0.019399462
8	0xbd02553d	-0.03181957
9	0xbd927eef	-0.07153117
10	0x3bc21761	0.005923197
11	0xbc90079a	-0.01758175
12	0xbdd0997a	-0.10185523
13	0x3da9a156	0.082827255
14	0xbd775fc6	-0.06039407
15	0x3cfa874d	0.030582095
16	0xbdc54d2e	-0.096338615
17	0x3afa5429	0.0019098568
18	0xbd0d2ba3	-0.034465443
19	0x3d7c42cb	0.061587136
20	0xbd672f68	-0.056441694
21	0x3cffa47f	0.031206368
22	0xbdd7e220	-0.10541177
23	0xbd9c4e25	-0.076320924
24	0x3e0df5b0	0.13863254
25	0xbda55c32	-0.080742255
26	0x3df05aa0	0.11736035
27	0xbd97c798	-0.07411116
28	0xbd1f8e87	-0.038954284
29	0x3df6e743	0.120558284
30	0xbdf20c02	-0.118186966
31	0x3daabe1d	0.083370425
32	0x3dc70c78	0.09719175
33	0xbdc4c004	-0.096069366
34	0x3d9a4161	0.07532001
35	0x3cfaeb04	0.030629642
36	0x3da3b418	0.079933345
37	0x3bd6e250	0.0065577403
38	0x3d29ab68	0.04142323
39	0xbde2f09c	-0.11081049
40	0x3df44e7f	0.119290344
41	0xbdbb93f6	-0.09159081
42	0x3d022746	0.031775735
43	0xbd60c121	-0.054871682
44	0x3db82057	0.08990543
45	0x3cd229a2	0.025654618
46	0xbd9ace14	-0.075588375
47	0xbdc95dc1	-0.09832335
48	0xbd979c4f	-0.074028604
49	0x3dcd1db5	0.10015432
50	0xbd08af69	-0.03337041
51	0xbd1888bd	-0.03723978
52	0x3dbda05e	0.09259103
53	0x3b513a32	0.0031925556
54	0xbdca7edd	-0.098874785
55	0xbd89ae86	-0.06722741
56	0xbd2eda17	-0.042688455
57	0x3d4dba95	0.050226767
58	0x3de8e4ff	0.113718025
59	0x3af04396	0.0018330689
60	0xbda3b1ed	-0.07992921
61	0xbdba3463	-0.09092023
62	0x3d023831	0.03179187
63	0xbd45705a	-0.04820285
64	0x3dc9cdb8	0.09853691
65	0xbd037417	-0.032093134
66	0x3e037f71	0.12841584
67	0x3e09a4a9	0.13441719
68	0xbcb85ec5	-0.022506127
69	0xbc13015d	-0.008972493
70	0xbd8fe7c7	-0.0702663
71	0xbc85a616	-0.016314548
72	0xbdbc3fea	-0.09191878
73	0x3cd43c42	0.02590764
74	0xbd2051ed	-0.03914063
75	0x3d19052f	0.03735846
76	0xbdac7991	-0.084216245
77	0xbbfebbb4	-0.007773841
78	0x3cf46e71	0.029837819
79	0x3dd5b9cf	0.10435831
80	0x3ddf0fbb	0.10891672
81	0xbc052fea	-0.008129099
82	0x3e13832a	0.14405504
83	0x3d99c074	0.07507411
84	0xbd7f2c26	-0.062297963
85	0x3d95d3f3	0.07315817
86	0x3dc4cbc7	0.0960918
87	0x3d172d42	0.036908396
88	0x3d5ad302	0.05342389
89	0xbd16bc39	-0.036800597
90	0x3cf1b6bd	0.029506082
91	0xbcac92c0	-0.02106607
92	0xbc1efbd1	-0.009703592
93	0xbe11ac55	-0.14225896
94	0x3ca106d4	0.019656576
95	0x3d810ba0	0.063010454
96	0xbc92aaa2	-0.01790363
97	0xbe30af6f	-0.17254423
98	0x3de5459e	0.11194919
99	0xbe0739c2	-0.13205627
100	0x3c09ffc7	0.0084227985
101	0xbe0abdce	-0.13548967
102	0xbd9828f6	-0.07429688
103	0xbdee9475	-0.1164941
104	0xbc8043bd	-0.0156573
105	0x3d7a43e2	0.061099894
106	0xbd365440	-0.04451394
107	0xbe00a2ba	-0.12562075
108	0x3d927d7b	0.0715284
109	0xbe06d727	-0.13168012
110	0x3cd40057	0.025879068
111	0xbe1efab3	-0.15525322
112	0xbe120a68	-0.14261782
113	0xbe29f50f	-0.16597389
114	0xbd308e3e	-0.043104403
115	0xbd73fe53	-0.059568714
116	0x3d0a2638	0.033727854
117	0xbd2d677b	-0.042335015
118	0x3b810125	0.003936904
119	0xba5c3e66	-0.0008401632
120	0x3d99b06b	0.07504352
121	0x3a98137c	0.0011602486
122	0xbcf2d941	-0.02964461
123	0xbe1559fa	-0.14585105
124	0x3dd03602	0.10166551
125	0xbda1598d	-0.078784086
126	0x3c8d68cf	0.01726189
127	0xbdc210f2	-0.09475888
128	0x3dc9a86f	0.09846579
129	0x3cbe771c	0.023250155
130	0x3da2dad7	0.07951897
131	0x3d9f838e	0.07788764
132	0x3dcf7020	0.10128808
133	0xbe05d115	-0.1306804
134	0x3d548664	0.051885977
135	0x3dc919ea	0.09819396
136	0x3dca1ac2	0.09868385
137	0xbde0750e	-0.109598264
138	0x3df5c828	0.120010674
139	0xbd8a1f1b	-0.06744214
140	0x3d2be2bd	0.04196428
141	0x3d927910	0.07151997
142	0x3d15ca8a	0.03657011
143	0x3d59c461	0.053165797
144	0x3dc9aafe	0.09847067
145	0xbdeb1633	-0.114788435
146	0xbd98a717	-0.07453745
147	0x3dca709a	0.09884758
148	0x3df2fb0c	0.1186429
149	0xbd51d50f	-0.05122858
150	0xbd11804c	-0.035522744
151	0x3dbf0df4	0.09328833
152	0x3dcf20ef	0.101137035
153	0xbd78e385	-0.060763855
154	0x3c9a47de	0.018833097
155	0xbdd8012e	-0.105471
156	0xbd15175e	-0.036399238
157	0xbe1f26b3	-0.15542106
158	0x3cdd9da6	0.027052712
159	0xbdc4fe08	-0.09618765
160	0x3d211540	0.039326906
161	0xbdb8d910	-0.090257764
162	0xbd606ae7	-0.05478945
163	0xbcac0d48	-0.021002427
164	0x3dc078a9	0.09398014
165	0xbe0378fc	-0.1283912
166	0xbdbee745	-0.09321455
167	0x3dc536d2	0.09629597
168	0x3dbefb98	0.093253314
169	0xbc2cf8ef	-0.010557397
170	0xbba14748	-0.0049218275
171	0xbdc2a4fa	-0.09504123
172	0xbdb663cd	-0.08905754
173	0xbda47901	-0.08030892
174	0x3d7a9243	0.061174642
175	0x3d8c6b02	0.068563476
176	0x3e04c394	0.12965232
177	0xbdd2fcda	-0.10302134
178	0x3b90069f	0.0043953205
179	0xbc99555e	-0.018717464
180	0x3e070569	0.13185658
181	0xbd6feb80	-0.0585742
182	0xbd3d2de8	-0.046186358
183	0x3df4d776	0.119551584
184	0x3df3e87a	0.11909576
185	0xbd3e51e6	-0.046464823
186	0x3dc2edd7	0.095180206
187	0xbd51c429	-0.051212464
188	0xbd75160e	-0.059835486
189	0xbc20debb	-0.009818728
190	0x3d803d9f	0.06261753
191	0xbdad46dc	-0.08460781
192	0x3e18ff3f	0.14941119
193	0xbdd98683	-0.10621359
194	0x3d9b3be3	0.07579782
195	0x3da34415	0.0797197
196	0xbd5e4f1b	-0.05427466
197	0xbddeff5e	-0.10888551
198	0x3dcf3afb	0.101186715
199	0xbd3829a9	-0.044961605
200	0xbd0cf5c2	-0.03441406
201	0xbc5d0660	-0.013490289
202	0x3de162ad	0.11005149
203	0x3c7b929b	0.015354778
204	0xbd26ab54	-0.040690735
205	0x3dcf0878	0.10109037
206	0xbd85c2aa	-0.0653127
207	0xbd39d501	-0.045369152
208	0x3d61e71e	0.05515205
209	0x3e0b3f67	0.13598405
210	0xbdcf82b7	-0.10132354
211	0xbd8c0425	-0.06836728
212	0x3e058fd4	0.13043147
213	0xbd9d6cfb	-0.07686802
214	0x3da487c1	0.080337055
215	0x3b77e3ee	0.0037825066
216	0x3bb0bd01	0.005393625
217	0x3d19638f	0.037448462
218	0x3e10133d	0.14069839
219	0xbd325519	-0.043538187
220	0x3dfb94db	0.12284251
221	0x3cfaf5d8	0.030634806
222	0x3d8ee89f	0.06977963
223	0x3d9a810b	0.07544144
224	0x3df1a12e	0.11798321
225	0x3cef298d	0.029194618
226	0xbd0b7d69	-0.034055147
227	0x3e153f32	0.14574888
228	0x3dd3234c	0.10309467
229	0xbcdae0f6	-0.026718598
230	0x3def6a76	0.11690228
231	0xbd1ef6a7	-0.038809445
232	0x3c87d6ad	0.016581858
233	0xbd4f4de1	-0.05061138
234	0xbd38af1b	-0.04508887
235	0x3e298909	0.16556181
236	0x3c18d5b5	0.0093282955
237	0xbb92b1d8	-0.004476767
238	0x3e08798f	0.13327621
239	0x3dc0e470	0.09418571
240	0x3e09c7bf	0.13455103
241	0xbc919dab	-0.017775377
242	0xbd87a014	-0.06622329
243	0xbb45ef42	-0.0030202423
244	0x3b6983d7	0.0035631561
245	0x3e228594	0.15871269
246	0x3d959b11	0.07304967
247	0x3dc263f5	0.094917215
248	0x3e1a98d6	0.15097365
249	0xbc9ed5cb	-0.019389054
250	0x3e1fb3a2	0.15595868
251	0xbcfb73dd	-0.030694896
252	0x3d291c4f	0.041286763
253	0x3d6f0213	0.058351588
254	0xbdd7b29d	-0.10532115
255	0xbde603db	-0.11231204
