reference/models/multi_hand_gesture_classifier.tflite (tflite, 231236 bytes, 10 tensors)

sequential/conv1d/BiasAdd/ReadVariableOp f4 [64]
00000000: 3215 2fbc 632f a4bb 0000 0000 ada8 12bd
00000010: 1296 94be 274d ebbb f773 4fbc 42b3 d9bb
00000020: 1ae8 003e 772a cabb da92 123e cafb e13d
00000030: dc22 bbba 0000 0000 7c19 9cbd bf1d 66bc
00000040: 0000 0000 0766 23be 9355 2abc bd92 fbbb
00000050: a2ff 8b3e 0000 0000 3e67 823e 7f5d 0fbe
00000060: 3947 92be 49cc 14bd 0000 0000 44a0 1fbc
00000070: 0000 0000 5c0b 073e 563a 42bb 8b96 a2bc
00000080: c663 c5bb b5ad fcbb 0000 0000 acbd 823e
00000090: 71e6 d6bb 02a4 d0bb b520 bebb 2116 03be
000000a0: 5474 1dbe c777 1d3d 0000 0000 c3d2 3fbc
000000b0: 0000 0000 d543 09bc 0000 0000 676b 933e
000000c0: d22b 0abc ed41 01bc 4aa9 8cbe b622 51be
000000d0: 28f2 d7bb 4f69 e33c 35fa 7abe 5057 2bbc
000000e0: e61b 02bc 65f2 40bc 4a42 953c a4f7 e9bb
000000f0: 7a3b f6be b5bb 133e d7dc 25bc af42 a6bd
-0.010686206 -0.0050105317 0.0 -0.035805393 -0.29020745 -0.007180828 -0.0126619255 -0.0066436836
0.1258854 -0.006169613 0.14313832 0.11034353 -0.0014277357 0.0 -0.07622048 -0.014045178
0.0 -0.15956889 -0.010396379 -0.0076774047 0.2734347 0.0 0.25469393 -0.1400051
-0.28569964 -0.036327634 0.0 -0.0097428 0.0 0.13187927 -0.0029636822 -0.019847175
-0.006023857 -0.007711137 0.0 0.25535333 -0.0065582325 -0.0063672075 -0.005802239 -0.1280141
-0.15376407 0.038444307 0.0 -0.011707964 0.0 -0.008377989 0.0 0.2879288
-0.008433299 -0.007889253 -0.27472907 -0.20423397 -0.0065901466 0.027760176 -0.24509509 -0.010457829
-0.007941222 -0.011776541 0.018220086 -0.0071401168 -0.48092252 0.14427073 -0.010123453 -0.08118188

sequential/conv1d/Conv1D f4 [64, 1, 3, 84]
00000000: 3ab1 b13d 5c07 2ebd 00fe 81bb 409e b9ba
00000010: 840a 08bd a000 50bd 840f c4bd f0a2 7c3c
00000020: e086 2dbd 428a 8fbd 9dd1 75bd 4ca0 e3bd
00000030: 4878 813c 8cb0 7b3d 4415 a2bc 8095 42ba
00000040: f856 553d 70b3 683c c852 4cbc f220 d53d
00000050: 9c2b b5bc 2e87 46bd 3c31 723d bcae ce3d
00000060: ffcc c8bd 1e90 993d 60af 69bc 2aed 91bd
00000070: 14df e9bc d739 ecbd 4531 e6bd 416e 63bd
00000080: b050 473d 227f 80bd 0062 c339 3479 8bbd
00000090: fc26 993d 94f8 583d c0da b2bd c0f2 383c
000000a0: e46a 9bbd 24e7 793d 4c73 da3d d054 c2bc
000000b0: 6654 93bd 03d0 c7bd b132 c1bd 4431 2e3d
000000c0: ae73 10bd a8d0 233d a832 9d3c 783e e23c
000000d0: 9894 6d3d b4bc 8ebc d086 77bc 15ed a6bd
000000e0: 8050 9bba ca8c cf3d 2474 e13d f350 d6bd
000000f0: c744 debd 5880 a1bd 2a9e b63d 7ebd 1dbd
00000100: a0f0 c63d e8f4 ad3c 42dd 8dbd 6097 37bc
00000110: a0c1 a5bb 44dd ddbc 1068 91bd 1c5c 2a3d
00000120: 2404 b8bc 6005 c2bd 4b92 a6bd f062 abbd
00000130: 321a 9bbd f82a 8fbc 04f4 14bd ec3b a93d
00000140: 9808 be3c 3e46 84bd e2fb 8ebd 49e7 d4bd
00000150: e8a6 2a3c 77ca ce3d 2fe1 d23d 577d d4bc
00000160: 66ba ab3d 76a8 363c 92ba 28bc 6017 dcbd
00000170: b024 0cbc ba50 bf3d b34e 30bd eb4d 7b3d
00000180: a382 fbbc 6e2e 03bd 192d 533c f20c 1d3c
00000190: 3785 b6bb 666f c43d 273f e3bd 1616 973d
000001a0: ac4f a83d 48ab c5bd 7e8f c7bd 8f31 f6bd
000001b0: 2f99 00be f68a 873d 68c0 debd 2fd5 d93d
000001c0: fa70 ebbd 894d 933d de17 73bd 9e2b c0bd
000001d0: 12e2 143d d8f2 df3c adbb 7f3d ed8f c03d
000001e0: 55d2 21bd e734 013d b0e8 88bc fcc9 f3ba
000001f0: 4e05 cebd b754 a9bb 24f1 25bd 5125 c0bc
00000200: 02f4 a63d d6f1 2e3d b3a8 0abd e1cd 343d
00000210: 5871 e1bd 655e a0bd ad31 1d3c c0c0 f9bc
00000220: c05b 73bd c1a7 a6bc 548a 9cbd 4f96 e9bc
00000230: 12e8 4bbc cb67 d13d 49c1 43bd bf81 8a3d
00000240: 4ada 8dbc b6ad 9dbc 4e7c bdbd 2770 c53d
00000250: def4 623d 7fc9 febc 5eeb a43b d70b 89bc
00000260: bd61 723c 4b77 073d 595f 01be ceec 163c
00000270: df2e 873c 8535 c2bd dd96 bc3d fc65 b5bd
00000280: 18e2 bebc 4a4d 1b3d 8773 593c de52 d13c
00000290: 18a1 efbc 675c f6bd ab48 4c3c 49b5 35bd
000002a0: 8ca4 b13d 0c7f 603d 4534 24bc db59 9b3d
000002b0: ecb7 c63d 68e2 a03d f209 d3bd 99a8 ccbd
000002c0: d295 06bd ee76 8ebb 847b 153d ae01 5d3d
000002d0: e954 d9bd ee2d 553d 289f 4abc c303 f1bd
000002e0: 71e3 1fbd 4d30 bbbd 84ae a2bd a3b6 6ebc
000002f0: d3a8 3ebd 6c26 5abd 0dd2 993d 6890 a13c
00000300: 86d7 93bd 0d8c acbd db00 1c3b 154e adbc
00000310: 645a b63d f88a 72bd fd20 80bd 4b9c 74bd
00000320: 0560 0a3d 5df1 a1bd 083b efbc b955 803c
00000330: 211e 4c3c 6c94 24bc bb78 193c f3ef e8bb
00000340: 4bcf 6cbd bd40 d33d d3c8 fd3b 5706 0c3d
00000350: 9a37 18bd 660f 573d b713 303d be37 9cbb
00000360: 44ac c93c 8d96 9cbd 6d36 1a39 8c82 063d
00000370: 7c35 8bbd 7464 de3b b18d 573d 38ff 0c3d
00000380: 2abf c33c da13 123d 3076 473c ac64 813b
00000390: 90e9 2dbd 0951 90bd 5547 c63d 6e06 9b3d
000003a0: 9d73 873d ef51 873d 5752 e7bb b2b0 97bd
000003b0: 1179 343d 53c0 683d 7b5b 803d 96da 7f3d
000003c0: 80d6 963d c569 203d 927f c43d 1ba2 8b3d
000003d0: cfaf 52bc d064 dabd 3a29 ddbd 8098 53bd
000003e0: c1cf f9bd 9f40 b63d 3d26 1a3d 6da1 e0bd
000003f0: da9c 21bd cdb5 bebc b3d1 783d 7402 453d
0.086763814 -0.042487487 -0.0039670467 -0.0014161542 -0.033213153 -0.050781846 -0.09573272 0.015419707
-0.042364955 -0.070087925 -0.060014356 -0.111145586 0.015804425 0.061447665 -0.01978553 -0.000742279
0.052084893 0.0142029375 -0.012470908 0.104066744 -0.022115521 -0.04846876 0.059128985 0.10091922
-0.09804725 0.07498191 -0.014263004 -0.071253136 -0.028548755 -0.115344696 -0.11239866 -0.05552507
0.048660934 -0.06274249 0.00037266314 -0.06810227 0.07478139 0.052971438 -0.087331295 0.011288345
-0.07588747 0.06101145 0.106665224 -0.023722082 -0.07193832 -0.09756472 -0.09433497 0.042527452
-0.03526657 0.039993912 0.019189194 0.027617678 0.05800304 -0.017423965 -0.015107825 -0.081506886
-0.0011849552 0.10134275 0.1100848 -0.104646586 -0.10852962 -0.07885808 0.08916886 -0.038510792
0.09713864 0.021234944 -0.06926967 -0.011205524 -0.0050584823 -0.027083047 -0.070999265 0.04159175
-0.022462912 -0.094736814 -0.08133372 -0.0836848 -0.07573356 -0.017476544 -0.036365524 0.08263382
0.023197457 -0.0645871 -0.069816366 -0.10395677 0.01041577 0.10097211 0.102968566 -0.025938673
0.08385162 0.011148563 -0.010298388 -0.10746646 -0.008553669 0.09341569 -0.043043803 0.061353605
-0.03070194 -0.0320267 0.01288917 0.009585606 -0.0055700797 0.0959156 -0.1109603 0.073772594
0.08218321 -0.0965181 -0.09744166 -0.12021171 -0.12558435 0.066183016 -0.10876542 0.10636365
-0.11496158 0.07192523 -0.059348933 -0.09383319 0.03634841 0.027337477 0.06243484 0.09402452
-0.03950723 0.031544592 -0.016712517 -0.0018599625 -0.100596055 -0.0051675695 -0.040513173 -0.023455294
0.081520095 0.0427111 -0.03385229 0.044141654 -0.11007947 -0.07830504 0.009594363 -0.030487418
-0.05941367 -0.020343663 -0.076435715 -0.028514056 -0.012445467 0.10224875 -0.047791753 0.06763028
-0.017316002 -0.01924787 -0.09252225 0.09640532 0.055409305 -0.03110194 0.005032941 -0.016729278
0.01479381 0.03307275 -0.12634028 0.009211732 0.016501842 -0.09482864 0.092084624 -0.088573426
-0.02330117 0.037915505 0.013272173 0.02555221 -0.02925162 -0.12029343 0.012468497 -0.04436234
0.08673963 0.05480866 -0.010022228 0.07585498 0.09703049 0.078556836 -0.10304631 -0.09993095
-0.032857724 -0.0043476736 0.036494747 0.05395668 -0.106118985 0.052045755 -0.012367047 -0.117682956
-0.039035264 -0.09140072 -0.079434425 -0.014569911 -0.046547722 -0.0532593 0.07510767 0.019722179
-0.07218842 -0.0842515 0.002380422 -0.021155396 0.089039594 -0.059214562 -0.06256292 -0.059719365
0.033782978 -0.079073645 -0.029202953 0.015665876 0.012458355 -0.010045152 0.009367163 -0.0071086823
-0.057814877 0.10315082 0.0077448874 0.034185734 -0.0371624 0.05250492 0.04298755 -0.004767387
0.024618275 -0.07645903 0.0001470686 0.032839343 -0.06797311 0.0067868773 0.05262536 0.034423083
0.023894865 0.035663463 0.012174174 0.0039487686 -0.04245907 -0.07046706 0.09681574 0.07569586
0.06613848 0.066074245 -0.007059376 -0.07406749 0.04406077 0.05682404 0.062674485 0.06246432
0.073651314 0.03916337 0.095946446 0.068180285 -0.012859299 -0.1066376 -0.10798879 -0.051659107
-0.12197829 0.08899044 0.037634123 -0.109682895 -0.039456226 -0.023280049 0.06074686 0.048098043

sequential/lstm/Read_2/ReadVariableOp f4 [256]
00000000: 0a7f 3bbe 765d 783e 0116 f73d 42e1 e03d
00000010: 827c e93d 74a5 0c3e 2169 573c 3073 5c3d
00000020: 33ef b13d 5ea6 03be e970 473e b8d5 b9bd
00000030: f4d2 223e fcc3 1d3d 9bc9 c33c 6cf7 22bc
00000040: 885d 33bd abd2 12be 0aad 393d 44e3 353d
00000050: dc72 6c3e 672a f1bd 2dca 2ebe 4549 113e
00000060: bb72 943e e820 cdbd 62d3 ed3d dc64 f73d
00000070: acf7 15bd 7c03 8fbd 4b4f 66bd f89c 883c
00000080: c1de 01bd bccc 0a3e a33f 8cbd 9e9d 4c3e
00000090: 693c 58bd de30 d73d 3d5f 2b3e 397d 10bd
000000a0: 1e6a c23b cb8a ac3e 5dd7 f23c c274 c33c
000000b0: 3253 a6bc 6301 d23d 0945 1e3d 15b5 0abe
000000c0: e073 b03d a976 053e 888a 153e 3a81 1abe
000000d0: cb80 ea3d 230d 7e3d a27a 82ba 5815 9dbd
000000e0: f85b 653e ba0e 903d f745 593d 0408 533e
000000f0: 16fb 733e 93b1 793d b7a2 4c3c 1433 3f3e
00000100: 597e 8a3f fc68 933f 6277 883f 91b5 7b3f
00000110: 32d6 793f 8efe 7e3f 8436 843f 72e0 5d3f
00000120: 00db 813f f975 873f ead1 823f d71d 8d3f
00000130: 5865 983f c809 603f 3740 6f3f 796c 653f
00000140: bfe8 9d3f 29ba 763f f53a 733f c6f3 7e3f
00000150: 23ef 6c3f befa 733f 3df9 703f 9b0b 843f
00000160: 6aa4 8e3f d5b9 893f 5f0c 7c3f da0d 833f
00000170: 9f47 833f 9fda 663f ffe6 8f3f a86e 6a3f
00000180: 907b 703f 3d34 873f 2825 523f 0cb1 943f
00000190: 82ad 833f b7b1 7a3f 60f9 813f e840 813f
000001a0: 4160 893f 3c00 8e3f 6e21 603f e1c2 803f
000001b0: 7205 863f 075a 8f3f 219f 823f a5e2 763f
000001c0: 2ca5 883f 8c88 953f 7561 623f 1860 893f
000001d0: 3bda 743f 2ae5 893f 683b 973f 0313 803f
000001e0: 7df9 873f e94c 7a3f b95f 7c3f 4e1e 903f
000001f0: 8d38 883f 249e 943f c8d7 8c3f bd8e 873f
00000200: 7a45 403d 2ffe cdbc 9a0e 8ebe 2ed3 5ebb
00000210: 18bc 253c e432 86bc 894d ef3c 00bb ec3d
00000220: cab9 c0bc 0acf 2ebd 5fb0 e73d 01bb 8cbd
00000230: bc46 1c3c 57dc ddba 5844 e13e c2b8 cebc
00000240: f72f 3f3d b911 3c3e eb54 aabc 4ed8 39bc
00000250: 5e23 9e3a 39b3 6b3d fd94 51be 0033 61bc
00000260: 3de9 ee3d 4e86 02bd 3771 85bc b293 8c3c
00000270: 168c 0abe dd45 2abe 3680 223d 1509 c2bd
00000280: 4365 69bd 4097 0f3e 4484 83bd bcf6 08bd
00000290: b3f7 9dbb e394 bfbd f4fd 533c bf4e a5bd
000002a0: d64a 0cbe d13b 35be e841 1b3d f77a 0b3c
000002b0: 9fcd c93c ff48 cabd ccb5 95bd 7ffc 12be
000002c0: f1de ab3d c055 f13d 2df1 a53d 3961 87bd
000002d0: a3d4 9cbc 2200 87be ded0 e73c e8b9 fd3c
000002e0: 6bec 0c3e a1e7 6d3d 3c77 ef3c 6c0e e53b
000002f0: 35db ea3d a3fa 263d 061a 8dbc 80d7 47bd
00000300: 1ee5 913d 544d fb3d 71b1 0b3d 2be8 3f3e
00000310: df69 d33e b672 283e 8782 5d3d f483 b63d
00000320: 9c3d 193c f360 bd3d 6290 32bc 4d14 ae3d
00000330: 1281 a43e 4551 553d b851 4a3e c77d 733d
00000340: 896a 693e a410 283e a764 14bd 0888 103e
00000350: 1fa9 2e3e eed4 1a3d 925d 1b3e 0256 303e
00000360: aa6a 543e d9b6 f73d 063b ba3e 19a5 9f3d
00000370: 0ab3 52bd 45e0 023c 20e7 7d3e c8c0 803d
00000380: 4cb5 bbbc 3fbe d13c 0ac9 353e 71b9 803e
00000390: 1825 493e 8445 143e d502 d63d 82f6 7abc
000003a0: a034 573d 18d1 a63b b846 463e e048 2b3e
000003b0: 5995 dc3d 823c de3d 1329 173e 8523 a33c
000003c0: a53d 353d ca80 303e 9adb 853d 6bcd 7dbc
000003d0: b7d7 313e 33ca 7f3d 986d 1e3e 736a 053e
000003e0: 4205 923c 3c1e cd3d fe5f 973d 269b babc
000003f0: ab93 863e 1727 683e 291c 473c 84fb ed3d
-0.1831018 0.24254403 0.12064744 0.109804645 0.11400701 0.1373499 0.013147623 0.05382079
0.08688202 -0.12856433 0.19476666 -0.09073967 0.15900785 0.038516983 0.023899844 -0.009946685
-0.04379037 -0.14338176 0.04533104 0.04440619 0.2309069 -0.11775666 -0.17069311 0.14188106
0.28993782 -0.10016042 0.11612584 0.12079784 -0.03661315 -0.069830865 -0.056227963 0.016676411
-0.031706575 0.13554662 -0.06848075 0.19982001 -0.052791987 0.105073676 0.1673555 -0.03527567
0.0059330603 0.3369964 0.029643709 0.023859385 -0.020303342 0.10254171 0.038640056 -0.1354564
0.086158514 0.13033547 0.14603627 -0.15088359 0.114503466 0.062024247 -0.000995476 -0.076700866
0.22398365 0.07034059 0.05304524 0.20608526 0.2382625 0.060960364 0.012489966 0.18671829
1.0819808 1.1516414 1.0661433 0.98323923 0.9759246 0.9960717 1.0329137 0.866706
1.0144958 1.0582877 1.0220311 1.1024731 1.1905928 0.87514925 0.9345736 0.8961864
1.2336653 0.9637781 0.95011836 0.9959072 0.92552394 0.9530448 0.9413031 1.0316042
1.1143925 1.0759836 0.98456377 1.0238602 1.0256232 0.9017734 1.124237 0.915751
0.9393854 1.0562817 0.82087946 1.161653 1.0287325 0.9792742 1.0154228 1.0097933
1.0732499 1.1093822 0.8755101 1.0059472 1.0470412 1.1199349 1.0204812 0.9643958
1.0675406 1.1682296 0.8842996 1.073245 0.95645493 1.077306 1.1815004 1.0005802
1.0623013 0.97773606 0.9858356 1.1259248 1.0642258 1.1610761 1.1003351 1.0590435
0.046941258 -0.025145618 -0.27745515 -0.0034000385 0.010115646 -0.016381688 0.029211776 0.11559105
-0.023526091 -0.042677917 0.11312937 -0.06871606 0.009538349 -0.0016926628 0.43997455 -0.025234584
0.046676602 0.18366136 -0.020792445 -0.011343075 0.0012064984 0.057543967 -0.20466991 -0.0137450695
0.116655804 -0.031866364 -0.016289337 0.01716027 -0.13530001 -0.16628213 0.039673053 -0.094743885
-0.056981336 0.14022541 -0.06421712 -0.03343843 -0.004820788 -0.0935457 0.012938965 -0.0807166
-0.13700423 -0.176986 0.03790465 0.008513204 0.02463418 -0.09877204 -0.073100656 -0.14354132
0.08392132 0.11783934 0.08102641 -0.066103406 -0.019144362 -0.2636729 0.028297838 0.030972436
0.13762061 0.058082227 0.02923166 0.0069902446 0.11467592 0.04076637 -0.017224323 -0.0487895
0.07123779 0.122706085 0.03410477 0.18740909 0.4129171 0.16450009 0.05407956 0.08911887
0.009353068 0.09247007 -0.010898681 0.08499966 0.32129723 0.052079458 0.19757736 0.059446122
0.22794546 0.16412598 -0.036228802 0.14114392 0.17056702 0.03780072 0.15172413 0.1722031
0.20743814 0.12095422 0.36373156 0.07795162 -0.051440276 0.00798804 0.24795198 0.0628677
-0.022913598 0.025603412 0.17752472 0.2514148 0.19643056 0.14479643 0.10449759 -0.015317561
0.05254042 0.005090844 0.19362915 0.16727018 0.10770673 0.10851385 0.14761762 0.019914398
0.044248242 0.17236629 0.06536026 -0.01549087 0.17367445 0.06244869 0.15471494 0.13028888
0.017824773 0.100155324 0.07391356 -0.022779059 0.26284537 0.22671162 0.01215271 0.116202384

sequential/dense/BiasAdd/ReadVariableOp f4 [32]
00000000: 0628 7d3e ab75 6f3f ba75 4b3f 4295 3d3e
00000010: 235e 353f 3115 103f e19d 063f 8f1d 1f3f
00000020: 2ea4 9d3e e78f 283f 84c5 4e3e f044 b03e
00000030: 847c e83e 466f 183f f141 1a3f 2845 1c3f
00000040: fd29 583e d4e3 d93d e740 ae3d dce9 533f
00000050: 6606 bb3e 8171 903e b6a3 433e d345 513f
00000060: 96ea 173e 3052 6f3e fcf8 553f d750 a13e
00000070: 6bac 673f 3d31 993d f8c7 0bbc 4621 573f
0.24722299 0.9353892 0.7947651 0.18513969 0.70846766 0.56282336 0.52584654 0.6215448
0.30789322 0.6584458 0.20192534 0.34427595 0.45407498 0.5954479 0.6025687 0.61043024
0.21109767 0.10639158 0.08508473 0.82778716 0.3652832 0.28211597 0.1910542 0.8174717
0.14835581 0.23371196 0.83583045 0.31506988 0.90497464 0.074800946 -0.008531563 0.84035146

sequential/dense_1/BiasAdd/ReadVariableOp f4 [100]
00000000: 298b f73e 62c2 3abd 4fe0 143d 4f07 f7bd
00000010: 2e6a e63e 7229 16bf edea 973e 7db6 9c3d
00000020: 94ab 453f 1235 1dbf a00a 683f 6853 5ebf
00000030: c704 66bf 2574 5ebf aab6 083f e49e b5bd
00000040: 2220 d7be aec3 643f 8853 2abf 95b8 953e
00000050: 28ef 10bf 6670 06be cddc a53e 48eb c73e
00000060: d6ff 16be e3e8 c53d 582b 3a3f 8445 b9bd
00000070: 1f8c a13e 07a1 143e 7de0 a0be 0a09 b8be
00000080: 682c dabe a415 74bd 720b 3c3e 58b9 243e
00000090: d07d ecbd 2bff 09bf fe06 113f 27c9 1ebe
000000a0: 8355 dcbe 1cff 12be 68ab 473e 252c 043f
000000b0: 7672 9ebc d44a 4e3f b1f7 1c3e ded4 16bf
000000c0: 34ab 0ebe 31e7 7bbd d2f2 10bf 766f bf3e
000000d0: cc97 683e 5e86 8ebe b934 20bf 704f 8b3e
000000e0: 6774 e5bd af17 8dbd 5160 4e3e 99e1 323e
000000f0: 95b8 04bd d05d 7a3e 5e66 08be 9222 ecbd
00000100: 4c41 a4bd 6999 373f 9a9f c0be 37b5 08bf
00000110: 7b01 b6bc 552f d7bd 96d7 193f 8ca0 8fbd
00000120: 14a3 42bf 1f12 2bbf 2eaf 85be d94e abbe
00000130: 269a 4ebf cf99 483e 9988 2bbf 857a ec3d
00000140: e409 e43e eaa2 d7be 1acb 483f 7b96 08bf
00000150: 7bfb eebe 7de2 56be 4174 a03d 2831 2abf
00000160: 3302 963e 7e7f ddbe 66ba 8dbe 35c5 19bd
00000170: dcdc d93e 8952 f13e 9328 52be 3c80 423f
00000180: 4cf7 6a3d add7 28bf ccdb 8fbf d3fd e8be
0.48348358 -0.045595534 0.03634673 -0.12061941 0.45002884 -0.5865699 0.29671422 0.076519944
0.7721493 -0.61409104 0.9064121 -0.8684602 -0.8985104 -0.8689597 0.53403723 -0.088681966
-0.42016703 0.89361084 -0.6653371 0.29242387 -0.56614923 -0.13128814 0.3239502 0.39046693
-0.14746031 0.0966356 0.7272239 -0.09046462 0.31552216 0.14514552 -0.3142127 -0.35944396
-0.42612004 -0.05959095 0.18363741 0.16086328 -0.11547434 -0.5390498 0.56651294 -0.15506421
-0.4303399 -0.14355129 0.1949898 0.5162986 -0.019341689 0.8058293 0.15328862 -0.5891856
-0.13932496 -0.06149978 -0.56620514 0.37389725 0.22714156 -0.2783689 -0.6258045 0.27209044
-0.112038426 -0.06889283 0.2015393 0.17468871 -0.032402594 0.24449849 -0.133203 -0.11530031
-0.08020267 0.7171846 -0.37621766 -0.5340151 -0.022217503 -0.10507075 0.60094583 -0.07013044
-0.7603009 -0.66824526 -0.26110214 -0.33458593 -0.8070396 0.19589923 -0.67005306 0.11546806
0.44538796 -0.4211648 0.7843491 -0.53354615 -0.4667624 -0.20984836 0.07834674 -0.66481256
0.29298553 -0.4326133 -0.27681273 -0.037541587 0.42551315 0.47133282 -0.2052329 0.7597692
0.057364747 -0.65954095 -1.1238952 -0.45506153

sequential/dense/MatMul f4 [32, 64]
00000000: ddf0 bbbe 1522 12be a4c7 8fbe c535 92bd
00000010: fe77 0b3e 59e8 1e3f 9788 56bd f999 dd3d
00000020: 645c 653e 9376 993d 2918 063f 82d4 bfbd
00000030: 3bb9 a03f 9f48 3d3f 14e7 253e bb5d c1bc
00000040: 0c48 3c3f 74f7 b03e 093b 1cbe 69ba 853e
00000050: 46a1 20bf 5763 bdbd e6d1 d8be 91ae 3ebf
00000060: bbd5 a93f b64d e23c 3d70 ebbf 08f7 9b3c
00000070: 4b28 2a3c df5f 0ebf 88a1 15bf 9277 25bf
00000080: bc76 3cbe ca58 313e 7e59 2ebe 4293 e8be
00000090: 1d47 d2be 9574 b5be 8159 cbbe 7147 f3bd
000000a0: 297a ccbe 5912 a0be 4024 da3e c7fa e23e
000000b0: d905 fd3c 2dbf 3f3e 789a 65bd 6122 25bf
000000c0: 0bcc 3b3f d334 043d 453a acbf 93ba 8ebd
000000d0: a358 3fbe e49a 1ac0 9925 80be 8a20 6bbd
000000e0: 09e0 a2bc a2a6 a8bd de0f 2c3d af44 f7bc
000000f0: 8227 d43c 5868 aa3e 2522 cfbe 9849 1f3f
00000100: f909 aa3d e26f ae3e 48cd d23d b836 04be
00000110: bb9c 53be f35e ad3d 18d8 e33c d480 7e3e
00000120: 07a9 03be 5914 323e 66ef 303f 9bba 8cbc
00000130: f2b2 b4be b44e c8bf 6b06 36be a37c 323e
00000140: 4237 1e3f 5ba0 d3be f20e fabe 2bf3 5dbe
00000150: f8ed 14bd 28f8 55be 4d12 b3be faf2 3abf
00000160: a85c a83d e9b3 8c3e 1c8a 9cbe 47f7 2e3c
00000170: 2a23 35be 1dbf 1d3f a8ac 5e3f b0da 973e
00000180: 9085 d4be 3b32 91be e04d 0b3d 25b0 123f
00000190: 9c0e aabd 50ae aa3e c9d1 febe 2687 97be
000001a0: 56b2 cdbe 15bd 563f f792 5e3e 09c2 b3be
000001b0: a6ff 413d c3bf 25be 173b 863e 1adf f13e
000001c0: 3949 c0be db78 193e 371b cf3b b434 d4be
000001d0: 989a 2cbf 015b d53e 9e6e 173f 0e3d aa3d
000001e0: 2638 1a3f d06f 583e 7683 023f 2b10 2bbf
000001f0: fcfd 873e 6e9f d1be 3351 2c3d e808 5f3f
00000200: 273c 983e e1b9 343d c8e4 d3bd 1d6f 923c
00000210: c152 023e 677f f0bd 01e9 803e 065e 5dbd
00000220: 796c 9e3d 19c2 4ebc 316b 363e bdf4 91bb
00000230: fda8 a23f c4b7 dc3e 9c60 083b 0f8e 1e3f
00000240: 5a7a 803f 4605 31bf 7729 fa3e 7166 dd3e
00000250: 13b3 33be 13a0 2f3e 4615 8dbf d0a6 8abe
00000260: fe32 7cbd 2c19 9f3d 77e6 8dbd 3a21 e13e
00000270: 8d20 99bf 4e57 c5bd 4920 da3e 0db0 d9be
00000280: b156 a0bd 3ebd 17be 059b a5bd 5d4d 32bf
00000290: b1da 98be 5c98 85be 4972 40be 225f 86bf
000002a0: 2fdd 16be 6c69 c7bd f317 d0be 5b1b 0a3e
000002b0: 2df6 1ebf 577e 6b3e f367 933e c217 f5bb
000002c0: d1a1 8f3d b2be 6a3d e380 b4be e4bd 73be
000002d0: cc01 423f d429 123d d295 b2be 34e7 723d
000002e0: 7079 1b3f 27fe a03e 1233 81bf 349c d5bd
000002f0: 02ca fc3e 11ff 963f 8f56 bb3d bd32 613d
00000300: e5f4 0abf 0536 523e ee83 dbbe d6de 41bf
00000310: 4e0a 723e 9711 0ebe e3ee 37bf 549c 9a3d
00000320: ff57 573e 6d8f ccbe a296 71be 2101 273e
00000330: 3112 12be 3dbc 543f 3800 d1be 221f 113f
00000340: 127d 833e 8977 07be b1e1 dd3e 8b85 b5bd
00000350: dd1b 00bf a3f4 e9be 5629 57bd b6a7 07bf
00000360: abd4 933d 7e9d 9bbe f950 cd3d 108c 233e
00000370: cc1e 3ebe 6867 7fbe 513f 7c3e 34d2 3a3e
00000380: f6ae b43e 4c28 103f 10d8 3c3f db45 4bbf
00000390: a0f5 c5be 7703 053d 5fc9 edbe b396 bc3e
000003a0: 1158 ef3d 01a5 93be 0019 0ebe ff3a f53c
000003b0: e862 0bbe a727 ef3c dc0e a03f 57eb 4fbc
000003c0: cb64 893e 9461 e2be b32f f0be 64d4 263f
000003d0: 34e0 37bd 39a4 b43d 08a1 99be 3fbb 21bf
000003e0: 9fdb 19be c2ea d23f a9fb 42be d719 833e
000003f0: f895 d93e 244e adbd ef82 1c3e e86d 023f
-0.36707202 -0.14270814 -0.28082 -0.07139162 0.13619992 0.62073284 -0.052376356 0.108203836
0.22398525 0.07493319 0.52380615 -0.093667045 1.2556528 0.73938936 0.1620143 -0.023604264
0.73547435 0.34563792 -0.15256895 0.26118782 -0.62746084 -0.09247463 -0.4234764 -0.7448512
1.326835 0.027624946 -1.8393627 0.019038692 0.010385583 -0.5561504 -0.584496 -0.64635575
-0.18404669 0.17319027 -0.17026326 -0.4542485 -0.4106988 -0.35440508 -0.39716724 -0.11878861
-0.3993695 -0.31263998 0.42605782 0.44331953 0.030886577 0.18725272 -0.056055516 -0.64505583
0.7335822 0.03227694 -1.3455282 -0.0696918 -0.18686156 -2.4157038 -0.25028685 -0.05740408
-0.019882219 -0.08234908 0.04200732 -0.030184118 0.025897745 0.33282733 -0.40455738 0.6222167
0.083026834 0.34069735 0.102930605 -0.12911499 -0.20665257 0.08465376 0.027813002 0.24853832
-0.12857448 0.17390575 0.69115293 -0.017178824 -0.35292774 -1.5649018 -0.17775886 0.17430358
0.61803067 -0.4133328 -0.48839527 -0.21674792 -0.036359757 -0.20895445 -0.349749 -0.73027
0.08220798 0.2748101 -0.3057412 0.010679073 -0.17689195 0.6161974 0.869822 0.29659033
-0.4150815 -0.28358635 0.034009814 0.57300025 -0.08303568 0.33336115 -0.49769428 -0.29595298
-0.40175122 0.83882266 0.2173575 -0.35108975 0.047362946 -0.16186433 0.26216957 0.47240525
-0.37555864 0.14987509 0.006320383 -0.4144646 -0.6742339 0.41670993 0.59153163 0.083124265
0.60241926 0.21136403 0.50981843 -0.66821545 0.26560962 -0.40941948 0.042069625 0.87122965
0.29733393 0.04412258 -0.10346371 0.017875249 0.1272688 -0.1174305 0.25177768 -0.054044746
0.07735533 -0.012619519 0.17814328 -0.004454224 1.2707821 0.43108952 0.0020809537 0.61935514
1.0037339 -0.6914867 0.4885976 0.4324222 -0.1754878 0.17150907 -1.1022117 -0.27080393
-0.061572067 0.07768473 -0.06928723 0.43970662 -1.1963059 -0.09635793 0.42602757 -0.4251713
-0.07829035 -0.14818284 -0.08086208 -0.69649297 -0.29854348 -0.26092803 -0.18793596 -1.0497782
-0.14732812 -0.097369045 -0.40643272 0.13486998 -0.62094384 0.22997414 0.28790244 -0.007479639
0.07013286 0.057310767 -0.35254583 -0.23802906 0.7578399 0.03568442 -0.3487993 0.059302524
0.60732174 0.31443903 -1.009371 -0.10430184 0.4937287 1.179659 0.09147369 0.05498003
-0.5427993 0.2052842 -0.42874092 -0.75730646 0.23636743 -0.13873897 -0.7184889 0.075493485
0.21029662 -0.39953175 -0.23592618 0.16309024 -0.14264752 0.8309973 -0.4082048 0.5668813
0.2568136 -0.13229193 0.4333625 -0.08863362 -0.50042516 -0.45694456 -0.052529655 -0.5299028
0.072182976 -0.30393595 0.1002521 0.15971398 -0.18566436 -0.2494179 0.24633528 0.18244249
0.35289735 0.5631149 0.73767185 -0.79403466 -0.3866396 0.032474007 -0.46442696 0.36833724
0.11686719 -0.28836825 -0.13876724 0.029935358 -0.13611948 0.029193712 1.2504535 -0.012690387
0.2683471 -0.4421507 -0.46911392 0.6516783 -0.04489155 0.088203855 -0.3000567 -0.6317634
-0.15025185 1.6477892 -0.19041313 0.25605652 0.4249723 -0.0846217 0.15284322 0.50948954

sequential/dense_1/MatMul f4 [100, 32]
00000000: 6a22 c6bf 8373 16bd 5fec a93d 44d7 47bf
00000010: 1dad 35bf a04f afbf 66a6 503e d657 b3bf
00000020: ec2d 0d3e 8736 0fbf 081a b63d b155 21bf
00000030: 94ac 77be bb22 84bf 3a7a 84bf 414e 3fbf
00000040: 2b0b 873e 5ab1 703e b0a8 8bbc 67df 2ebf
00000050: 3739 8fbe fcf0 5bbf 6e8d 1d3d c0a2 413d
00000060: f52b fa3d 3062 bc3d 00ae 04c0 3343 f7be
00000070: 6191 0b3e fdac a8bf 44e5 8abe 4597 35bf
00000080: 367a c6be d5c9 b33d c1fc 18c0 a799 0cc0
00000090: 8b96 51bf 0f43 2b3e ffdf 48bf 0a2a 0fbe
000000a0: f6b5 d3be 4b00 953c 66c1 6a3d 578e 87be
000000b0: e487 5c3e 9de6 ccbd 09ae 1dc0 6fab 143e
000000c0: 151e 6fbe 6464 6ebf 9b6a 93bf dd9e 3c3d
000000d0: 8b64 6e3e efd2 18bf 9dc3 66bf 1a8b b7bf
000000e0: 753e 8ebf 74bd 153e 2bf6 32bf cc4c 94bf
000000f0: d5b7 423d dc85 133e 426c 99be e2d9 6ebd
00000100: 4878 86bf b6d8 02bf 0d3e 0ec0 45ed 14c0
00000110: 1e30 6dbf def1 463e 4110 c53d a81e b0bf
00000120: 7437 e33d 86b4 8dbf 49db 40bf 9749 32be
00000130: 868c 6c3e ef71 62bf 1425 febf 4610 f23d
00000140: 7bf4 f13d f723 9abd 897b 56bf 216f d23d
00000150: bdca 713e 0215 02bf 39b8 cdbf 5307 f5be
00000160: f05c 98bf fb1e aabe aaf3 85be b1cf 5e3d
00000170: ffbc 383d cf7b 3c3e 5ce9 5dbf 8f14 7f3d
00000180: 8658 383e c4c9 adbd 50d2 cd3d 6f95 82bf
00000190: e005 523e 28d6 3abf def0 2cbf 9d41 06bd
000001a0: 1e02 3cbf d63b f2bd 095c 123e 444b 8bbf
000001b0: 49f4 533e f921 d9bf c8ec 0bbf 0a95 9abf
000001c0: c9c9 7d3e b98e edbe 884e adbe dd78 d1bf
000001d0: a5a2 babf 0735 f9bf 4a08 143e 0ed5 09bf
000001e0: 5f16 473d 6ddc 4d3e 9d38 59bf c6cc edbf
000001f0: fca5 263e fa30 e2bf 80c2 4e3e 8f6e 21be
00000200: 65e0 773e b764 09bf 945a fe3d eff4 793e
00000210: dab2 b4bf 40bd b2bf 0048 1b3e 7061 48bc
00000220: 27c7 063e 46df e7be fb2a 73bf 8ccf 88bf
00000230: a25c 18bf 2697 adbf dbfc 0d3e 4b82 b9bf
00000240: 1567 a3bf cf29 95be 8c0d 8bbe 13f7 90bf
00000250: 03b4 a6bf 471a 973d 8a1e 833e 3c33 febd
00000260: 3614 8dbc a129 99bf 0b50 09be e1dc 44bf
00000270: 421a dfbf fd71 15bf 99a6 123e 4d7d 7dbf
00000280: b0f1 3e3e 1961 22bf 545d 643d c413 c7bf
00000290: 3da8 30c0 697e abbf 48c3 2fbf 2e9b 563c
000002a0: 2d68 253e 2749 143e 2264 45bd e1ca 4abf
000002b0: 9455 2f3d 7ede efbd 4396 8c3c 3713 933d
000002c0: d2cc 63be e706 11be 5307 033e 67fd dd3c
000002d0: 4e29 72be c476 aabf e037 cf3d 1b5f 14c0
000002e0: 4a6e cc3d 709a 8e3d 97e4 3bc0 6eac 12c0
000002f0: b3f8 48bf 5cc1 af3d 4728 6a3d 546c a9bf
00000300: 5d9a 1fbf 773d 91bb e956 3f3e e1f1 3cbf
00000310: 2442 b3bf ae0f 0ebf 2fe1 523d 491a 323e
00000320: 8b77 efbf 6b4b 3e3e 3ba3 5ebe a022 cdbd
00000330: 7cc3 afbf 7505 093e d23c 623d b641 b83d
00000340: 9f32 e2bd 7070 21c0 d5d1 8dbb 6f31 233d
00000350: 6d7d b6bf 8f4d e1bf 115d e3be c4a3 56bf
00000360: 891d aebf 8e08 c6bf 77b5 a1bf 553c 14c0
00000370: 6d76 3abf ab1e 11bf a9e7 9cbd dd70 e73d
00000380: 3654 a7bf 977e b0bd ed97 543e ff01 78bf
00000390: 465d 78bf fb60 86bf 5c3c 363e 1917 123e
000003a0: a2e4 c8bf 509b 403e 3111 e1be 7623 a5be
000003b0: 3687 fbbe 4096 063e 29b7 b93b 6e97 b93d
000003c0: 4ad2 5b3e d0a7 0b3c eaef af3d c597 0ebd
000003d0: 182a c3bf 520a ffbf a030 b3bd 70e6 a7bd
000003e0: c002 62bf c4f8 53bf c21e 09c0 0142 27c0
000003f0: 35f5 223d 3ef8 17bf 60c4 11bf a9de ea3d
-1.5479252 -0.036731254 0.08297037 -0.78062844 -0.70967275 -1.3696175 0.20375976 -1.401118
0.13787049 -0.5594258 0.08891684 -0.6302138 -0.24186927 -1.0323099 -1.03498 -0.7472878
0.26375708 0.23505154 -0.01704821 -0.68309635 -0.2797334 -0.8591459 0.038464956 0.04727435
0.122154154 0.09198415 -2.07312 -0.48293456 0.13629676 -1.3177792 -0.2712804 -0.70933944
-0.38765115 0.08778731 -2.3904269 -2.1968782 -0.81870335 0.167248 -0.7846679 -0.1398088
-0.41349763 0.018188616 0.057313345 -0.26475784 0.21536213 -0.100049235 -2.4637473 0.14518522
-0.23351319 -0.93121934 -1.1516908 0.04604994 0.23280542 -0.5969686 -0.9014223 -1.4339325
-1.111281 0.14623052 -0.6990687 -1.1585937 0.047538597 0.14406532 -0.29965407 -0.058313258
-1.0505457 -0.51111925 -2.2225373 -2.3269818 -0.92651546 0.19428203 0.09622241 -1.3759356
0.11094561 -1.1070716 -0.753346 -0.17410885 0.2310048 -0.884551 -1.9855065 0.1181951
0.11814209 -0.07526391 -0.8378225 0.102751024 0.23612495 -0.50813305 -1.6071845 -0.4785715
-1.1903362 -0.3322676 -0.26162463 0.05439729 0.045102116 0.18406604 -0.86684203 0.062275466
0.18002519 -0.08485749 0.100498796 -1.0201854 0.20510054 -0.72983027 -0.67555034 -0.032777417
-0.7344073 -0.11827819 0.14292921 -1.0882344 0.20698656 -1.6963493 -0.54658175 -1.2076733
0.24784006 -0.4639795 -0.33848977 -1.636501 -1.4580885 -1.9469308 0.14456287 -0.5384072
0.04860532 0.20103617 -0.8485201 -1.8578117 0.16274256 -1.7671196 0.20191383 -0.15764831
0.24206693 -0.53669304 0.1241962 0.24409841 -1.4117081 -1.3964005 0.15164185 -0.012230262
0.13161908 -0.45287532 -0.9498746 -1.0688338 -0.59516346 -1.3561752 0.13865988 -1.4492887
-1.2765833 -0.2913346 -0.27158773 -1.1325401 -1.3023685 0.07378059 0.25609237 -0.12412116
-0.017221551 -1.1965829 -0.1340944 -0.76899534 -1.7429888 -0.5837706 0.14321364 -0.9901932
0.18646884 -0.6342941 0.055753067 -1.5552907 -2.7602684 -1.3397952 -0.6865735 0.013098521
0.16153021 0.1448103 -0.048191197 -0.7921582 0.042806223 -0.11712359 0.017161494 0.07181399
-0.22246101 -0.1416279 0.12795763 0.02709837 -0.23648569 -1.3317494 0.10118079 -2.3183048
0.099819735 0.0696305 -2.935827 -2.2917743 -0.78504485 0.08581802 0.057167318 -1.3236184
-0.62344915 -0.004432376 0.18685497 -0.7380658 -1.400456 -0.55492675 0.051484283 0.1739284
-1.8708357 0.18583457 -0.21741955 -0.1001637 -1.3731532 0.13380988 0.055233784 0.08996908
-0.110448115 -2.5224876 -0.0043279924 0.039842065 -1.4257027 -1.7601794 -0.44406942 -0.83843637
-1.3602763 -1.5471361 -1.2633504 -2.3161824 -0.72836953 -0.5668742 -0.07661373 0.11300824
-1.3072574 -0.08617895 0.2076108 -0.96878046 -0.97017324 -1.0498346 0.17796463 0.14266624
-1.5694773 0.18809247 -0.43958429 -0.32253617 -0.49126595 0.13143253 0.0056675863 0.09062086
0.21466938 0.008523896 0.08590682 -0.034812707 -1.5247221 -1.9925025 -0.08749509 -0.08198249
-0.88285446 -0.8280146 -2.1425023 -2.6134036 0.03978463 -0.5936316 -0.5694027 0.1146825

sequential/lstm/Read_2/ReadVariableOp1 f4 [256]
00000000: 0a7f 3bbe 765d 783e 0116 f73d 42e1 e03d
00000010: 827c e93d 74a5 0c3e 2169 573c 3073 5c3d
00000020: 33ef b13d 5ea6 03be e970 473e b8d5 b9bd
00000030: f4d2 223e fcc3 1d3d 9bc9 c33c 6cf7 22bc
00000040: 885d 33bd abd2 12be 0aad 393d 44e3 353d
00000050: dc72 6c3e 672a f1bd 2dca 2ebe 4549 113e
00000060: bb72 943e e820 cdbd 62d3 ed3d dc64 f73d
00000070: acf7 15bd 7c03 8fbd 4b4f 66bd f89c 883c
00000080: c1de 01bd bccc 0a3e a33f 8cbd 9e9d 4c3e
00000090: 693c 58bd de30 d73d 3d5f 2b3e 397d 10bd
000000a0: 1e6a c23b cb8a ac3e 5dd7 f23c c274 c33c
000000b0: 3253 a6bc 6301 d23d 0945 1e3d 15b5 0abe
000000c0: e073 b03d a976 053e 888a 153e 3a81 1abe
000000d0: cb80 ea3d 230d 7e3d a27a 82ba 5815 9dbd
000000e0: f85b 653e ba0e 903d f745 593d 0408 533e
000000f0: 16fb 733e 93b1 793d b7a2 4c3c 1433 3f3e
00000100: 597e 8a3f fc68 933f 6277 883f 91b5 7b3f
00000110: 32d6 793f 8efe 7e3f 8436 843f 72e0 5d3f
00000120: 00db 813f f975 873f ead1 823f d71d 8d3f
00000130: 5865 983f c809 603f 3740 6f3f 796c 653f
00000140: bfe8 9d3f 29ba 763f f53a 733f c6f3 7e3f
00000150: 23ef 6c3f befa 733f 3df9 703f 9b0b 843f
00000160: 6aa4 8e3f d5b9 893f 5f0c 7c3f da0d 833f
00000170: 9f47 833f 9fda 663f ffe6 8f3f a86e 6a3f
00000180: 907b 703f 3d34 873f 2825 523f 0cb1 943f
00000190: 82ad 833f b7b1 7a3f 60f9 813f e840 813f
000001a0: 4160 893f 3c00 8e3f 6e21 603f e1c2 803f
000001b0: 7205 863f 075a 8f3f 219f 823f a5e2 763f
000001c0: 2ca5 883f 8c88 953f 7561 623f 1860 893f
000001d0: 3bda 743f 2ae5 893f 683b 973f 0313 803f
000001e0: 7df9 873f e94c 7a3f b95f 7c3f 4e1e 903f
000001f0: 8d38 883f 249e 943f c8d7 8c3f bd8e 873f
00000200: 7a45 403d 2ffe cdbc 9a0e 8ebe 2ed3 5ebb
00000210: 18bc 253c e432 86bc 894d ef3c 00bb ec3d
00000220: cab9 c0bc 0acf 2ebd 5fb0 e73d 01bb 8cbd
00000230: bc46 1c3c 57dc ddba 5844 e13e c2b8 cebc
00000240: f72f 3f3d b911 3c3e eb54 aabc 4ed8 39bc
00000250: 5e23 9e3a 39b3 6b3d fd94 51be 0033 61bc
00000260: 3de9 ee3d 4e86 02bd 3771 85bc b293 8c3c
00000270: 168c 0abe dd45 2abe 3680 223d 1509 c2bd
00000280: 4365 69bd 4097 0f3e 4484 83bd bcf6 08bd
00000290: b3f7 9dbb e394 bfbd f4fd 533c bf4e a5bd
000002a0: d64a 0cbe d13b 35be e841 1b3d f77a 0b3c
000002b0: 9fcd c93c ff48 cabd ccb5 95bd 7ffc 12be
000002c0: f1de ab3d c055 f13d 2df1 a53d 3961 87bd
000002d0: a3d4 9cbc 2200 87be ded0 e73c e8b9 fd3c
000002e0: 6bec 0c3e a1e7 6d3d 3c77 ef3c 6c0e e53b
000002f0: 35db ea3d a3fa 263d 061a 8dbc 80d7 47bd
00000300: 1ee5 913d 544d fb3d 71b1 0b3d 2be8 3f3e
00000310: df69 d33e b672 283e 8782 5d3d f483 b63d
00000320: 9c3d 193c f360 bd3d 6290 32bc 4d14 ae3d
00000330: 1281 a43e 4551 553d b851 4a3e c77d 733d
00000340: 896a 693e a410 283e a764 14bd 0888 103e
00000350: 1fa9 2e3e eed4 1a3d 925d 1b3e 0256 303e
00000360: aa6a 543e d9b6 f73d 063b ba3e 19a5 9f3d
00000370: 0ab3 52bd 45e0 023c 20e7 7d3e c8c0 803d
00000380: 4cb5 bbbc 3fbe d13c 0ac9 353e 71b9 803e
00000390: 1825 493e 8445 143e d502 d63d 82f6 7abc
000003a0: a034 573d 18d1 a63b b846 463e e048 2b3e
000003b0: 5995 dc3d 823c de3d 1329 173e 8523 a33c
000003c0: a53d 353d ca80 303e 9adb 853d 6bcd 7dbc
000003d0: b7d7 313e 33ca 7f3d 986d 1e3e 736a 053e
000003e0: 4205 923c 3c1e cd3d fe5f 973d 269b babc
000003f0: ab93 863e 1727 683e 291c 473c 84fb ed3d
-0.1831018 0.24254403 0.12064744 0.109804645 0.11400701 0.1373499 0.013147623 0.05382079
0.08688202 -0.12856433 0.19476666 -0.09073967 0.15900785 0.038516983 0.023899844 -0.009946685
-0.04379037 -0.14338176 0.04533104 0.04440619 0.2309069 -0.11775666 -0.17069311 0.14188106
0.28993782 -0.10016042 0.11612584 0.12079784 -0.03661315 -0.069830865 -0.056227963 0.016676411
-0.031706575 0.13554662 -0.06848075 0.19982001 -0.052791987 0.105073676 0.1673555 -0.03527567
0.0059330603 0.3369964 0.029643709 0.023859385 -0.020303342 0.10254171 0.038640056 -0.1354564
0.086158514 0.13033547 0.14603627 -0.15088359 0.114503466 0.062024247 -0.000995476 -0.076700866
0.22398365 0.07034059 0.05304524 0.20608526 0.2382625 0.060960364 0.012489966 0.18671829
1.0819808 1.1516414 1.0661433 0.98323923 0.9759246 0.9960717 1.0329137 0.866706
1.0144958 1.0582877 1.0220311 1.1024731 1.1905928 0.87514925 0.9345736 0.8961864
1.2336653 0.9637781 0.95011836 0.9959072 0.92552394 0.9530448 0.9413031 1.0316042
1.1143925 1.0759836 0.98456377 1.0238602 1.0256232 0.9017734 1.124237 0.915751
0.9393854 1.0562817 0.82087946 1.161653 1.0287325 0.9792742 1.0154228 1.0097933
1.0732499 1.1093822 0.8755101 1.0059472 1.0470412 1.1199349 1.0204812 0.9643958
1.0675406 1.1682296 0.8842996 1.073245 0.95645493 1.077306 1.1815004 1.0005802
1.0623013 0.97773606 0.9858356 1.1259248 1.0642258 1.1610761 1.1003351 1.0590435
0.046941258 -0.025145618 -0.27745515 -0.0034000385 0.010115646 -0.016381688 0.029211776 0.11559105
-0.023526091 -0.042677917 0.11312937 -0.06871606 0.009538349 -0.0016926628 0.43997455 -0.025234584
0.046676602 0.18366136 -0.020792445 -0.011343075 0.0012064984 0.057543967 -0.20466991 -0.0137450695
0.116655804 -0.031866364 -0.016289337 0.01716027 -0.13530001 -0.16628213 0.039673053 -0.094743885
-0.056981336 0.14022541 -0.06421712 -0.03343843 -0.004820788 -0.0935457 0.012938965 -0.0807166
-0.13700423 -0.176986 0.03790465 0.008513204 0.02463418 -0.09877204 -0.073100656 -0.14354132
0.08392132 0.11783934 0.08102641 -0.066103406 -0.019144362 -0.2636729 0.028297838 0.030972436
0.13762061 0.058082227 0.02923166 0.0069902446 0.11467592 0.04076637 -0.017224323 -0.0487895
0.07123779 0.122706085 0.03410477 0.18740909 0.4129171 0.16450009 0.05407956 0.08911887
0.009353068 0.09247007 -0.010898681 0.08499966 0.32129723 0.052079458 0.19757736 0.059446122
0.22794546 0.16412598 -0.036228802 0.14114392 0.17056702 0.03780072 0.15172413 0.1722031
0.20743814 0.12095422 0.36373156 0.07795162 -0.051440276 0.00798804 0.24795198 0.0628677
-0.022913598 0.025603412 0.17752472 0.2514148 0.19643056 0.14479643 0.10449759 -0.015317561
0.05254042 0.005090844 0.19362915 0.16727018 0.10770673 0.10851385 0.14761762 0.019914398
0.044248242 0.17236629 0.06536026 -0.01549087 0.17367445 0.06244869 0.15471494 0.13028888
0.017824773 0.100155324 0.07391356 -0.022779059 0.26284537 0.22671162 0.01215271 0.116202384

while/MatMul_11 f4 [256, 64]
00000000: 62d5 073e 276b ab3e c131 40bd 9a22 46be
00000010: 3946 47bc e0dd 443d 7720 1dbd f6c4 8fbf
00000020: 3335 ea3d 3ad1 09bf b5aa d73e 6327 b6bd
00000030: f44f 10bf fccc 87bd 2cc8 6bbd ff90 8dbe
00000040: 9c21 e5be 7cbc 0e3f 832e 36be 3749 583c
00000050: 7205 93bd d314 be3e 8c46 bbbd 3bc0 26bd
00000060: a84b b4bc d051 9c3e a52f e23d c1f3 d53e
00000070: 199d 393e 72d4 183f 6fb4 3fbe 2dfd d43e
00000080: aa9c 1d3e 4bad b9bd 4701 a83d c5a7 fa3e
00000090: 0251 92be 33cd f4bb 9551 0a3f 8732 1c3d
000000a0: 162a b5bd 74a5 963e 17a0 48be 3c75 033f
000000b0: dc78 c5be 1478 503e 774c d9bb aeb4 c7bd
000000c0: 4988 913d ccac e8bd a0df 89bd 303f 193f
000000d0: efba 8abe 0600 25be 6207 cc3e 51ac 043f
000000e0: 3400 e7be cbbc 163f 9a49 c5be 8338 303e
000000f0: f03b cabc e7e0 223e 074f 0bbe 080a 7c3e
00000100: a65c 37be fd5a 7c3e 8f6e 05be 085e 943e
00000110: 5785 0abf 648f b9be e1c1 6f3e 3232 c83e
00000120: fed2 b4bd b563 783b 7560 11be cda1 c5bc
00000130: 0216 c73c b9d3 fbbc 6cf4 e5bc cc74 fb3d
00000140: e788 b2be 37b0 f03d 54be 68be 2b75 61be
00000150: 0f7c 213f 25be a2be e7ba 013f 943a 83be
00000160: 74dc d53e e8b2 83be c906 123f b546 38be
00000170: 5744 853e 96aa 9c3d a502 1abf 1d06 f13d
00000180: 9d96 27be 0f49 a53e 4de2 fa3d aeef 533d
00000190: 5303 6d3d fe5b 04bf 9ff7 953e e755 8e3e
000001a0: 0122 a3be 7b56 1d3d 3a8e 033f c3a3 3f3e
000001b0: a2da 5a3e 00cd 5c3f 6145 85be 460b 813e
000001c0: fee2 cd3d 8212 f4bd 10a7 403e 5682 413e
000001d0: f0b0 2fbe c6e5 c2bc f336 89bc 042c 463d
000001e0: a96d f93e 9328 023e a4a4 9b3e 754a 1a3e
000001f0: e17a 9b3d 4173 8bbe 7b07 a6bd e94c 93be
00000200: ca3b a8bc 88bf 9bbd c05b 7f3f b980 86bd
00000210: 6985 08bf 8492 aabd 7eae 083f 16db 8dbd
00000220: 6f07 23be 2ba1 f73e 7646 acbd 6d7b 0bbf
00000230: 7d3f 993e a704 323e 2797 703e 1c82 aabd
00000240: ef97 ddbd f104 0c3d 6385 05bf c354 e53c
00000250: 398f e53c 6044 dfbd 85c8 2dbf e125 3c3e
00000260: a971 9b3d 6d82 9d3e cae6 293e f1ec 22bf
00000270: 593c b0bd 8b2c 403d 5921 b53e 5b3d dabe
00000280: d166 d8be 239c 97be fd5b e7be 9bde 3f3d
00000290: 185f 223c 1f74 5abe 837b 053d d3cd b9be
000002a0: 19e4 36bf cd36 973e 9db3 41bd b7dd c6bd
000002b0: afdb e03c 4def d13e 3ea7 45bf 4032 c43e
000002c0: 8405 96bd 6a8f 8e3e a043 813e 4d63 8abe
000002d0: 2076 e03e fa7b 7f3e f3b7 3ebd 3de6 673e
000002e0: 972c 1cbe 7c4c cebe 6b28 dcbc f12d 19be
000002f0: 225c f7bd fa07 443e 2a58 343e 3d87 7cbe
00000300: ec26 bcbd bd78 b33d 1290 cc3e 582e ba3e
00000310: 1385 85be baa8 54be ea2f 36be 6289 1b3f
00000320: 4107 c03d 8158 713f b39b 883e c55f b03e
00000330: 8be9 1cbd 1996 77bd 53a6 6b3d 2549 17bf
00000340: d7c6 653e 77ff 8dbe ed7f f93d f911 a93e
00000350: 3d99 823e 635e f9bd d682 193d 1134 6f3d
00000360: 1d1e 8f3e 51a7 8bbd 85d4 8fbd b5d2 babb
00000370: ac47 a7be a4bc e93e ba58 3a3e 9aa8 8f3d
00000380: f24a 1cbb 9b87 86be 890e 08bf b9d0 d73e
00000390: 4ec7 18be efa7 6d3e 4068 b23c 66c6 b43e
000003a0: 09a3 4dbf 5b38 0c3f 745e ffbe cb69 f43e
000003b0: 23c2 c13e 5ac0 863d b000 8e3e 9123 b43d
000003c0: a63c 023f 9458 903e 25c4 0d3f c864 90bd
000003d0: eb18 9dbe 4ac2 c4bd 5766 91bd a6e6 b33e
000003e0: 315f f23e 3acd 42be 42d4 f9bd c00e b4be
000003f0: f633 bf3d c748 1e3e f50e 5ebe 67f2 16bf
0.13264993 0.33480188 -0.04692245 -0.19349137 -0.0121627385 0.04806316 -0.03836104 -1.1231983
0.11435928 -0.5383488 0.42122427 -0.08894231 -0.56372 -0.066308945 -0.057563946 -0.27649686
-0.44752204 0.55756354 -0.1779118 0.0132010495 -0.07178773 0.37125263 -0.09144315 -0.04071067
-0.022008732 0.30531168 0.11044244 0.41787532 0.18126334 0.59699166 -0.18721174 0.41599408
0.15391794 -0.09066256 0.08203369 0.48956123 -0.2857743 -0.0074707507 0.54030734 0.038134124
-0.08845918 0.29423106 -0.1959232 0.5135076 -0.3856877 0.20358306 -0.00663143 -0.09751259
0.071060725 -0.113610834 -0.06732106 0.5986204 -0.27095744 -0.1611329 0.39849383 0.51825434
-0.45117342 0.58881825 -0.38532716 0.17209058 -0.024686784 0.15906106 -0.13604365 0.24613202
-0.17906436 0.24644084 -0.13030456 0.2897799 -0.5410971 -0.3624221 0.23413803 0.39100796
-0.08829306 0.0037901227 -0.14196952 -0.024125004 0.024302486 -0.030740606 -0.028070651 0.122781366
-0.34870073 0.1175236 -0.22728854 -0.22017352 0.63079923 -0.31785694 0.50675815 -0.2563063
0.41769755 -0.25722432 0.57041603 -0.17995723 0.26028702 0.07649724 -0.60160285 0.11768744
-0.16366048 0.32282302 0.12250195 0.05174225 0.0578645 -0.5170287 0.29290482 0.27799913
-0.3186188 0.038412552 0.51388896 0.18714814 0.21372464 0.86250305 -0.26029494 0.25203913
0.10053061 -0.119175926 0.1881373 0.18897375 -0.1715734 -0.023791205 -0.016749835 0.04838182
0.48716477 0.1271079 0.30399048 0.15067466 0.07591797 -0.2723637 -0.081068955 -0.28769615
-0.020536322 -0.07604891 0.99749374 -0.06567521 -0.5332857 -0.08328727 0.53391254 -0.06926553
-0.15920804 0.4836515 -0.08411877 -0.5448521 0.2993125 0.17384587 0.2349516 -0.08325598
-0.10819995 0.0341844 -0.52156657 0.02799452 0.028022395 -0.10901713 -0.67884094 0.18373825
0.07590038 0.3076357 0.16591945 -0.63642794 -0.086052604 0.04691748 0.35377005 -0.42624936
-0.42265943 -0.2961131 -0.4518737 0.046843152 0.009910367 -0.21333359 0.032588493 -0.36289844
-0.714418 0.29533997 -0.047290433 -0.097102575 0.027448503 0.41002885 -0.77208316 0.38319588
-0.07325271 0.2784379 0.25246906 -0.27028885 0.43840122 0.24949637 -0.046562146 0.22646423
-0.15251385 -0.40292728 -0.026874742 -0.14958932 -0.1207812 0.19143668 0.17611757 -0.24660964
-0.09187111 0.087632634 0.39953667 0.36363482 -0.2607809 -0.20767489 -0.17791715 0.60756505
0.093763836 0.9427567 0.2668129 0.34448066 -0.03830866 -0.06044588 0.057531666 -0.59095985
0.22439133 -0.27733967 0.12182603 0.33021525 0.25507537 -0.12176206 0.03747829 0.058399264
0.27952662 -0.068190224 -0.07022957 -0.0057013878 -0.3267187 0.45651734 0.18197909 0.0701458
-0.0023848382 -0.26275334 -0.5314718 0.4215143 -0.14919779 0.23208593 0.021778226 0.35307616
-0.80326897 0.5477349 -0.4987675 0.47736964 0.37843427 0.06579657 0.277349 0.08795846
0.5087379 0.2819258 0.5537742 -0.070504725 -0.30683073 -0.0960737 -0.07099598 0.35136908
0.4733825 -0.190236 -0.12198688 -0.35167503 0.09336083 0.1545745 -0.21685393 -0.58963627

while/MatMul f4 [256, 64]
00000000: ebd2 6cbc 9958 f0bd e0b2 c2bd 52ed 853d
00000010: 61ee 313c 7686 9c3d da9b ab3d ca54 a43d
00000020: eaa1 4bbe 3987 a9bc 26da 753e 754b 09be
00000030: 866f 9a3c 9096 94bd 9c45 a8be 18f7 e73d
00000040: 365f 3cbd b585 89bc 1821 333d b7c5 c43c
00000050: 45b0 41be 30ae 14bc 2916 ea3e f662 59be
00000060: 53b2 f93d 8763 83be d476 f83d 7c7b df3d
00000070: a459 363d f924 193c b3ef 9dbd 4b98 c33e
00000080: 2ea5 fb3d 9730 0dbe 4e94 043e 2b3c dabd
00000090: aa6a b9bd 5ca8 b03d d32f 063d 8b2d c13e
000000a0: 6703 95bd 0359 aa3d 24f1 ec3d 13f0 9abd
000000b0: 73ed 08be 9381 e93d 40d2 48bb a0da cabe
000000c0: 59ed 943d 93a5 63bd a80d 653d 2621 a2bd
000000d0: a40c a9bd 978f 9c3b 5bdf a73d 115f 3bbd
000000e0: 5c9a 063c cbca 81be 7ab7 b7be 0e66 1cbd
000000f0: af6d 16bd cce5 0fbe 0594 68bd cb54 9ebe
00000100: 8042 c73d 256a dbbd d8ed 973c 02f7 4abd
00000110: 6b00 3ebd dc41 91bd 76d6 babd fc27 7dbd
00000120: c028 823c 26fe 943c 5fe2 c73e 3ba7 4dbe
00000130: daaa 103e 6072 1bbd e254 b23d 31e8 ef3d
00000140: 5aee 68bd 1946 edbc bf77 003e c373 2f3c
00000150: 5432 83be 0c5e a93d fa4d ab3e e9d8 8ebe
00000160: c92a 25bd 112e 04bb 007a cc3a d525 ecbd
00000170: 7038 e8bc aab6 2bbe 3a37 4f3c 8ee0 863f
00000180: 346f dbbd 952e a3bc 88f5 833c 1870 1c3d
00000190: f62e 5abc b811 aabd c3c3 493d 82e4 363f
000001a0: c9b0 95b9 6641 d03a 3c47 e53d 8e07 bc3d
000001b0: cec3 4ebd 8c78 103e 683f c93c ebfb 3e3d
000001c0: 53da db3d afef 013e 0e6b 8dbd 05f3 11be
000001d0: 6964 04be 5c66 3bbe 1242 33bd 38cb 533d
000001e0: dd91 78bc 7c33 95bd ce63 06bd a129 7a3c
000001f0: 1748 acbd aea8 7bbd 2f76 5abd 97b2 83be
00000200: 0507 fcbd e98b d23c 8016 feba 0137 4bbc
00000210: 4901 bd3c 897b 003d e754 30bd a2b5 033e
00000220: b266 2f3d cbc7 ac3d e161 ff3f 07ee 19bf
00000230: f2ec f93d dcc0 57bd 9ac2 083f 8570 d23d
00000240: 801a 6e3b 6893 4f3d fb7f 0f3e 5389 06be
00000250: 1609 fdbe a434 e6bd 26c7 563e 3b0a 073e
00000260: 9f78 e6bc 3052 083f 8c72 9b3d 17bb 0a3e
00000270: 6371 83bd 2dc6 55be 367b 67bd 3383 513f
00000280: 4e59 f33d 2124 ffbc 205e dc3d 738e 343d
00000290: 20a0 033d 06d7 4f3c 0222 32bc cbfe ec3e
000002a0: 14a3 39bd dcdf 9b3d c216 53bd 65f5 ae3d
000002b0: 7636 17bd 907e a3bd 62d9 c9bd 26d0 2e3f
000002c0: 16e0 2abd b639 e33d dfbe ef3e 4bba 21be
000002d0: 254b 673d 5269 d6bd c5de 723e ea2f bbbc
000002e0: 03a8 a9bd 5571 0e3f c82b b83e c7e2 d03d
000002f0: 3121 2a3d 5747 bcbd 61a5 5a3e c272 04be
00000300: 22bc b63d 797d 053c 8ad0 f0bd eedf afbc
00000310: 7a51 58be a305 debd 75d9 e53d 2524 133d
00000320: 6057 14be c44c bcbc a5b4 153f a6a1 0c3e
00000330: 2a9d 5fbd eaf5 9dbd 7b4d 1f3e 7b60 263d
00000340: 3868 793d c436 15be 70df 83bd fccb 75bd
00000350: 0da3 4dbf 081e e63d 6c9c b73e ce5f 9dbe
00000360: dd1c 43bd 78e2 343e 886f 4bbc f466 00be
00000370: 58b1 08be 30a1 5a3e 131c a3bb 07b2 ce3e
00000380: 5e3a cebc d84e d43d 00aa 20bc b434 3e3e
00000390: 9666 39bc 3252 1b3d 5685 efbd 7c18 ab3e
000003a0: f3c9 4b3d d6bd fabd 35ea fbbd fac5 fa3d
000003b0: ec8b bf3d e404 b33d dea3 bbbd bf97 e13e
000003c0: e5dc 643d 5e35 a03d 25ff 8e3e f0cc da3b
000003d0: f9bb b9bd f417 953d 6590 a83d 5e9e 013c
000003e0: 49a5 9f3d 9ff8 b13d 9e71 a43e 52de 543d
000003f0: 6751 e8bd 4f00 18bc a27d f03d be6f 34bc
-0.014454584 -0.11735649 -0.09506774 0.06539406 0.010860057 0.07642834 0.08379336 0.08023985
-0.19885984 -0.020694362 0.24008998 -0.13407691 0.018852007 -0.0725528 -0.32865608 0.11326426
-0.045989238 -0.01678739 0.043732733 0.024020059 -0.18914898 -0.009074733 0.45720032 -0.21229157
0.12192216 -0.2566187 0.1213204 0.10912225 0.04451908 0.009347194 -0.077117346 0.38202128
0.12287365 -0.13788067 0.12947199 -0.106560074 -0.09053548 0.08625862 0.032760452 0.3773006
-0.072760396 0.08317759 0.115694314 -0.07565322 -0.1337183 0.114016674 -0.0030642897 -0.39619923
0.07271833 -0.055577826 0.055921227 -0.07916479 -0.08254364 0.0047778594 0.081968985 -0.04574496
0.008215513 -0.2535003 -0.3588217 -0.038183264 -0.036725696 -0.14052504 -0.056781787 -0.30924067
0.09729481 -0.10713605 0.01854603 -0.04955197 -0.046387117 -0.0709264 -0.091229364 -0.06180571
0.015888572 0.018187594 0.39039895 -0.20083325 0.14127675 -0.037950873 0.08707596 0.11714209
-0.056867935 -0.02896409 0.1254568 0.010708752 -0.25624335 0.08269891 0.3345793 -0.27899864
-0.040324006 -0.002016906 0.0015600324 -0.115306534 -0.028347224 -0.167689 0.012647444 1.0537279
-0.1071457 -0.019919673 0.01610829 0.03819284 -0.01331686 -0.08304161 0.04925896 0.71442425
-0.0002855121 0.0015888631 0.111952275 0.091811284 -0.050479703 0.14108485 0.024566367 0.046626966
0.107350014 0.12689088 -0.06905185 -0.14252861 -0.12928928 -0.18300766 -0.04376418 0.051707476
-0.015171495 -0.072852105 -0.032810025 0.015268714 -0.084121875 -0.061440162 -0.053335365 -0.2572219
-0.12306026 0.02570148 -0.0019385368 -0.012403251 0.023071902 0.031367812 -0.04304972 0.12862256
0.042822547 0.08436545 1.9951745 -0.60128826 0.12203397 -0.05267416 0.5342194 0.10275368
0.0036331713 0.050677687 0.14013664 -0.13138323 -0.49420995 -0.11240509 0.20974407 0.13187496
-0.028133688 0.5325041 0.075902075 0.13547932 -0.06418111 -0.2087638 -0.056513987 0.8184082
0.11882268 -0.031145157 0.107601404 0.044081163 0.03213513 0.012685543 -0.010872366 0.46288142
-0.04532154 0.07611057 -0.051535375 0.08542899 -0.036917172 -0.07983124 -0.098559156 0.6828636
-0.04171761 0.11094992 0.4682531 -0.15793721 0.056468148 -0.10469307 0.23717792 -0.022849996
-0.08283999 0.5564168 0.35970902 0.10199504 0.04153556 -0.091932945 0.2135215 -0.12934402
0.08922602 0.008147591 -0.11758526 -0.021469083 -0.21124831 -0.10840919 0.11223117 0.035923142
-0.14486456 -0.022985823 0.58478767 0.13733539 -0.054593243 -0.0771292 0.155569 0.040619355
0.060890406 -0.14571673 -0.06439102 -0.060008988 -0.8032692 0.11236197 0.35861528 -0.30737156
-0.047634948 0.17664516 -0.012416728 -0.12539274 -0.13348901 0.2135055 -0.004977712 0.403702
-0.025174316 0.10366601 -0.009806156 0.18574792 -0.011315962 0.037920184 -0.11695354 0.33417118
0.04975314 -0.122432396 -0.12300531 0.12244792 0.0935286 0.08741167 -0.091621146 0.44061086
0.055874724 0.07822679 0.27929035 0.0066772625 -0.09069056 0.07279959 0.08230666 0.007911293
0.077951975 0.08689999 0.32117933 0.051969834 -0.11343651 -0.009277417 0.117427126 -0.01101297
