RSM/Enviroments/Pilot_02/hearing_impaired_helper_make_model/models/seq-40-toofast/multi_hand_gesture_classifier.tflite (tflite, 183780 bytes, 8 tensors)

sequential/lstm/Read_2/ReadVariableOp f4 [256]
0	0xbd1adace	-0.037806325
1	0x3d1b571c	0.03792487
2	0x3e7c64ed	0.24647875
3	0x3e0df7c4	0.13864046
4	0x3dc0db22	0.09416796
5	0xbd47397b	-0.048638802
6	0x3e117abe	0.14206979
7	0x3b6f8e32	0.003655326
8	0x3c12579d	0.008932021
9	0x3caa76e2	0.02080864
10	0x3e37af03	0.17937855
11	0x3c8d6513	0.01726011
12	0x3d19c337	0.037539687
13	0xbd8baf77	-0.06820577
14	0xbd1092e4	-0.035296336
15	0x3ba2843c	0.004959611
16	0x3d4e0633	0.05029888
17	0x3df25c48	0.118340075
18	0xbd4e5413	-0.05037315
19	0xbbac3072	-0.0052547986
20	0x3e2d49f0	0.16922736
21	0x3e4eca8f	0.20194457
22	0x3da948f1	0.082658656
23	0x3d73c13b	0.05951045
24	0x3dfebbd8	0.12438172
25	0x3c0ac0d9	0.00846883
26	0x3d033df8	0.03204152
27	0xbd12d6e9	-0.035849486
28	0x3c97dcf6	0.01853798
29	0xbcd292a5	-0.025704691
30	0x3e6df152	0.23236588
31	0x3ab314df	0.0013662836
32	0x3d5adb20	0.05343163
33	0xbd13079e	-0.035895936
34	0x3d8e17a8	0.06938106
35	0xba887969	-0.001041216
36	0x3cf66acc	0.030080222
37	0x3d50c01f	0.05096447
38	0xbccd97b5	-0.025096754
39	0x3ca95575	0.020670632
40	0x3e1cb7f3	0.15304546
41	0x3ca0d511	0.019632848
42	0x3ddbdfbc	0.10736033
43	0x3da8f853	0.08250489
44	0x3d67e7e4	0.056617633
45	0x3d0872da	0.033312656
46	0x3d442f50	0.047896683
47	0x3df32c45	0.11873678
48	0x3e7ee0cc	0.2489044
49	0x3d82d389	0.063880034
50	0xbcb7787b	-0.022396317
51	0xbd1a1526	-0.037617825
52	0x3d35a3c6	0.04434564
53	0xbc883489	-0.016626613
54	0x3d810ec0	0.063016415
55	0x3e4044e6	0.18776283
56	0x3d4fc988	0.050729305
57	0x3bd1c421	0.006401554
58	0x3d809d20	0.06279969
59	0xbd81488b	-0.063126646
60	0x3d46c92a	0.04853169
61	0x3d115401	0.035480503
62	0xbd541947	-0.05178192
63	0xbc64f5a9	-0.013974586
64	0x3f8e2e77	1.110793
65	0x3f855d9c	1.0419192
66	0x3f806a13	1.0032371
67	0x3f8f84d9	1.1212417
68	0x3f8960ca	1.0732663
69	0x3f87c418	1.0606718
70	0x3f84e307	1.0381783
71	0x3f8d65bf	1.1046675
72	0x3f86bc68	1.0526247
73	0x3f88ef61	1.0698053
74	0x3f7df26d	0.9919804
75	0x3f75b774	0.9598305
76	0x3f827e48	1.0194788
77	0x3f883aa9	1.0642902
78	0x3f9137fd	1.1345211
79	0x3f89be3c	1.076118
80	0x3f90ecdc	1.1322284
81	0x3f877678	1.0583029
82	0x3f8275bb	1.0192178
83	0x3f768b08	0.96305895
84	0x3f830231	1.0235044
85	0x3f901156	1.125529
86	0x3f756c3f	0.95868295
87	0x3f7c6ab9	0.98600346
88	0x3f881463	1.0631222
89	0x3f768caf	0.96308416
90	0x3f7eb08e	0.9948815
91	0x3f81e2d4	1.0147347
92	0x3f83de33	1.0302185
93	0x3f7cd8f4	0.98768544
94	0x3f92a67e	1.1457059
95	0x3f8e2ed2	1.1108038
96	0x3f804cc6	1.0023429
97	0x3f81cd39	1.0140754
98	0x3f763d37	0.96187156
99	0x3f82e234	1.0225282
100	0x3f8267bc	1.0187907
101	0x3f873d23	1.0565532
102	0x3f82bacb	1.0213255
103	0x3f9bd2fb	1.2173761
104	0x3f902e5e	1.126415
105	0x3f7cdaf1	0.9877158
106	0x3f80e48f	1.006975
107	0x3f70ad6c	0.9401462
108	0x3f832406	1.0245368
109	0x3f8a3060	1.0796013
110	0x3f7eeab8	0.995769
111	0x3f7ec33d	0.9951666
112	0x3f94a8b9	1.161399
113	0x3f73e6e9	0.95274216
114	0x3f87682e	1.0578668
115	0x3f831ac4	1.0242543
116	0x3f8c00b8	1.0937719
117	0x3f84ad03	1.0365299
118	0x3f882c27	1.0638474
119	0x3f863f86	1.0488136
120	0x3f8009a7	1.0002946
121	0x3f8a657c	1.081222
122	0x3f79e01c	0.9760759
123	0x3f88d53b	1.0690073
124	0x3f8dcdae	1.1078393
125	0x3f7e0e15	0.9924024
126	0x3f7eca2a	0.9952723
127	0x3f8348c7	1.0256585
128	0x3cd98d21	0.026556553
129	0x3db7d496	0.089760944
130	0xbe083aa2	-0.13303617
131	0x3e362c2d	0.17790289
132	0xbd8ec571	-0.06971253
133	0xba1982a9	-0.00058559567
134	0x3d2abbe0	0.041683078
135	0xbd51540e	-0.05110555
136	0x3c3291b1	0.010898993
137	0x3dd4f477	0.103981905
138	0x3e14032f	0.1445434
139	0xbdb12e0e	-0.08651362
140	0xbca57576	-0.020197611
141	0x3cffdbd1	0.031232746
142	0xbccc6326	-0.024949621
143	0xbd098a70	-0.03357929
144	0xbd80afc1	-0.062835224
145	0xbda90e50	-0.08254683
146	0xbd3f7821	-0.046745423
147	0xbd9e88c2	-0.07740928
148	0x3d0d10ae	0.034439735
149	0x3ddde28f	0.10834228
150	0x3e03b548	0.12862122
151	0xbc8f6e8f	-0.017508773
152	0x3d340f78	0.043960065
153	0x3dd2588f	0.102707975
154	0x3cae1b38	0.021253213
155	0xbc35d35f	-0.011097758
156	0x3ce94a1b	0.028477719
157	0x3daec841	0.08534289
158	0x3e1b4f73	0.15167026
159	0xbd862d84	-0.0655165
160	0xbbf64a9b	-0.007516218
161	0xbdb0c0d5	-0.0863053
162	0xbe511a86	-0.20420274
163	0x3db5e6d8	0.088819206
164	0x3def18ad	0.116746284
165	0x3c0a0240	0.008423388
166	0xbd9744bf	-0.07386159
167	0x3a052610	0.0005079219
168	0xbe332acc	-0.17496794
169	0xbe4a63f7	-0.19764696
170	0xbdb71fe2	-0.08941628
171	0x3e068c5e	0.13139483
172	0x3d4750af	0.04866093
173	0xbbef03a8	-0.007294137
174	0xbe295975	-0.16538031
175	0xbdf2029d	-0.11816905
176	0xbe160f59	-0.14654292
177	0x3dec9726	0.11552267
178	0xbd82f8d1	-0.06395114
179	0xbcc90d54	-0.024542488
180	0xbdbffc55	-0.093743004
181	0xbca28fbf	-0.019843934
182	0x3d4b9f96	0.04971274
183	0x3d8032b2	0.06259669
184	0x3dec079f	0.11524891
185	0xbd4c7b78	-0.049922436
186	0xbd85228c	-0.0650073
187	0x3c29f4f6	0.010373345
188	0x3bc020c3	0.0058632805
189	0xbdf19011	-0.117950566
190	0xbe11057d	-0.1416225
191	0x3ce531e7	0.027977897
192	0x3da14bd6	0.07875793
193	0x3dbaee23	0.09127452
194	0x3d56b0a2	0.052414544
195	0x3e8a52fa	0.2701643
196	0x3e139a1c	0.14414257
197	0x3d1c2b5b	0.038127284
198	0x3e0eb823	0.1393743
199	0x3d8b0154	0.06787363
200	0x3d816946	0.063189074
201	0x3dc3420d	0.095340826
202	0x3d9341a6	0.07190256
203	0x3d204b52	0.03913433
204	0x3d80d3fd	0.062904336
205	0x3d8d1c99	0.0689022
206	0x3d98fb03	0.07469752
207	0x3d2f05ca	0.04273013
208	0x3e18001d	0.14843793
209	0x3d62e7ef	0.05539697
210	0x3c79a890	0.015237942
211	0x3d59ae3d	0.053144682
212	0x3de5ddcd	0.11223946
213	0x3c92589a	0.017864514
214	0x3d772b38	0.06034395
215	0x3da0de78	0.078549325
216	0x3d23f40b	0.04002766
217	0x3c9a91eb	0.018868407
218	0x3aafd3c6	0.0013414554
219	0x3dfa1fff	0.12213134
220	0x3c61a5cc	0.013772439
221	0x3c391477	0.011296383
222	0x3e207c7e	0.1567249
223	0x3d27451e	0.0408374
224	0x3ce15c91	0.02750996
225	0x3d540d67	0.051770594
226	0x3e81420f	0.2524571
227	0x3dc03447	0.09384971
228	0x3de8476e	0.11341749
229	0x3d4b4162	0.0496229
230	0x3d16887b	0.03675125
231	0x3e0a0b3b	0.13480847
232	0x3e932aa8	0.28743482
233	0x3d9a000f	0.075195424
234	0x3e663e4a	0.22484699
235	0x3dc03c4c	0.09386501
236	0x3db31205	0.08743671
237	0x3dae5981	0.08513165
238	0x3e3f277c	0.18667406
239	0x3db6ccf0	0.089258075
240	0x3e481761	0.19540168
241	0x3d885c95	0.066582836
242	0x3d29aa72	0.041422315
243	0x3d9d3480	0.07676029
244	0x3e24460c	0.16042346
245	0x3dd60e45	0.104519404
246	0x3da17ff6	0.07885735
247	0x3d678d92	0.056531496
248	0x3d8b702e	0.06808506
249	0x3ceb8c28	0.028753355
250	0x3cd2447f	0.025667427
251	0x3db37c3a	0.08763929
252	0x3e7ad258	0.24494302
253	0x3e177f73	0.14794712
254	0x3dfa5076	0.12222378
255	0x3ceb157b	0.028696766

sequential/dense/BiasAdd/ReadVariableOp f4 [32]
0	0x3edd2c9e	0.43198103
1	0x3db2a9aa	0.08723767
2	0xbc8afe80	-0.016967058
3	0xbd9be467	-0.07611924
4	0x3f1066ec	0.56407046
5	0x3e87802a	0.2646497
6	0x3e925d3d	0.2858676
7	0x3eb293f4	0.34878504
8	0x3e613b43	0.21995263
9	0x3eb6d307	0.35707876
10	0x3ea15eb7	0.31517574
11	0x3e9059cc	0.2819351
12	0x3f02eb0a	0.5113989
13	0x3ec370b6	0.3817193
14	0x3f2ca394	0.674371
15	0x3eb4a1a5	0.35279575
16	0x3e6391ee	0.22223637
17	0x3e681a1e	0.22666213
18	0x3ea8fc4a	0.3300498
19	0x3eba711c	0.3641442
20	0xbe01e668	-0.1268555
21	0x3eee0cc1	0.46494105
22	0x3e547133	0.20746307
23	0x3e9c9377	0.30581257
24	0x3ec4fb1d	0.38472834
25	0x3effa716	0.49932164
26	0x3e8843e3	0.26614293
27	0x3e9019f7	0.2814481
28	0x3ee74996	0.4517333
29	0x3f0e6d81	0.5563584
30	0x3eb58ea0	0.35460377
31	0xbcd35b45	-0.025800357

sequential/dense_1/BiasAdd/ReadVariableOp f4 [91]
0	0x3dce7372	0.10080613
1	0x3eda1f85	0.42602172
2	0x3e77e4c4	0.24208361
3	0xbe175c24	-0.14781243
4	0xbe25b795	-0.16183312
5	0xbebc1bdf	-0.36740014
6	0xbdb3badd	-0.08775876
7	0xbd8d8b9f	-0.06911396
8	0xbdbab8b2	-0.09117259
9	0xbdfe3e60	-0.12414241
10	0x3e9afe08	0.30271935
11	0x3ea9136e	0.33022636
12	0xbe8a61c5	-0.27027717
13	0xbec82381	-0.39089587
14	0x3e4e7f42	0.20165733
15	0x3e1895c4	0.14900881
16	0xbe0e2039	-0.1387948
17	0x3e094d61	0.13408424
18	0x3e765974	0.24057561
19	0xbe8009a4	-0.25007355
20	0xbd08d3c4	-0.03340508
21	0xbd19f62d	-0.037588287
22	0x3dce9772	0.1008748
23	0xbdb3e348	-0.08783585
24	0xbdb5e025	-0.08880643
25	0xbe4b84e9	-0.1987492
26	0x3ea03982	0.31293875
27	0xbc0687fa	-0.00821113
28	0x3dcfa9f6	0.10139839
29	0xbebb9240	-0.36635017
30	0xbdda2e8a	-0.10653408
31	0xbd1338a9	-0.035942707
32	0xbe56374c	-0.20919532
33	0x3d19e30b	0.03757004
34	0x3e156169	0.1458794
35	0xbf1bc662	-0.60849583
36	0xb91338bc	-0.00014040148
37	0x3ec0e4de	0.37674612
38	0xbdfdee41	-0.12398959
39	0xbde64a24	-0.1124461
40	0x3da326fc	0.0796642
41	0x3e8020e4	0.25025094
42	0xbd7643f1	-0.060123388
43	0x3d9e92cc	0.07742843
44	0xbea2a4c3	-0.31766328
45	0xbea33967	-0.31879732
46	0xbe91fbfc	-0.2851256
47	0x3e2f5e1a	0.1712574
48	0xbe950560	-0.29105663
49	0x3e25a369	0.16175617
50	0xbe6e8033	-0.23291092
51	0xbe573637	-0.21016775
52	0xbdd2f474	-0.10300532
53	0xbce0d795	-0.027446548
54	0x3e46282b	0.1935126
55	0x3d5b5407	0.05354693
56	0xbe8ce5e3	-0.2751914
57	0x3cdeaaa0	0.02718097
58	0xbe2f6c6d	-0.17131205
59	0x3de76c5a	0.11299963
60	0x3ec59a98	0.38594508
61	0xbe83762d	-0.25676098
62	0xbe0cd578	-0.13753307
63	0x3d9e25db	0.07722064
64	0x3d82681a	0.06367512
65	0x3e8701de	0.26368612
66	0x3e08c0d3	0.13354807
67	0xbe9b4b5d	-0.30330935
68	0xbdc55521	-0.09635378
69	0xbd68e5d0	-0.05685979
70	0x3e257024	0.1615606
71	0xbc6a7357	-0.014309726
72	0x3caa0ff3	0.020759558
73	0x3d849b7d	0.064749695
74	0xbeb86769	-0.36016396
75	0x3dbe5db9	0.0929522
76	0x3e71c537	0.23610388
77	0x3b542e6c	0.0032376302
78	0x3dae1ccc	0.08501586
79	0x3e382166	0.1798149
80	0xbe614e31	-0.22002484
81	0xbe675652	-0.22591522
82	0xbdf11e03	-0.117733024
83	0x3de61f62	0.112364545
84	0x3e059859	0.13046397
85	0x3e2f4cd9	0.17119159
86	0x3d07c651	0.033148114
87	0x3ea4782a	0.32122928
88	0xbe5c8f2c	-0.2153899
89	0xbed05e8f	-0.40697142
90	0x3e18805b	0.14892714

sequential/dense/MatMul f4 [32, 64]
0	0x3ed9cd18	0.42539287
1	0xbe9dfe9e	-0.3085832
2	0xbd2a40b8	-0.041565627
3	0x3eafe906	0.3435747
4	0xbecf5b0e	-0.40499157
5	0xbed65184	-0.41859066
6	0xbe5a32bc	-0.21308416
7	0x3eac03be	0.33596605
8	0xbdc351fe	-0.09537123
9	0x3cc9ab83	0.024617916
10	0xbea80e6e	-0.3282351
11	0xbe87d577	-0.26530048
12	0xbe364277	-0.17798792
13	0xbf1368e7	-0.57581943
14	0x3f28f1a2	0.659937
15	0x3d5b9cc9	0.05361632
16	0xbf393a0f	-0.72354215
17	0x3e05b876	0.13058648
18	0x3f21769c	0.6307161
19	0xbdfce219	-0.12347812
20	0xbeb5fd0f	-0.3554463
21	0xbebadfab	-0.3649877
22	0x3f98140f	1.1881121
23	0x3f2a1005	0.66430694
24	0xbcc1a809	-0.023639696
25	0xbeb007ce	-0.34380955
26	0xbebed40e	-0.3727116
27	0x3f8ec068	1.1152468
28	0xbcea89ff	-0.028630255
29	0xbb703b75	-0.0036656533
30	0x3f3ba999	0.7330566
31	0x3ea5e3c3	0.3240033
32	0xbee056c6	-0.43816203
33	0xbea371e3	-0.31922826
34	0xbf1c2481	-0.609932
35	0x3bee1e29	0.007266779
36	0x3f6d1251	0.92606074
37	0x3edc46f1	0.43022874
38	0x3ee73ec1	0.45165065
39	0xbf22784a	-0.63464797
40	0x3e180536	0.14845738
41	0xbec4cd78	-0.3843801
42	0x3ea0a1c8	0.3137343
43	0xbdae67d0	-0.085158944
44	0x3e6715ea	0.22566953
45	0x3f2500fe	0.6445464
46	0xbf89fb41	-1.0779802
47	0xbe83634e	-0.256617
48	0xbe148c88	-0.14506733
49	0x3e686d49	0.22697939
50	0xbe358f00	-0.17730331
51	0x3e9eb603	0.3099824
52	0xbe1a71d3	-0.15082483
53	0x3e516ec9	0.20452417
54	0xbdabb10b	-0.08383378
55	0x3e38c8f3	0.18045406
56	0xbee88686	-0.45415133
57	0x3dc87101	0.09787179
58	0xbd85f779	-0.06541342
59	0x3c25eb53	0.010126906
60	0x3f0aec2c	0.5426662
61	0xbe4a198d	-0.1973631
62	0x3db5a15f	0.0886867
63	0xbea8f4a6	-0.32999152
64	0x3e76aae0	0.24088621
65	0x3f38f2ef	0.7224569
66	0xbe8a9ed8	-0.27074313
67	0xbcd65738	-0.026164636
68	0xbd5eee8d	-0.05442672
69	0xbf1f20c8	-0.62159395
70	0x3f301f18	0.68797445
71	0xbee5f843	-0.4491597
72	0x3e653318	0.22382772
73	0xbdb749d4	-0.089496285
74	0x3eed7618	0.4637916
75	0x3eeb5ee5	0.45970836
76	0x3edde8e0	0.43341732
77	0x3d998e9e	0.07497905
78	0xbeb2c0fa	-0.34912854
79	0xbeead4e5	-0.4586555
80	0xbe2facea	-0.17155805
81	0x3d2c3e24	0.04205145
82	0xbe2dc831	-0.16970898
83	0x3f5e487d	0.8682936
84	0x3d5adf30	0.053435504
85	0xbe5512a2	-0.20807889
86	0x3e1676f9	0.14693822
87	0xbea963c3	-0.33083925
88	0x3cb61896	0.02222852
89	0xbb4d86af	-0.0031360795
90	0x3f8f868e	1.1212938
91	0x3f231d38	0.6371646
92	0xbf5df4b7	-0.8670153
93	0xbed65d55	-0.41868082
94	0x3d13a35a	0.036044456
95	0xbedb105b	-0.42785916
96	0xbe286e20	-0.1644826
97	0xbe5a0d43	-0.21294121
98	0x3e96aaa5	0.29427066
99	0x3f3b04b3	0.73054045
100	0xbc5cca7f	-0.013476013
101	0xbe94e685	-0.29082122
102	0xbefab6e0	-0.48967648
103	0xbe1dc6b3	-0.15407829
104	0xbe71497f	-0.23563193
105	0xbeac641d	-0.3367013
106	0xbf0691dd	-0.5256632
107	0x3c870465	0.016481588
108	0x3eaf9497	0.34293053
109	0xbe03cac3	-0.12870316
110	0x3eb6eead	0.3572897
111	0x3e0cfbe9	0.13767971
112	0xbe0dd681	-0.13851358
113	0x3e534184	0.20630461
114	0xbebc5646	-0.3678457
115	0x3d739a9b	0.059473615
116	0xbf05553f	-0.520832
117	0xbebc4f14	-0.36779082
118	0x3d384418	0.044986814
119	0x3f076e53	0.52902716
120	0x3e7d6971	0.24747254
121	0x3e75974e	0.239835
122	0xbb35de7f	-0.0027751026
123	0x3eba530d	0.36391488
124	0x3e624d05	0.22099693
125	0xbcba23c1	-0.022722127
126	0xbf02eecb	-0.5114562
127	0xbe81a572	-0.25321537
128	0x3d62e86c	0.055397436
129	0x3f0ca2d6	0.5493597
130	0xbeca1b9b	-0.39474186
131	0x3e8e57a0	0.27801228
132	0xbd83928d	-0.06424437
133	0x3ea7bd73	0.32761726
134	0x3f467810	0.7752695
135	0xbef2151a	-0.47281724
136	0x3a89c3de	0.0010510643
137	0xbe73ad9d	-0.23796697
138	0x3eea2c77	0.4573705
139	0x3df16ff6	0.11788933
140	0x3ed78499	0.4209335
141	0x3e53b016	0.2067264
142	0xbddd9afb	-0.10820576
143	0xbd2c2096	-0.042023264
144	0xbe953ca1	-0.2914782
145	0xbe7f0ab2	-0.24906424
146	0xbe873b9d	-0.2641267
147	0x3da0f2cb	0.07858809
148	0x3f149c74	0.5805123
149	0x3d3eb38b	0.046557944
150	0xbcf2ea37	-0.029652698
151	0x3f2890d6	0.65846
152	0x3e88b6a8	0.26701856
153	0x3e87394f	0.2641091
154	0x3f14c028	0.5810571
155	0x3ee3643d	0.44412413
156	0xbec3ac0e	-0.38217205
157	0x3de7eef2	0.11324872
158	0xbe57d4cd	-0.21077271
159	0xbe9e2dad	-0.30894223
160	0x3e333c63	0.17503504
161	0x3db0d7ba	0.086348966
162	0x3ef0a3a3	0.46999845
163	0x3e8ab8a6	0.27094
164	0xbf2099db	-0.62734765
165	0xbf462bbf	-0.774105
166	0x3f0f4e1c	0.5597856
167	0xbf705f56	-0.9389547
168	0x3f2d484c	0.6768844
169	0xbdac23ad	-0.08405242
170	0x3ef5322b	0.47889838
171	0xbe2c0e11	-0.16802241
172	0xbeed0fb8	-0.46301055
173	0x3f0497dd	0.51794225
174	0xbd098d12	-0.0335818
175	0xbf110ff5	-0.56664973
176	0xbdfabde2	-0.122432485
177	0x3f397e5f	0.7245845
178	0xbea2306d	-0.3167757
179	0x3e93042e	0.28714126
180	0xbec573c0	-0.38564873
181	0xbf0ba234	-0.5454438
182	0x3e641ad9	0.22275867
183	0xbec16a81	-0.3777657
184	0xbe34afe3	-0.1764522
185	0x3ee46a52	0.44612366
186	0xbef91f8f	-0.4865689
187	0x3eb2a220	0.34889317
188	0xbe42ea98	-0.19034803
189	0x3db46681	0.088086136
190	0x3d90049f	0.070321314
191	0x3ef9be44	0.48777974
192	0x3e2c0350	0.16798139
193	0x3d834c74	0.06411067
194	0xbe1cf5ce	-0.15328142
195	0x3d7995ac	0.060933754
196	0x3f0824d7	0.53181213
197	0xbec2617e	-0.37965006
198	0x3f2e7662	0.6814939
199	0x3e8c80c1	0.2744198
200	0x3cda8150	0.02667299
201	0x3eaf783b	0.34271416
202	0x3f369e33	0.7133514
203	0xbec8a36a	-0.39187175
204	0xbe6f23e7	-0.2335354
205	0x3e05d2ab	0.13068645
206	0x3f46480a	0.7745367
207	0x3e282e68	0.16423953
208	0xbe09c678	-0.13454616
209	0xbc14d1c8	-0.009083219
210	0x3e3b1812	0.18270901
211	0x3da08630	0.07838094
212	0xbddbc755	-0.10731379
213	0x3f1579eb	0.5838916
214	0x3b23a4fd	0.0024970167
215	0xbd8d0f06	-0.06887631
216	0xbe3ec556	-0.18629965
217	0x3deefd13	0.11669364
218	0xbdc7a3f1	-0.09748066
219	0x3e062ac2	0.13102248
220	0x3f3d9118	0.7404952
221	0x3e1820a4	0.14856201
222	0xbdfa2d14	-0.12215629
223	0xbf27706d	-0.65405923
224	0xbef830fd	-0.48474875
225	0x3efaf802	0.4901734
226	0xbe1d76bd	-0.15377326
227	0x3b9c3d49	0.004768048
228	0xbf08f94c	-0.53505397
229	0x3f0824db	0.53181237
230	0x3d1e04a0	0.03857863
231	0xbdfb8fd5	-0.12283293
232	0xbf3c51d0	-0.73562336
233	0xbcc4ea07	-0.024037374
234	0xbf6d8e3c	-0.9279516
235	0x3d960d14	0.07326713
236	0x3f5fa759	0.8736473
237	0xbed05ecc	-0.40697324
238	0x3ee3abb4	0.44466937
239	0xbbbe1207	-0.005800489
240	0xbe195622	-0.14974263
241	0x3e5094e1	0.20369293
242	0xbec07c06	-0.37594622
243	0x3eaa469d	0.33257
244	0xbe18fb94	-0.1493972
245	0x3bd8384c	0.006598508
246	0x3ca76aa3	0.02043659
247	0x3f654c8e	0.8956994
248	0x3da729fd	0.081623055
249	0x3ebef8af	0.37299106
250	0xbf7a81d8	-0.97854376
251	0xbe667c96	-0.22508463
252	0xbddd9e84	-0.1082125
253	0xbe6dcd2c	-0.23222798
254	0x3ec34846	0.38141078
255	0x3e232481	0.15931894

sequential/dense_1/MatMul f4 [91, 32]
0	0x3cf46acf	0.029836087
1	0xbe159c91	-0.14610507
2	0x3e7a2cb6	0.24431118
3	0xbf9b3ad5	-1.2127329
4	0xbf68f0be	-0.90992343
5	0xbf8e9890	-1.1140308
6	0xbf676874	-0.9039376
7	0xbf546073	-0.8295967
8	0x3e41351d	0.18867917
9	0x3dc953c0	0.09830427
10	0x3d9bb1c4	0.076022655
11	0x3df8ee36	0.1215481
12	0x3e2d07d2	0.16897514
13	0xbf469766	-0.77574766
14	0xbe6fad48	-0.23405945
15	0xbf139611	-0.5765086
16	0xbe278c87	-0.163622
17	0xbeff12c3	-0.49819002
18	0xbdff9a61	-0.12480617
19	0xbe47a5ed	-0.1949689
20	0xbf123290	-0.571084
21	0xbebb50b6	-0.36585015
22	0x3e0f8e9a	0.14019242
23	0xbf28b746	-0.65904653
24	0x3e2f8ff5	0.17144759
25	0xbefa4f86	-0.48888797
26	0xbfa4ae63	-1.2865719
27	0x3c9244d5	0.017855087
28	0x3da146f1	0.07874859
29	0x3e2ba13d	0.16760726
30	0xbf22b52d	-0.635577
31	0xbea56915	-0.32306734
32	0x3e3a8a6e	0.18216869
33	0xbf4210ad	-0.75806695
34	0xbf4f626b	-0.8100955
35	0x3e73b0cf	0.23797916
36	0x3dbbb866	0.091660306
37	0xbeefcc75	-0.46835676
38	0x3e7c14a4	0.24617249
39	0xbf22950f	-0.63508695
40	0xbf2adb50	-0.66740894
41	0xbe86e113	-0.26343593
42	0x3e3a2295	0.18177254
43	0xbf71f319	-0.9451156
44	0xbf83d82a	-1.0300343
45	0x3e8e6cca	0.27817374
46	0xbd23ec3b	-0.04002021
47	0xbf888bca	-1.066766
48	0xbee9539b	-0.45571598
49	0xbf22526d	-0.6340702
50	0xbf4f1147	-0.8088574
51	0xbf9159bd	-1.1355511
52	0xbf76e64b	-0.9644515
53	0xbf90f26b	-1.132398
54	0x3e14dbfd	0.14537044
55	0xbf8425c4	-1.0324025
56	0xbf6a9daf	-0.91646856
57	0xbf54ad5c	-0.83077025
58	0x3e81ae6b	0.25328383
59	0xbeb52d03	-0.35385904
60	0x3c049e84	0.008094434
61	0xbd5be20a	-0.053682365
62	0xbf4bd984	-0.7962878
63	0xbe0984d6	-0.13429579
64	0xbef5842b	-0.479524
65	0x3e5aa305	0.2135125
66	0x3e6050ac	0.21905774
67	0x3e1dc427	0.15406857
68	0xbea88dc5	-0.32920662
69	0xbee503b3	-0.44729385
70	0x3e2ad122	0.1668134
71	0xbf7243bc	-0.94634604
72	0xbc9b6df0	-0.01897332
73	0x3ce80dad	0.028326834
74	0xbf7e5883	-0.9935381
75	0xbf5c0819	-0.85949856
76	0xbf6ea1f7	-0.9321589
77	0x3e24c478	0.16090572
78	0x3e24ed97	0.16106258
79	0xbf156337	-0.58354515
80	0xbf7c2dfe	-0.9850768
81	0xbf732006	-0.9497074
82	0xbf871a91	-1.0554982
83	0xbfb03e43	-1.3769001
84	0xbf0af6ee	-0.54283035
85	0xbfbd7593	-1.4801506
86	0x3e41412a	0.18872514
87	0xbf37e0a3	-0.71827143
88	0xbf8bff36	-1.0937259
89	0xbf2a82a1	-0.66605574
90	0x3e2db53a	0.16963664
91	0x3e8bc0a6	0.27295417
92	0xbf8e78f4	-1.1130662
93	0xbdb4666a	-0.088085964
94	0xbf359c16	-0.70941293
95	0x3e123a5a	0.14280072
96	0x3d8f63a7	0.07001429
97	0x3d9ac29d	0.07556651
98	0xbef69f97	-0.48168632
99	0xbef8a846	-0.48565882
100	0xbfc99d19	-1.5751067
101	0xbf92d7e0	-1.147213
102	0xbf92a752	-1.1457312
103	0xbeee5595	-0.4654967
104	0x3e3116c2	0.17293838
105	0x3d657050	0.056015313
106	0x3e0dd908	0.13852322
107	0xbeef3aa1	-0.46724418
108	0x3e247371	0.16059662
109	0x3e4e1f85	0.20129211
110	0xbf861f12	-1.0478232
111	0xbe9fe334	-0.3122803
112	0x3e397137	0.18109594
113	0x3dc55c30	0.09636724
114	0xbf14e6ec	-0.5816486
115	0xbf83ae40	-1.0287552
116	0x3e345eb6	0.17614254
117	0xbfa07359	-1.2535201
118	0xbf5a719b	-0.853296
119	0x3dd8a1d1	0.10577739
120	0xbf084389	-0.5322805
121	0xbebbbc02	-0.36666876
122	0xbfc6c635	-1.5529238
123	0xbf31354c	-0.6922195
124	0x3e3f89fe	0.18704984
125	0x3e22d978	0.1590327
126	0xbf66468e	-0.8995141
127	0xbf396f42	-0.7243539
128	0xbf495e0c	-0.7865913
129	0x3e7ae61c	0.24501842
130	0x3e5bea92	0.214762
131	0xbf772129	-0.96534973
132	0xbf82c068	-1.0214968
133	0xbf4d2c49	-0.801457
134	0xbeeece73	-0.46641883
135	0x3d0a338f	0.033740576
136	0x3d452749	0.04813317
137	0x3dffb9cb	0.12486609
138	0xbfbd31b7	-1.4780797
139	0x3e3a7ac0	0.18210888
140	0xbe6bda6a	-0.23032537
141	0xbf91c80f	-1.1389178
142	0x3d547395	0.05186804
143	0x3d5cb240	0.05388093
144	0xbf020aa2	-0.50797474
145	0xbf92afa9	-1.1459857
146	0xbe972212	-0.2951818
147	0xbd92d317	-0.071691684
148	0x3de53232	0.111912146
149	0xbf41beaa	-0.75681555
150	0x3dc41e65	0.0957611
151	0xbf2c975a	-0.67418444
152	0x3daf01d5	0.08545271
153	0xbf2a63c3	-0.66558474
154	0xbf587eba	-0.8456837
155	0x3e15fc0a	0.14646927
156	0xbe42e3e6	-0.19032249
157	0x3d8143f8	0.06311792
158	0x3cb3a9f8	0.021931633
159	0x3d74ae4e	0.059736542
160	0x3db13549	0.086527415
161	0x3e5f8f9a	0.21832123
162	0xbf98aad5	-1.1927134
163	0x3da0cb17	0.07851236
164	0xbc6e5d12	-0.014548557
165	0x3d42ab45	0.047526617
166	0x3df6a327	0.120428376
167	0xbf15a78b	-0.58458775
168	0xbf74e355	-0.9565938
169	0xbfdc0520	-1.7189064
170	0x3d01e1d3	0.031709503
171	0xbf4bece2	-0.7965833
172	0xbf41290a	-0.75453246
173	0xbbc0f25c	-0.0058882665
174	0xbed87f80	-0.42284775
175	0x3d569531	0.052388374
176	0x3e896eea	0.26842433
177	0x3d3910b0	0.04518193
178	0xbd8a0d3d	-0.06740806
179	0xbf89a167	-1.0752381
180	0x3df5e9a0	0.12007451
181	0xbecae549	-0.39628056
182	0xbf88cd0f	-1.0687579
183	0xbd995df6	-0.07488625
184	0xbfb6d9ff	-1.4285277
185	0x3c075558	0.008260094
186	0x3dc8fd9f	0.098139994
187	0x3de60f1e	0.11233352
188	0xbed5f9e6	-0.4179222
189	0xbfa45d4a	-1.284097
190	0xbe3ebfe2	-0.18627885
191	0xbecad350	-0.39614344
192	0x3db19200	0.086704254
193	0xbebf274d	-0.37334672
194	0xbdd6ca31	-0.10487784
195	0x3d9d53b9	0.076819845
196	0xbfa5c142	-1.2949603
197	0xbcea651d	-0.028612668
198	0xbc4b586b	-0.012411217
199	0xbdd62813	-0.10456862
200	0xbed8e6c1	-0.4236355
201	0x3cc323b4	0.023820736
202	0xbe04f82c	-0.12985295
203	0x3e02a7a4	0.12759262
204	0xbf61f187	-0.88259166
205	0x3de501b2	0.11181964
206	0xbe96ac36	-0.29428262
207	0x3e24911b	0.16070978
208	0xbd3cb82c	-0.046074077
209	0xbf0e0335	-0.55473644
210	0xbfd57fe1	-1.667965
211	0xbe301de3	-0.17198901
212	0x3dc3a75c	0.09553406
213	0xbf8ac206	-1.0840461
214	0xbf5b9664	-0.8577635
215	0xbf5f4ed5	-0.87229663
216	0xbf987ae1	-1.19125
217	0xbc130974	-0.008974422
218	0x3e044fb1	0.12921025
219	0x3d5a7a35	0.053339202
220	0x3cac9986	0.0210693
221	0xbbbfe9c1	-0.005856723
222	0xbf25752e	-0.64631927
223	0x3e1c3ef7	0.15258394
224	0x3e0c592a	0.13705888
225	0xbe86c267	-0.26320192
226	0x3e38b668	0.18038332
227	0xbdd90270	-0.10596168
228	0xbebf5ad9	-0.37374
229	0xbef37273	-0.47548255
230	0x3c700702	0.014650108
231	0xbcd740ed	-0.026276076
232	0x3d449865	0.047996897
233	0x3da95ffb	0.0827026
234	0x3d79e8a4	0.06101288
235	0x3c9f316b	0.019432744
236	0xbe7e0d16	-0.2480968
237	0x3d8e7b2a	0.069570854
238	0xbf106535	-0.5640443
239	0x3dfb994e	0.122851
240	0xbefa6725	-0.48906818
241	0xbdf3e4a2	-0.119088426
242	0xbebd5e79	-0.3698614
243	0xbf1d4fef	-0.61450094
244	0xbf89f29d	-1.0777165
245	0xbf9df371	-1.2339917
246	0x3d57b3c6	0.05266168
247	0xbfb09f91	-1.3798696
248	0xbeaff4bc	-0.34366405
249	0xbd5d60f1	-0.05404753
250	0xbe08d8ca	-0.13363948
251	0x3da0c13a	0.07849355
252	0x3e52b6a0	0.20577478
253	0x3e1342c9	0.14380945
254	0xbf959a66	-1.1687744
255	0x3e287047	0.1644908

sequential/lstm/Read_2/ReadVariableOp1 f4 [256]
0	0xbd1adace	-0.037806325
1	0x3d1b571c	0.03792487
2	0x3e7c64ed	0.24647875
3	0x3e0df7c4	0.13864046
4	0x3dc0db22	0.09416796
5	0xbd47397b	-0.048638802
6	0x3e117abe	0.14206979
7	0x3b6f8e32	0.003655326
8	0x3c12579d	0.008932021
9	0x3caa76e2	0.02080864
10	0x3e37af03	0.17937855
11	0x3c8d6513	0.01726011
12	0x3d19c337	0.037539687
13	0xbd8baf77	-0.06820577
14	0xbd1092e4	-0.035296336
15	0x3ba2843c	0.004959611
16	0x3d4e0633	0.05029888
17	0x3df25c48	0.118340075
18	0xbd4e5413	-0.05037315
19	0xbbac3072	-0.0052547986
20	0x3e2d49f0	0.16922736
21	0x3e4eca8f	0.20194457
22	0x3da948f1	0.082658656
23	0x3d73c13b	0.05951045
24	0x3dfebbd8	0.12438172
25	0x3c0ac0d9	0.00846883
26	0x3d033df8	0.03204152
27	0xbd12d6e9	-0.035849486
28	0x3c97dcf6	0.01853798
29	0xbcd292a5	-0.025704691
30	0x3e6df152	0.23236588
31	0x3ab314df	0.0013662836
32	0x3d5adb20	0.05343163
33	0xbd13079e	-0.035895936
34	0x3d8e17a8	0.06938106
35	0xba887969	-0.001041216
36	0x3cf66acc	0.030080222
37	0x3d50c01f	0.05096447
38	0xbccd97b5	-0.025096754
39	0x3ca95575	0.020670632
40	0x3e1cb7f3	0.15304546
41	0x3ca0d511	0.019632848
42	0x3ddbdfbc	0.10736033
43	0x3da8f853	0.08250489
44	0x3d67e7e4	0.056617633
45	0x3d0872da	0.033312656
46	0x3d442f50	0.047896683
47	0x3df32c45	0.11873678
48	0x3e7ee0cc	0.2489044
49	0x3d82d389	0.063880034
50	0xbcb7787b	-0.022396317
51	0xbd1a1526	-0.037617825
52	0x3d35a3c6	0.04434564
53	0xbc883489	-0.016626613
54	0x3d810ec0	0.063016415
55	0x3e4044e6	0.18776283
56	0x3d4fc988	0.050729305
57	0x3bd1c421	0.006401554
58	0x3d809d20	0.06279969
59	0xbd81488b	-0.063126646
60	0x3d46c92a	0.04853169
61	0x3d115401	0.035480503
62	0xbd541947	-0.05178192
63	0xbc64f5a9	-0.013974586
64	0x3f8e2e77	1.110793
65	0x3f855d9c	1.0419192
66	0x3f806a13	1.0032371
67	0x3f8f84d9	1.1212417
68	0x3f8960ca	1.0732663
69	0x3f87c418	1.0606718
70	0x3f84e307	1.0381783
71	0x3f8d65bf	1.1046675
72	0x3f86bc68	1.0526247
73	0x3f88ef61	1.0698053
74	0x3f7df26d	0.9919804
75	0x3f75b774	0.9598305
76	0x3f827e48	1.0194788
77	0x3f883aa9	1.0642902
78	0x3f9137fd	1.1345211
79	0x3f89be3c	1.076118
80	0x3f90ecdc	1.1322284
81	0x3f877678	1.0583029
82	0x3f8275bb	1.0192178
83	0x3f768b08	0.96305895
84	0x3f830231	1.0235044
85	0x3f901156	1.125529
86	0x3f756c3f	0.95868295
87	0x3f7c6ab9	0.98600346
88	0x3f881463	1.0631222
89	0x3f768caf	0.96308416
90	0x3f7eb08e	0.9948815
91	0x3f81e2d4	1.0147347
92	0x3f83de33	1.0302185
93	0x3f7cd8f4	0.98768544
94	0x3f92a67e	1.1457059
95	0x3f8e2ed2	1.1108038
96	0x3f804cc6	1.0023429
97	0x3f81cd39	1.0140754
98	0x3f763d37	0.96187156
99	0x3f82e234	1.0225282
100	0x3f8267bc	1.0187907
101	0x3f873d23	1.0565532
102	0x3f82bacb	1.0213255
103	0x3f9bd2fb	1.2173761
104	0x3f902e5e	1.126415
105	0x3f7cdaf1	0.9877158
106	0x3f80e48f	1.006975
107	0x3f70ad6c	0.9401462
108	0x3f832406	1.0245368
109	0x3f8a3060	1.0796013
110	0x3f7eeab8	0.995769
111	0x3f7ec33d	0.9951666
112	0x3f94a8b9	1.161399
113	0x3f73e6e9	0.95274216
114	0x3f87682e	1.0578668
115	0x3f831ac4	1.0242543
116	0x3f8c00b8	1.0937719
117	0x3f84ad03	1.0365299
118	0x3f882c27	1.0638474
119	0x3f863f86	1.0488136
120	0x3f8009a7	1.0002946
121	0x3f8a657c	1.081222
122	0x3f79e01c	0.9760759
123	0x3f88d53b	1.0690073
124	0x3f8dcdae	1.1078393
125	0x3f7e0e15	0.9924024
126	0x3f7eca2a	0.9952723
127	0x3f8348c7	1.0256585
128	0x3cd98d21	0.026556553
129	0x3db7d496	0.089760944
130	0xbe083aa2	-0.13303617
131	0x3e362c2d	0.17790289
132	0xbd8ec571	-0.06971253
133	0xba1982a9	-0.00058559567
134	0x3d2abbe0	0.041683078
135	0xbd51540e	-0.05110555
136	0x3c3291b1	0.010898993
137	0x3dd4f477	0.103981905
138	0x3e14032f	0.1445434
139	0xbdb12e0e	-0.08651362
140	0xbca57576	-0.020197611
141	0x3cffdbd1	0.031232746
142	0xbccc6326	-0.024949621
143	0xbd098a70	-0.03357929
144	0xbd80afc1	-0.062835224
145	0xbda90e50	-0.08254683
146	0xbd3f7821	-0.046745423
147	0xbd9e88c2	-0.07740928
148	0x3d0d10ae	0.034439735
149	0x3ddde28f	0.10834228
150	0x3e03b548	0.12862122
151	0xbc8f6e8f	-0.017508773
152	0x3d340f78	0.043960065
153	0x3dd2588f	0.102707975
154	0x3cae1b38	0.021253213
155	0xbc35d35f	-0.011097758
156	0x3ce94a1b	0.028477719
157	0x3daec841	0.08534289
158	0x3e1b4f73	0.15167026
159	0xbd862d84	-0.0655165
160	0xbbf64a9b	-0.007516218
161	0xbdb0c0d5	-0.0863053
162	0xbe511a86	-0.20420274
163	0x3db5e6d8	0.088819206
164	0x3def18ad	0.116746284
165	0x3c0a0240	0.008423388
166	0xbd9744bf	-0.07386159
167	0x3a052610	0.0005079219
168	0xbe332acc	-0.17496794
169	0xbe4a63f7	-0.19764696
170	0xbdb71fe2	-0.08941628
171	0x3e068c5e	0.13139483
172	0x3d4750af	0.04866093
173	0xbbef03a8	-0.007294137
174	0xbe295975	-0.16538031
175	0xbdf2029d	-0.11816905
176	0xbe160f59	-0.14654292
177	0x3dec9726	0.11552267
178	0xbd82f8d1	-0.06395114
179	0xbcc90d54	-0.024542488
180	0xbdbffc55	-0.093743004
181	0xbca28fbf	-0.019843934
182	0x3d4b9f96	0.04971274
183	0x3d8032b2	0.06259669
184	0x3dec079f	0.11524891
185	0xbd4c7b78	-0.049922436
186	0xbd85228c	-0.0650073
187	0x3c29f4f6	0.010373345
188	0x3bc020c3	0.0058632805
189	0xbdf19011	-0.117950566
190	0xbe11057d	-0.1416225
191	0x3ce531e7	0.027977897
192	0x3da14bd6	0.07875793
193	0x3dbaee23	0.09127452
194	0x3d56b0a2	0.052414544
195	0x3e8a52fa	0.2701643
196	0x3e139a1c	0.14414257
197	0x3d1c2b5b	0.038127284
198	0x3e0eb823	0.1393743
199	0x3d8b0154	0.06787363
200	0x3d816946	0.063189074
201	0x3dc3420d	0.095340826
202	0x3d9341a6	0.07190256
203	0x3d204b52	0.03913433
204	0x3d80d3fd	0.062904336
205	0x3d8d1c99	0.0689022
206	0x3d98fb03	0.07469752
207	0x3d2f05ca	0.04273013
208	0x3e18001d	0.14843793
209	0x3d62e7ef	0.05539697
210	0x3c79a890	0.015237942
211	0x3d59ae3d	0.053144682
212	0x3de5ddcd	0.11223946
213	0x3c92589a	0.017864514
214	0x3d772b38	0.06034395
215	0x3da0de78	0.078549325
216	0x3d23f40b	0.04002766
217	0x3c9a91eb	0.018868407
218	0x3aafd3c6	0.0013414554
219	0x3dfa1fff	0.12213134
220	0x3c61a5cc	0.013772439
221	0x3c391477	0.011296383
222	0x3e207c7e	0.1567249
223	0x3d27451e	0.0408374
224	0x3ce15c91	0.02750996
225	0x3d540d67	0.051770594
226	0x3e81420f	0.2524571
227	0x3dc03447	0.09384971
228	0x3de8476e	0.11341749
229	0x3d4b4162	0.0496229
230	0x3d16887b	0.03675125
231	0x3e0a0b3b	0.13480847
232	0x3e932aa8	0.28743482
233	0x3d9a000f	0.075195424
234	0x3e663e4a	0.22484699
235	0x3dc03c4c	0.09386501
236	0x3db31205	0.08743671
237	0x3dae5981	0.08513165
238	0x3e3f277c	0.18667406
239	0x3db6ccf0	0.089258075
240	0x3e481761	0.19540168
241	0x3d885c95	0.066582836
242	0x3d29aa72	0.041422315
243	0x3d9d3480	0.07676029
244	0x3e24460c	0.16042346
245	0x3dd60e45	0.104519404
246	0x3da17ff6	0.07885735
247	0x3d678d92	0.056531496
248	0x3d8b702e	0.06808506
249	0x3ceb8c28	0.028753355
250	0x3cd2447f	0.025667427
251	0x3db37c3a	0.08763929
252	0x3e7ad258	0.24494302
253	0x3e177f73	0.14794712
254	0x3dfa5076	0.12222378
255	0x3ceb157b	0.028696766

while/MatMul_11 f4 [256, 64]
0	0x3da96148	0.08270508
1	0xbd76bc55	-0.0602382
2	0x3e343f4f	0.17602275
3	0xbc2230ee	-0.009899361
4	0x3d0e183e	0.034691088
5	0xbe8dd78b	-0.2770351
6	0xbe0d3e99	-0.1379341
7	0x3e6c02ad	0.23047896
8	0x3e7ee9d8	0.24893892
9	0x3b5ecffe	0.0033998485
10	0xbe4da619	-0.20082892
11	0xbdf06f1a	-0.11739941
12	0x3da27dfb	0.07934185
13	0xbe569657	-0.20955788
14	0xbcaa6f2e	-0.020804968
15	0xbdc44f47	-0.095854335
16	0xbe05f157	-0.13080345
17	0x3ebab27d	0.364643
18	0x3e5c150c	0.21492404
19	0x3d8bb42c	0.068214744
20	0xbd9c7aec	-0.07640633
21	0xbbcdab9c	-0.006276561
22	0xbde58958	-0.11207837
23	0xbd454d5d	-0.048169482
24	0xbe35477c	-0.1770305
25	0xbebb7239	-0.36610582
26	0xbd27f85b	-0.041008335
27	0xbe60903a	-0.21930018
28	0xbe31583c	-0.17318815
29	0x3e10ea91	0.1415198
30	0x3cb0a2c0	0.02156198
31	0x3d9b4ada	0.07582636
32	0x3e87b844	0.2650777
33	0x3dcd101f	0.100128405
34	0xbd8f594e	-0.069994554
35	0xbe38bbc8	-0.18040383
36	0x3c883a34	0.016629316
37	0x3e1e0bbd	0.15434165
38	0x3e5a9185	0.21344574
39	0x3eca052a	0.39457065
40	0x3e241791	0.16024615
41	0xbd7db1b6	-0.061937056
42	0x3ea4e066	0.32202452
43	0x3e59c567	0.2126671
44	0xbe97bd10	-0.2963643
45	0x3e519804	0.20468146
46	0xbdd0d49a	-0.101968005
47	0x3e1fbcfb	0.15599434
48	0xbdfadc43	-0.12249043
49	0xbe8c87af	-0.27447268
50	0x3e5bcf19	0.2146572
51	0x3da10203	0.07861712
52	0xbd3db098	-0.04631099
53	0x3bf78332	0.0075534815
54	0xbe714ae8	-0.2356373
55	0x3cad0175	0.021118859
56	0xbdec9cce	-0.115533456
57	0xbc180f30	-0.009280965
58	0xbbd44923	-0.006478445
59	0x3ca18ffc	0.019721977
60	0xba46b280	-0.0007579699
61	0xbf0230d6	-0.5085577
62	0x3db33966	0.08751182
63	0xbe7a6df0	-0.24456
64	0xbc3415e7	-0.01099155
65	0xbdf4a91c	-0.119463176
66	0x3d4614d7	0.04835972
67	0x3e93c841	0.2886372
68	0x3bda780b	0.0066671423
69	0xbdaa999a	-0.083300784
70	0x3d85607b	0.06512543
71	0xbe521014	-0.20513946
72	0x3d310f20	0.043227315
73	0xbe52b45e	-0.20576617
74	0x3e0c03f9	0.1367339
75	0xbe23d0f5	-0.1599768
76	0x3e30df43	0.17272668
77	0x3d9e2e56	0.07723682
78	0x3e3a5a9d	0.18198629
79	0x3d109e2e	0.035307102
80	0xbdd99517	-0.1062414
81	0xbd93c596	-0.07215421
82	0xbd83419a	-0.06408997
83	0x3dc0ccc1	0.09414054
84	0x3d8ff03e	0.070282444
85	0x3de5cf83	0.1122122
86	0xbda7ccd1	-0.081933625
87	0xbe09d36f	-0.13459562
88	0xbe96915c	-0.29407775
89	0x3d4b9d68	0.04971066
90	0xbd9cbc26	-0.07653074
91	0xbe2d2db4	-0.16911966
92	0x3ecb921c	0.3975991
93	0xbe612fa2	-0.21990827
94	0x3e2e2e68	0.1700989
95	0xbdbec410	-0.0931474
96	0xbcff59cb	-0.031170746
97	0xbdb18e05	-0.08669666
98	0xbee6141d	-0.4493722
99	0xbec08e22	-0.3760844
100	0x3d998a10	0.074970365
101	0x3e5eed99	0.21770324
102	0x3e3d1a23	0.18467002
103	0x3ce86797	0.028369708
104	0xbe408056	-0.18798956
105	0xbe840e46	-0.2579214
106	0x3c9809ca	0.018559355
107	0x3ea0ac18	0.31381297
108	0x3e16f1ec	0.14740723
109	0xbd1fc1b7	-0.0390031
110	0xbee1249e	-0.4397325
111	0x3e30349e	0.17207572
112	0xbd9ce749	-0.07661302
113	0xbd239fb5	-0.03994723
114	0xbe926640	-0.28593636
115	0x3e93f8d8	0.2890079
116	0xbe573bd9	-0.21018924
117	0x3d589bb6	0.052882873
118	0x3d6ab3f3	0.05730052
119	0x3e7b55c8	0.24544442
120	0xbd333252	-0.04374916
121	0x38f41f25	0.00011640628
122	0xbd901786	-0.07035737
123	0xb94814f5	-0.00019081293
124	0xbd89c7f9	-0.06727595
125	0x3e4c7352	0.19965866
126	0xbcc7fb25	-0.024411747
127	0xbd5f74fc	-0.054554924
128	0x3e31e608	0.17372906
129	0xbe6c4db0	-0.2307651
130	0xbc3acb80	-0.011401057
131	0x3dd21fc6	0.102599666
132	0xbdef07f3	-0.11671438
133	0x3d7587a3	0.059943806
134	0x3e22c52b	0.15895526
135	0x3cc5b3c6	0.024133574
136	0x3d9de63e	0.07709931
137	0xbd145c85	-0.036221046
138	0xbd908d31	-0.0705818
139	0x3e0f7ce9	0.14012493
140	0x3d517f0c	0.051146552
141	0x3c8756fe	0.016520973
142	0xbd053eac	-0.03253047
143	0xbe246123	-0.1605268
144	0xbe2d01ae	-0.16895172
145	0x3d8e889a	0.069596484
146	0xbcbbc685	-0.02292181
147	0xbd076d9c	-0.033063516
148	0x3d957cde	0.07299207
149	0x3e1c6739	0.15273751
150	0x3e1c974f	0.15292095
151	0x3e03bd4a	0.12865177
152	0xbe1d4541	-0.1535845
153	0xbd2b5043	-0.04182459
154	0x3df9c971	0.12196625
155	0x3da14e70	0.07876289
156	0xbcbc93fe	-0.023019787
157	0xbd8d37e0	-0.06895423
158	0x3e03291e	0.12808654
159	0x3e481660	0.19539785
160	0xbdf16006	-0.11785893
161	0x3cea6e35	0.028617004
162	0x3d17f68a	0.037100352
163	0x3ce3c91e	0.027805861
164	0x3d252c83	0.040325653
165	0xbdf2dd3d	-0.11858604
166	0x3e07cbc3	0.13261323
167	0xbc884f0d	-0.016639257
168	0xbdf1ef90	-0.11813271
169	0x3dd5d268	0.104405224
170	0x3db08ef2	0.08621015
171	0xbb924903	-0.00446427
172	0x3d0edaca	0.034876622
173	0x3d50ef8a	0.051009692
174	0xbdd9408e	-0.10608016
175	0xbdd36db7	-0.10323661
176	0xbe711740	-0.23544025
177	0xbdb0f43c	-0.08640334
178	0x3dc73670	0.0972718
179	0x3ccec93a	0.025242437
180	0x3de8453b	0.1134133
181	0x3cb18fbe	0.021674987
182	0x3dba5ded	0.09099946
183	0x3d98045b	0.07422706
184	0xbddfc121	-0.10925508
185	0x3d7d383e	0.061821215
186	0xbd901148	-0.07034546
187	0x3c1979b8	0.009367399
188	0xbe4860b2	-0.19568136
189	0xbe692c37	-0.22770773
190	0xbb0abdc3	-0.0021170236
191	0xbd12044a	-0.03564862
192	0x3cf5ef3e	0.030021306
193	0x3dc4429c	0.09583017
194	0xbe239940	-0.15976429
195	0x3e488794	0.19582969
196	0xbc897111	-0.016777547
197	0x3d1c7841	0.03820062
198	0x3e511b28	0.20420516
199	0xbe273b9c	-0.16331333
200	0x3cba65d3	0.022753632
201	0x3dd326d9	0.10310144
202	0x3b1e949e	0.002419747
203	0x3b93644c	0.0044980403
204	0x3d0c15e2	0.034200557
205	0x3d16164f	0.03664237
206	0x3d1e5012	0.03865058
207	0xbe19381c	-0.1496281
208	0xbe26fe47	-0.16307937
209	0xbcc63c73	-0.024198746
210	0x3d9bf80d	0.07615671
211	0xbdc7c875	-0.09755031
212	0x3d1fa8d3	0.038979363
213	0x3dad9634	0.084759146
214	0xbd9c2ecc	-0.07626113
215	0xbc099d90	-0.008399382
216	0xbaeaad10	-0.001790436
217	0x3d9a72b2	0.07541408
218	0x3c82ceca	0.015967745
219	0xbdc6a3f1	-0.09699238
220	0x3e11ee5a	0.1425108
221	0xbd806928	-0.06270057
222	0x3e1b6ff2	0.15179422
223	0xbce83dd5	-0.028349796
224	0xbdce2e8a	-0.1006747
225	0x3d1a09cf	0.03760701
226	0xbc53af76	-0.012920251
227	0xbd9f95de	-0.07792257
228	0xbd3896d5	-0.04506572
229	0xbdb2ae96	-0.08724706
230	0xbddb5530	-0.107096076
231	0x3c8ec702	0.017428879
232	0xbdb63892	-0.08897509
233	0xbd74610a	-0.059662856
234	0xbaee7c3f	-0.0018194987
235	0x3c931474	0.017954089
236	0xbbec1285	-0.007204356
237	0xbd7c1bdf	-0.061550017
238	0x3c834a86	0.016026746
239	0xbdf33085	-0.11874489
240	0xbe9c61a8	-0.30543256
241	0x3dc7b8bb	0.097520314
242	0x3e0f4071	0.13989426
243	0x3d8e835c	0.069586486
244	0xbd6e745b	-0.058216434
245	0x3c119a03	0.008886817
246	0x3be96914	0.007123122
247	0x3d1f52a9	0.03889719
248	0xbc8b620a	-0.017014522
249	0xbe27919e	-0.16364142
250	0xbe43e036	-0.19128498
251	0x3daf0643	0.08546116
252	0xbe15b6b6	-0.1462048
253	0xbe12d720	-0.14339876
254	0x3abb4c6b	0.0014289742
255	0x3d1ea50e	0.038731627

while/MatMul f4 [256, 84]
0	0xbe483d41	-0.19554617
1	0xbc2666c4	-0.010156337
2	0x3d051592	0.032491274
3	0x3e0ed557	0.1394857
4	0xbe274d1f	-0.16338013
5	0x3e5aa274	0.21351033
6	0xbc9f082d	-0.019413078
7	0x3d5df9e5	0.054193396
8	0x3c811501	0.015757086
9	0x3e1af539	0.15132608
10	0xbd0242a0	-0.03180182
11	0x3e5e0860	0.21682882
12	0x3da09f8f	0.078429334
13	0x3e804137	0.25049755
14	0xbd9c5b11	-0.07634557
15	0x3e629735	0.22127993
16	0xbe07bcaf	-0.13255571
17	0x3deb3947	0.11485534
18	0xbdfe2553	-0.12409463
19	0x3e14c987	0.14530002
20	0xbdb285a4	-0.08716896
21	0x3bc96055	0.006145517
22	0xbde2ae19	-0.11068363
23	0x3e385f6c	0.1800515
24	0xbdb4f29b	-0.08835336
25	0xbd033ea7	-0.03204217
26	0xbdb2aefd	-0.087247826
27	0x3e43641a	0.19081154
28	0xbcd2351a	-0.025660086
29	0x3dcc66ff	0.099805824
30	0xbccfc638	-0.025363073
31	0x3d280e2b	0.041029137
32	0xbe4a2569	-0.19740833
33	0xbd31c859	-0.043403957
34	0xbe34be82	-0.17650798
35	0x3d48213e	0.048859827
36	0xbe01fe71	-0.12694718
37	0xbd4f5bc7	-0.050624635
38	0xbde654ea	-0.11246665
39	0xbc5d75a0	-0.0135168135
40	0xbe49e555	-0.1971639
41	0x3df8e071	0.12152184
42	0x3c1bef84	0.009517554
43	0xbe9094f6	-0.28238648
44	0x3d307f60	0.043090224
45	0xbe146e4d	-0.14495201
46	0xbc6ff705	-0.014646296
47	0xbdc63c9e	-0.096795306
48	0xbb7ae293	-0.0038282021
49	0xbd1eab21	-0.03873742
50	0x3d96f83f	0.07371568
51	0x3d1a15ab	0.03761832
52	0xbdac0986	-0.08400254
53	0xbce33fa1	-0.027740302
54	0x3b19d47f	0.0023472605
55	0x3e35658d	0.1771452
56	0x3d4f5ab0	0.050623596
57	0xbb48cfe5	-0.0030641493
58	0x3dbbaf8f	0.091643445
59	0xbdc1c0d6	-0.09460609
60	0x3d9fbc5a	0.07799597
61	0x3d546d03	0.051861774
62	0x3d8d2077	0.06890958
63	0xbdd6b137	-0.1048302
64	0x3d0b9195	0.034074385
65	0xbdb43a4e	-0.08800183
66	0x3defdd8a	0.11712177
67	0xbe00d78e	-0.12582228
68	0x3d910b7e	0.0708227
69	0x3ddddb85	0.10832886
70	0x3d6ab692	0.05730302
71	0xbd895312	-0.067052975
72	0xbd94aa54	-0.0725905
73	0x3d05e03d	0.032684553
74	0xbd83955f	-0.06424975
75	0xbdef2c31	-0.11678351
76	0x3da41e91	0.080136426
77	0xbe46ec15	-0.19425996
78	0x3cd08e64	0.025458522
79	0x3ce61c42	0.028089646
80	0x3d120eb0	0.03565854
81	0xbcc67422	-0.024225298
82	0xbddbecd9	-0.107385345
83	0xbd78b37a	-0.060718037
84	0xbdc92b75	-0.09822742
85	0xbc697b04	-0.014250521
86	0xbbd229aa	-0.006413658
87	0x3cbe8fdc	0.023261957
88	0x3d859093	0.06521716
89	0xbe147a8a	-0.1449987
90	0xbcfdf89f	-0.03100234
91	0xbe1888cb	-0.14895932
92	0x3d7deaf0	0.061991632
93	0xbe278270	-0.16358352
94	0x3db39c52	0.0877005
95	0x3b6dcf46	0.0036286875
96	0xbbfed2ca	-0.007776593
97	0x3c0c8387	0.00857628
98	0xbd3c1f84	-0.045928493
99	0x3c14ed49	0.009089776
100	0xbe0e2574	-0.13881475
101	0x3c6d551e	0.014485626
102	0xbdc33def	-0.09533297
103	0x3d45d51c	0.04829894
104	0xbdcce077	-0.10003751
105	0x3dda9ae9	0.10674078
106	0x3d184594	0.03717573
107	0xbdaecca2	-0.08535124
108	0x3d63c9b6	0.05561229
109	0xbdc1436e	-0.09436689
110	0x3cc33bc7	0.023832215
111	0xbdc57908	-0.096422255
112	0xbe021514	-0.12703353
113	0xbdf01c9c	-0.11724207
114	0x36cbfaa8	6.0790517e-06
115	0x3d687bca	0.05675868
116	0x3c84feca	0.016234774
117	0xbe06e417	-0.13172947
118	0xbdba6e29	-0.09103043
119	0xbcc9dd68	-0.024641708
120	0xbde58f69	-0.11208994
121	0xbdc0f728	-0.09422141
122	0xbe0415f5	-0.12899001
123	0x3e033aa8	0.12815344
124	0xbdfc52f3	-0.12320509
125	0x3b07dae1	0.0020729827
126	0x3d63d6b0	0.055624664
127	0xbcd03e05	-0.025420198
128	0xbdd84a3d	-0.10561035
129	0xbe532bc8	-0.2062217
130	0x3df56860	0.119827986
131	0xbe5a481a	-0.21316567
132	0x3ca52798	0.020160481
133	0xbe469c3e	-0.19395539
134	0x3de8850a	0.113535
135	0xbeb08ebd	-0.344839
136	0xbe061d54	-0.13097125
137	0xbe8c7266	-0.2743103
138	0x3d2df3a7	0.042468693
139	0xbe9d24c9	-0.30692127
140	0xbd1facd6	-0.03898319
141	0xbe9861e5	-0.29762188
142	0x3da1dbda	0.079032615
143	0xbe4eb162	-0.20184854
144	0xbd60468f	-0.05475479
145	0xbe6bc212	-0.2302325
146	0x3d0a8485	0.033817787
147	0xbd81ae55	-0.06332079
148	0xbdab095d	-0.08351395
149	0xbe00310d	-0.12518711
150	0x3bcb1cf3	0.0061985194
151	0xbe903444	-0.28164876
152	0x3c2d0e25	0.010562454
153	0xbe2324b8	-0.15931976
154	0x3d15cbc6	0.036571287
155	0xbe355c9b	-0.17711107
156	0xbdb3e3b9	-0.08783669
157	0xbe1c58a3	-0.15268187
158	0x3e11145a	0.1416792
159	0xbe8247d5	-0.25445428
160	0xbc93b044	-0.018028386
161	0xbda6f37e	-0.08151911
162	0x3dccfb81	0.10008908
163	0xbd0ea9eb	-0.034830015
164	0x3cda3505	0.02663661
165	0xbdd65909	-0.10466201
166	0xbdd86628	-0.1056636
167	0xbd79ae5c	-0.060957298
168	0x3e4bc9c8	0.19901192
169	0x3e74f237	0.23920523
170	0x3e60990e	0.21933386
171	0x3e50e6d3	0.20400552
172	0x3e1711be	0.14752862
173	0x3e3aee33	0.18254928
174	0x3eb5cf82	0.35509878
175	0x3e56a625	0.20961817
176	0x3e85e867	0.2615387
177	0x3e3a67a4	0.18203598
178	0x3e433fa9	0.19067253
179	0x3e894c4b	0.2681602
180	0x3ebbafcc	0.3665756
181	0x3e401240	0.18756962
182	0x3e9313bc	0.28725994
183	0x3e8e9f06	0.278557
184	0x3e6ec616	0.23317751
185	0x3e5037ed	0.20333834
186	0x3e70c9b7	0.23514448
187	0x3e74f39d	0.23921056
188	0x3e77111b	0.24127619
189	0x3ea4a65d	0.32158175
190	0x3e7cf4df	0.24702786
191	0x3dc83f62	0.09777714
192	0x3e4a7bf2	0.19773844
193	0x3ea854ab	0.32877097
194	0x3dff3fa8	0.12463313
195	0x3e218b06	0.1577569
196	0x3e99cff4	0.30041468
197	0x3da5eda7	0.08101969
198	0x3eb0cd1a	0.3453148
199	0x3ea24309	0.3169177
200	0x3e9d86c8	0.30766892
201	0x3e7c10a5	0.24615724
202	0x3ea03e12	0.31297356
203	0x3e9cd793	0.3063322
204	0x3e7b34e8	0.24531901
205	0x3ea7a19b	0.32740483
206	0x3e34b97b	0.1764888
207	0x3dea8090	0.114503026
208	0x3eb472f6	0.35243958
209	0x3e5609ea	0.2090222
210	0x3de9a73f	0.11408853
211	0x3dbb5373	0.09146776
212	0x3df44bdb	0.11928531
213	0x3e01e99b	0.1268677
214	0x3e9e2d2e	0.30893844
215	0x3da8c86f	0.08241355
216	0x3e99c82b	0.3003553
217	0x3e4f4bdd	0.20243783
218	0x3e54baa8	0.20774329
219	0x3e9692bc	0.29408824
220	0x3e02c1e0	0.1276927
221	0x3e7eb9ba	0.24875537
222	0x3e58a2cc	0.21155852
223	0x3e6a5179	0.22882642
224	0x3eb275c4	0.34855473
225	0x3d6f3f74	0.058410123
226	0x3e93ff82	0.28905874
227	0x3dc2ec78	0.09517759
228	0x3e374a79	0.17899503
229	0x3dfa2717	0.12214487
230	0x3e9bf3f8	0.3045957
231	0x3dd46d59	0.10372419
232	0x3e9df365	0.30849758
233	0x3e8f53c9	0.2799361
234	0x3dedac41	0.116051205
235	0x3e511e41	0.20421697
236	0x3e755e24	0.23961693
237	0x3dbe6695	0.0929691
238	0x3e1b9ac2	0.15195754
239	0x3d65e50a	0.05612663
240	0x3e56a128	0.20959914
241	0x3ddcffc3	0.1079097
242	0x3e89581f	0.26825044
243	0x3d86394b	0.065538965
244	0x3e330e14	0.17485839
245	0x3e5ab591	0.21358325
246	0x3e8980da	0.26856118
247	0x3e9aa86a	0.30206615
248	0x3e83b3c3	0.25723085
249	0x3daa49f1	0.083148845
250	0x3e82aaad	0.2552084
251	0x3d62d61b	0.055379968
252	0x3dd2f07c	0.10299775
253	0xbe7e3e0b	-0.24828355
254	0x3d865f70	0.06561172
255	0xbdc83976	-0.09776585
